models/mlp_model.pth (torch, 4205 bytes, 5 tensors)

layers.0.weight f4 [16, 8]
000000 05 3b 5e be 3f 24 14 bf 1a 1b 96 3e a6 e5 cf be
       -0.21702202 -0.5786781 0.29317552 -0.40604895
000010 28 30 a9 3e 34 19 18 3d dc 6b d8 be db da 09 bf
       0.33044553 0.03713341 -0.4226979 -0.5384957
000020 1e 3b 39 3f ed 7a b4 3e 59 fb 81 be 62 a9 15 3f
       0.7235583 0.35250035 -0.25387076 0.5846158
000030 24 38 df 3e 53 57 d8 3e 98 f3 ee bd 9a 8b 06 bf
       0.4359752 0.42254123 -0.116675556 -0.52556765
000040 32 dc 28 3f 93 cd 89 3e cc 48 3a bc 5d 62 47 3e
       0.6596099 0.26914653 -0.011369895 0.19471116
000050 cb 28 7c be 37 dd 96 be f8 36 1d 3f 88 f2 61 be
       -0.24624936 -0.2946565 0.61412 -0.22065175
000060 54 c0 eb be 31 11 e2 3e 8e 91 bc 3e 02 48 c8 be
       -0.46045172 0.4415374 0.368298 -0.39117438
000070 f9 b6 bf 3e 0d 95 0a 3f da f8 89 3c 7f 3b 6d bd
       0.37444285 0.54133683 0.016842294 -0.057918068
000080 10 8a 59 be 47 86 f4 3e fb 6a 2e bc f9 61 c0 3d
       -0.21244073 0.47758695 -0.010645623 0.09393687
000090 02 54 26 3e 77 49 c8 3d 57 7e 28 bf 25 47 6e 3d
       0.16242984 0.09779637 -0.6581778 0.058173317
0000a0 56 0f 47 bf 81 57 86 be 7f 2b 10 be ae eb 29 bf
       -0.77757776 -0.26238635 -0.14079092 -0.66375244
0000b0 bf c5 05 bf 5a d7 ac be b5 c2 b0 3e aa 79 8c 3c
       -0.5225486 -0.3375805 0.3452355 0.017147858
0000c0 3d b7 01 be 27 19 9d be d8 81 38 3e a6 be 6b 3e
       -0.12667556 -0.30683252 0.18018281 0.23021945
0000d0 f9 a2 44 bf ac dd c9 be 44 a1 a5 bd c5 c6 1b bf
       -0.76811177 -0.39426935 -0.080873996 -0.60850173
0000e0 50 4f 45 3f 6a d6 a0 3d 0c ac 06 3f 3f 7c c3 3d
       0.77074146 0.07853396 0.5260627 0.095451824
0000f0 c8 1a a7 3e 91 bd 35 be 40 0e 10 bf 2d b9 d2 be
       0.3263762 -0.17748095 -0.56271744 -0.41156903
000100 f5 0c ab be c9 37 a5 be 4c 7b 86 be c5 fe 19 bc
       -0.33408323 -0.32269123 -0.26265943 -0.009399121
000110 04 1a 03 3f 51 8d 1e bf dd 49 be bd e7 93 2f bf
       0.5121157 -0.6193438 -0.09291432 -0.68585056
000120 c3 2b ee 3d 08 0c ac bd 8c e0 74 bf f4 6e f4 3e
       0.11629441 -0.08400732 -0.9565513 0.477409
000130 4d 70 bb be ed df 87 3e 14 10 ee 3d c0 f8 84 3d
       -0.36609116 0.2653803 0.116241604 0.06492758
000140 49 57 2e bd 31 40 a2 be b1 47 e9 be a3 cf e9 3d
       -0.04256371 -0.316896 -0.4556251 0.11416557
000150 28 0a 30 bf e6 78 2f bf 34 63 93 3c a6 ef 28 3f
       -0.687655 -0.6854385 0.01799164 0.65990674
000160 2e 08 07 bf d9 4d 0b 3f 15 ec 48 bb 41 0c 36 3e
       -0.52746856 0.5441566 -0.0030658294 0.17778112
000170 c7 df 30 3d d9 cd 6d 3e 74 ca 15 3c ed b7 aa 3e
       0.04318216 0.23223056 0.009142507 0.3334345
000180 17 73 73 be d9 19 dd 3d b5 b4 26 3f d0 e2 6e 3e
       -0.23774372 0.10795946 0.6511949 0.2332871
000190 65 94 ac 3e fa bb cb bd 8a 8a 43 3f f6 ab cf be
       0.33706966 -0.09947963 0.7638327 -0.40560883
0001a0 eb 20 ca 3c 08 33 eb 3e 1e 63 b7 bd 82 15 c9 be
       0.0246739 0.4593737 -0.08954452 -0.39274222
0001b0 92 b3 79 bd a0 e1 e9 3e fc e0 99 3e 8b 48 9a 3e
       -0.060962267 0.4567995 0.30054462 0.3013347
0001c0 87 eb b5 be d5 e8 4c 3d 25 40 44 bd 97 7e db 3e
       -0.35531256 0.050026733 -0.047912735 0.42870018
0001d0 bc 32 36 bf 0a 40 a8 be c1 e7 0d bf c9 a4 37 be
       -0.71171165 -0.32861358 -0.55431753 -0.17933954
0001e0 71 49 d2 3c b3 97 3f be 37 25 f3 bd 9d f4 92 3d
       0.025669785 -0.18710212 -0.118723325 0.071755625
0001f0 b2 96 d1 be f7 d8 51 3e db 80 0f bf b0 2a 3a 3d
       -0.40935284 0.20492922 -0.5605599 0.045450866

layers.0.bias f4 [16]
000000 2a 3e d3 bc b3 48 b5 3e b7 fb e7 3e 1e 79 f5 be
       -0.025786478 0.35407028 0.4530923 -0.47943968
000010 83 d7 80 3e 0f e6 21 3f d0 f3 ab 3e 7e 8a 82 3e
       0.25164422 0.63241667 0.33584452 0.25496286
000020 4b da 0e 3e 87 f7 85 3e fb 4f aa be 04 27 bf 3e
       0.1395046 0.2616541 -0.33264145 0.37334454
000030 aa 6e f6 be 8f 04 b3 bd a8 e4 82 bd 73 5a 85 3d
       -0.48131305 -0.08741104 -0.06391269 0.065113924

layers.2.weight f4 [8, 16]
000000 b7 47 38 3f a1 59 8e bf 58 01 68 3d e2 9b fe 3e
       0.7198443 -1.1121103 0.056641906 0.49728304
000010 2c 9d 1d bf fb c9 26 be 3d 7c a9 3e a9 fa 52 3e
       -0.6156795 -0.16287987 0.331026 0.20603432
000020 eb 79 55 3f d9 e3 1d 3e dd 8a 7e 3f ca d8 67 be
       0.8338916 0.15418948 0.9943064 -0.22641292
000030 02 17 ba 3e c4 42 0f 3f 21 0d 1d bf 9e 75 c0 be
       0.3634568 0.5596125 -0.6134816 -0.37589735
000040 d2 75 20 be 33 22 b0 3d 73 9c d7 3e b9 ba 8e 3e
       -0.15669945 0.08600273 0.4211155 0.27876833
000050 d9 51 6b 3e a4 b5 16 3f 7f a0 0d be 8a db f9 3c
       0.22980441 0.5887091 -0.13830756 0.030500192
000060 7a 87 4a 3d fd a5 8b 3b 16 4c 3f be d4 15 7d 3e
       0.049445607 0.0042617307 -0.18681368 0.24715358
000070 bd de 5e be f2 8c 61 3d 0a e1 3c 3e 57 58 a6 3a
       -0.21764655 0.055066057 0.1844522 0.0012691122
000080 00 7c a0 3b cd 0f c8 3e 8a 2d 82 3e 74 d9 12 3e
       0.0048975945 0.39074555 0.2542537 0.14340764
000090 c5 5f 1e 3e 31 60 7c be 45 50 23 be 3f 54 27 3e
       0.1546622 -0.24646069 -0.15948589 0.16340731
0000a0 5e 28 38 3d 0a 41 93 3e 8d 9d e7 bd 87 16 53 3e
       0.044960372 0.28760558 -0.11309347 0.20614062
0000b0 6e 02 79 be a3 b0 13 3d 77 10 18 bf fe 83 5f bd
       -0.24317333 0.036057126 -0.59400123 -0.054569237
0000c0 30 5f 20 be 89 bf 09 3d 8e 23 b7 3e 10 98 0f 3f
       -0.15661311 0.033629928 0.35769314 0.56091404
0000d0 72 81 c5 3e bd 06 2f 3f 6f 56 82 bc 09 e6 d6 bd
       0.3857532 0.68369657 -0.015910355 -0.104930945
0000e0 41 8a f6 bd 9b 15 cb bd 9b eb 96 be 6d a3 88 3e
       -0.120380886 -0.0991623 -0.29476628 0.26687184
0000f0 aa 8d fb be 05 4d 7a be 96 3e eb 3c 41 15 ee bd
       -0.4913152 -0.24443443 0.028716367 -0.116251476
000100 cf 8d ff 3e cd 7b 1d 3d f8 12 be be da 05 19 bf
       0.4991288 0.038448144 -0.37123847 -0.59774554
000110 e1 ef a9 3e cb b9 05 3e 08 6f ff 3e 66 98 f2 3e
       0.33190826 0.13059156 0.49889398 0.47381896
000120 83 28 90 3e 73 52 6c 3e 41 7a e2 3e a0 db 48 3c
       0.28155908 0.23078327 0.44233897 0.012259394
000130 43 02 18 3e cc 44 97 be ce 13 35 3e 08 58 bd 3e
       0.14844613 -0.29544675 0.17683336 0.36981225
000140 1d ad 02 3f db fe a7 bc c7 24 97 be 9d 33 e9 bd
       0.510454 -0.020507267 -0.29520246 -0.113867976
000150 ce d7 b1 3e a2 e7 c0 3c c6 0d aa 3e e9 5c 80 3e
       0.34734958 0.023547951 0.33213633 0.25070885
000160 e6 92 88 3e 21 a4 cb 3e 53 1d e8 3e ec b2 5c be
       0.26674575 0.39773658 0.45334873 -0.21552628
000170 f6 39 16 3e af cf 95 be 67 d4 7d 3e cc 75 81 3e
       0.14670548 -0.29260013 0.24788056 0.25285184
000180 0b 40 31 3f 81 ea 04 be 1e fc 78 be 8a 24 da 3e
       0.69238347 -0.12980081 -0.24314925 0.42606002
000190 3f 2e 48 3d 3f a5 ba 3d 49 60 04 3f a0 ff b2 3e
       0.04887223 0.091135494 0.5170942 0.3496065
0001a0 a9 b3 1d 3f 72 9d 91 3e 5e b0 48 3e 7f c4 2d bf
       0.61602265 0.28440434 0.19598529 -0.67877954
0001b0 d6 b6 f2 3e ab 1e d6 be 88 ad bb 3e 55 8e b5 bd
       0.47405118 -0.41820273 0.3665583 -0.08865038
0001c0 24 37 9d be 8c 7c 80 3e 0d b1 0f 3f b1 6b 87 3e
       -0.3070613 0.25095022 0.56129533 0.2644935
0001d0 d8 43 aa 3e 08 13 29 3e b2 a8 c5 3c 05 0f 64 3e
       0.33254886 0.16511166 0.024128292 0.22271354
0001e0 9d 2c ad 3d bb 1d ad bb bc ff 08 bf 86 b9 59 3e
       0.08455775 -0.005283085 -0.5351522 0.21262178
0001f0 54 32 a6 be 76 df 36 3e a3 c0 bd be b8 77 8a be
       -0.32460272 0.17858681 -0.37061033 -0.27044463

layers.2.bias f4 [8]
000000 25 5a 6c be c6 fd 0b 3d 3c a5 88 be 48 8e f1 3e
       -0.23081262 0.034177564 -0.26688564 0.47178864
000010 00 fd 27 3e 03 a8 b5 3e 24 f0 6a 3c a0 d4 a5 bd
       0.16405106 0.35479745 0.014339481 -0.080971956

layers.4.weight f4 [1, 8]
000000 f3 d5 a7 bf 88 ce 81 3e 69 11 d5 3e c0 d8 59 3f
       -1.3112167 0.25352883 0.41614845 0.8509636
000010 92 46 b8 be 14 87 f8 be 00 76 d5 be 44 80 de 3e
       -0.3599134 -0.48540556 -0.4169159 0.43457234
