models/mlp_model.pth (torch, 57496 bytes, 19 tensors)

layers.0.weight f4 [128, 8]
0	0x3e2ae871	0.16690232
1	0x3e5de94c	0.21671027
2	0xbc8ca58c	-0.017168783
3	0x3e80d252	0.25160462
4	0xbc85d8a6	-0.016338658
5	0x3d6010ac	0.0547034
6	0xbdef4146	-0.11682372
7	0x3e5dfdea	0.21678892
8	0x3e80acfd	0.2513198
9	0xbe77e81b	-0.24209635
10	0x3e80982c	0.25116098
11	0x3d47ab08	0.048747092
12	0x3e1a32bd	0.15058418
13	0x3c4b1000	0.012393951
14	0x3e131e6f	0.14367078
15	0xbd3b0343	-0.045657407
16	0x3e4918e9	0.19638409
17	0x3d6bf4e2	0.057606585
18	0xbe062af5	-0.13102324
19	0x3dc24c8a	0.09487255
20	0xbe8ffae9	-0.28121117
21	0xbdb2ae99	-0.08724708
22	0xbd2c179d	-0.042014707
23	0x3dc10deb	0.09426483
24	0xbe699c44	-0.22813517
25	0xbdaf3f69	-0.085570164
26	0xbd83b793	-0.064314984
27	0xbe3b8e44	-0.18315989
28	0x3d8cf176	0.068819925
29	0xbe6f7047	-0.23382674
30	0x3e6cecdd	0.23137231
31	0xbe664004	-0.22485358
32	0x3e9d2aef	0.30696818
33	0x3e15a85b	0.14615004
34	0xbdc3398e	-0.09532462
35	0x3e10ffd7	0.14160095
36	0x3d8d1f8f	0.06890785
37	0x3db5024d	0.088383295
38	0x3ce6192d	0.028088177
39	0xbdf4c494	-0.11951557
40	0x3dbeac87	0.09310251
41	0xbd1595c4	-0.03651978
42	0x3def5d67	0.11687737
43	0x3e59b747	0.21261321
44	0x3e30d8ae	0.17270157
45	0xbd924159	-0.0714137
46	0x3e8a9a23	0.27070722
47	0xbd25dd76	-0.040494405
48	0x3dec80f0	0.115480304
49	0xbe079be1	-0.13243057
50	0xbea923a3	-0.33035
51	0xbdfd298c	-0.1236144
52	0xbe415a18	-0.18882024
53	0x3e999ff6	0.30004853
54	0xbd83577f	-0.06413173
55	0x3dcc2238	0.09967464
56	0x3ddaef64	0.106901914
57	0x3d79749f	0.060902234
58	0x3e8afeba	0.27147466
59	0xbe29e2cc	-0.16590422
60	0x3d0a7a8e	0.033808284
61	0xbe69d48a	-0.22834983
62	0x3d58d644	0.052938715
63	0xbe10aff6	-0.14129624
64	0x3e2b6cb5	0.16740687
65	0xbdaeae6c	-0.08529362
66	0x3e76eee8	0.24114573
67	0xbdcbd9b2	-0.099536315
68	0xbe245231	-0.16046979
69	0xbe6ad96e	-0.22934505
70	0x3e4d5a11	0.20053889
71	0x3e0899aa	0.13339868
72	0x3e5e765a	0.21724835
73	0xbea1f73a	-0.3163393
74	0xbea352c5	-0.31899086
75	0xbdbbd1e2	-0.09170891
76	0xbdb3415b	-0.087527
77	0x3e09ffb8	0.13476455
78	0x3dc18a21	0.09450174
79	0x3e8872e7	0.26650164
80	0xbded3f90	-0.11584389
81	0xbe5f4b0b	-0.2180597
82	0x3e6aeb4b	0.2294132
83	0xbdd5bc0c	-0.10436258
84	0x3e5c141c	0.21492046
85	0xbde82378	-0.1133489
86	0x3d8acc39	0.06777234
87	0xbe8651f2	-0.26234394
88	0xbde10af0	-0.10988414
89	0x3c4aead7	0.012385092
90	0x3e219f40	0.15783405
91	0xbe262d60	-0.16228247
92	0x3e8ee27d	0.27907172
93	0x3e316855	0.17324956
94	0xbe3a8c1e	-0.18217513
95	0xbd86a7ae	-0.06574951
96	0x3e68e499	0.22743453
97	0xbded7abc	-0.11595675
98	0xbe0b1bb9	-0.13584794
99	0xbeae5281	-0.3404732
100	0xbdc5dfc8	-0.096618235
101	0x3dac19d5	0.084033646
102	0xbd496681	-0.04917002
103	0xbe279829	-0.16366638
104	0xbca318a2	-0.019909207
105	0xbe306c29	-0.1722876
106	0xbebae3a8	-0.36501813
107	0xbdd83984	-0.10557845
108	0xbdeda5b6	-0.116038725
109	0xbe33b2c8	-0.17548668
110	0x3e809e4a	0.25120765
111	0x3c4c090e	0.012453331
112	0x3d9cb846	0.07652335
113	0xbe7f56f3	-0.24935512
114	0xbe4cd1ee	-0.20001957
115	0xbdc65e12	-0.09685911
116	0x3c99b340	0.01876223
117	0xbeafe96b	-0.3435777
118	0xbca0c13b	-0.01962339
119	0xbe04990a	-0.12949005
120	0xbcfe701f	-0.031059323
121	0xbd08df6d	-0.0334162
122	0xba06c3a4	-0.0005140847
123	0xbe1531e9	-0.1456982
124	0xbde3a375	-0.11115161
125	0xbe88873b	-0.26665673
126	0xbda114c2	-0.07865287
127	0xbe60252f	-0.21889184
128	0x3e395d89	0.18102087
129	0x3ceff104	0.02928973
130	0x3e88bffb	0.2670897
131	0x3dee391a	0.11631985
132	0xbe8b77ed	-0.27239934
133	0x3e696871	0.22793747
134	0xbe15f305	-0.14643486
135	0xbe1aeb18	-0.15128744
136	0xbe4fd8b9	-0.20297517
137	0xbeb2a770	-0.3489337
138	0x3dd846a8	0.105603516
139	0xbdab2fb2	-0.083587065
140	0x3e083628	0.13301909
141	0xbe3824b3	-0.1798275
142	0x3e08465c	0.1330809
143	0xbe70a8b7	-0.2350186
144	0xbcaa8b4a	-0.020818371
145	0x3e25dd89	0.1619779
146	0x3df99fdc	0.12188694
147	0x3e736294	0.23768073
148	0x3daa564b	0.0831724
149	0xbe9c1a2c	-0.30488718
150	0x3c732cc5	0.014842217
151	0xbe16339f	-0.1466813
152	0x3cd12690	0.025531083
153	0xbe23f8d0	-0.16012883
154	0x3e7d6b51	0.24747969
155	0xbe75da3d	-0.24009033
156	0x3e874506	0.26419848
157	0x3e1613fa	0.14656058
158	0x3c965a83	0.018353706
159	0xbe3a6d6b	-0.18205802
160	0x3e152969	0.14566578
161	0x3d2cb208	0.04216197
162	0x3d5bd660	0.05367124
163	0xbe8ca47e	-0.27469248
164	0x3e12b15b	0.14325468
165	0x3dc1b09f	0.09457516
166	0xbe2bc263	-0.16773371
167	0x3e85a7e0	0.2610464
168	0x3de76277	0.112980776
169	0xbdff546b	-0.12467273
170	0xbdad79ad	-0.084704734
171	0xbdcda6ac	-0.10041556
172	0x3e716f79	0.2357768
173	0xbdc50849	-0.09620721
174	0xbdcfa876	-0.10139553
175	0xbe0ec662	-0.13942865
176	0xbe247ce1	-0.16063263
177	0x3e159896	0.14608988
178	0x3e25bdc0	0.16185665
179	0xbea6eb1d	-0.32601252
180	0x3d0f3301	0.03496075
181	0x3e246426	0.16053829
182	0x3dd2d635	0.10294763
183	0xbdc3e42b	-0.09565004
184	0x3e17d450	0.14827085
185	0x3dcd099d	0.10011599
186	0x3e3e6fd6	0.1859735
187	0xbddb7a44	-0.1071668
188	0xbd44784f	-0.047966298
189	0x3b7427c6	0.0037255152
190	0xbb582209	-0.003297927
191	0xbe3d766f	-0.1850221
192	0x3e446013	0.19177274
193	0x3e92209b	0.285405
194	0xbd4a2ed3	-0.04936106
195	0xbd3360ab	-0.04379336
196	0x3cd6d397	0.02622394
197	0xbd9c6367	-0.07636147
198	0x3d982824	0.07429531
199	0x3c3cf18c	0.011532199
200	0xbe302d32	-0.1720474
201	0xbe357031	-0.17718579
202	0x3e3ebada	0.18625966
203	0x3e10a57e	0.1412563
204	0x3dc07ebb	0.09399172
205	0xbe1dd41e	-0.15412948
206	0xbe0a6096	-0.13513407
207	0xbedbf5c5	-0.42960945
208	0xbdcb9d5a	-0.09942122
209	0x3d919173	0.0710782
210	0x3e6c3bb9	0.23069657
211	0x3e053488	0.1300832
212	0xbeb0863d	-0.34477416
213	0xbddfa239	-0.109196134
214	0xbd8259ea	-0.06364806
215	0x3e599b79	0.21250714
216	0x3d2dbfda	0.042419292
217	0x3d1c8544	0.03821303
218	0x3e3e5a5a	0.18589154
219	0xbdd966e3	-0.10615327
220	0xbe9530a2	-0.29138666
221	0x3e422662	0.18959954
222	0xbdb61399	-0.08890457
223	0xbd8c44f1	-0.06849087
224	0xbe4bb592	-0.19893482
225	0x3e1d3254	0.1535123
226	0x3e7d8f3c	0.24761671
227	0x3dee7cb6	0.116448805
228	0xbde61adc	-0.11235592
229	0xbebdb6d5	-0.37053552
230	0xbe381afb	-0.17979042
231	0x3e23f297	0.1601051
232	0x3dfc3d35	0.12316362
233	0x3e9cde28	0.30638242
234	0x3d70d27e	0.05879449
235	0x3d88dd41	0.06682826
236	0xbd3357af	-0.043784793
237	0xbe5fcd8f	-0.21855758
238	0xbe31ceab	-0.17363994
239	0xbea30298	-0.31837916
240	0x3e15e70d	0.1463892
241	0xbde3e8dd	-0.111283995
242	0xbc4e0987	-0.012575514
243	0xbde9054b	-0.11377963
244	0xbc037ec2	-0.008025827
245	0xbe3a90be	-0.18219277
246	0xbe86f73d	-0.26360503
247	0x3e051b7b	0.12998764
248	0xbd68cbbc	-0.05683492
249	0x3e25fdca	0.16210094
250	0x3c16dd0f	0.009207978
251	0xbea0ab0e	-0.31380504
252	0xbdabacc6	-0.08382563
253	0xbe2624f3	-0.16225033
254	0x3d247dbe	0.04015898
255	0xbdd9b356	-0.10629909

layers.0.bias f4 [128]
0	0x33ec05fe	1.0990696e-07
1	0xb534058c	-6.7063297e-07
2	0x3417a3e0	1.4122588e-07
3	0xb2f66e2f	-2.8688275e-08
4	0xb59bd187	-1.160938e-06
5	0xb234016f	-1.0477705e-08
6	0xb3006e2f	-2.9902534e-08
7	0x33ad3b9d	8.066784e-08
8	0xb42d46a5	-1.6137581e-07
9	0xb412c336	-1.3668327e-07
10	0xb6fd46bc	-7.548222e-06
11	0x323a9f1a	1.08628e-08
12	0x341afdc2	1.4434684e-07
13	0xb3ac9161	-8.0358184e-08
14	0xb5318efa	-6.6145697e-07
15	0x325a8f20	1.2721813e-08
16	0x3180a0bb	3.7435632e-09
17	0xb2d6226e	-2.4928536e-08
18	0xb601c8d4	-1.9339395e-06
19	0x3436d780	1.702847e-07
20	0x33f466ba	1.1380821e-07
21	0x33ec661e	1.10081814e-07
22	0x35445be1	7.314939e-07
23	0xb50fcfc2	-5.357398e-07
24	0x34baaa13	3.4768945e-07
25	0x34ec3e81	4.4003903e-07
26	0x34b6a880	3.4022742e-07
27	0xb5af77b8	-1.3073359e-06
28	0xb302d051	-3.0457446e-08
29	0x34930861	2.738698e-07
30	0xb2b7cdaf	-2.1397538e-08
31	0xb68a3262	-4.118586e-06
32	0xb552bc36	-7.850498e-07
33	0x34f84acb	4.624802e-07
34	0x32413aac	1.1247419e-08
35	0xb388a035	-6.362135e-08
36	0xb292a3cd	-1.7071125e-08
37	0x33e04c8d	1.0444737e-07
38	0x3434bd42	1.6832658e-07
39	0x325ce380	1.2857413e-08
40	0x3316bebd	3.5098072e-08
41	0xb3bff012	-8.937799e-08
42	0xb3c29c39	-9.062246e-08
43	0x32658ae8	1.3361138e-08
44	0x33fa6d6c	1.1661436e-07
45	0x32d25c0a	2.4489072e-08
46	0x322eea6f	1.0181437e-08
47	0xb40b5ca8	-1.2979092e-07
48	0x36000934	1.9078843e-06
49	0xb49502ce	-2.7755453e-07
50	0xb4b5c76c	-3.3858976e-07
51	0x32a097ec	1.8695538e-08
52	0x3383d12c	6.138211e-08
53	0x35d2f73a	1.5718172e-06
54	0xb4022f7e	-1.2124471e-07
55	0x34a8b00e	3.1420535e-07
56	0x3460ae1e	2.0924969e-07
57	0x349048e9	2.687514e-07
58	0xb4cfb70d	-3.8689942e-07
59	0x33be0467	8.848365e-08
60	0xb3ab5b18	-7.979378e-08
61	0x34247d8d	1.5319365e-07
62	0xb0855f54	-9.704118e-10
63	0x3426f9da	1.555085e-07
64	0xb4803e20	-2.388706e-07
65	0xb37da794	-5.9058564e-08
66	0x35af87cd	1.3078039e-06
67	0xb507a1a5	-5.052664e-07
68	0x31cfae8b	6.044336e-09
69	0x323bede5	1.09389235e-08
70	0x342d6874	1.614988e-07
71	0xb3e38036	-1.0593833e-07
72	0xb401f71c	-1.2103959e-07
73	0x3352d805	4.9090904e-08
74	0xb470ede5	-2.2438287e-07
75	0xb43e1fd3	-1.7706707e-07
76	0x33862abe	6.247636e-08
77	0x34475eeb	1.856785e-07
78	0xb3ab61ee	-7.980621e-08
79	0x33ba059d	8.662321e-08
80	0x34486277	1.8662273e-07
81	0xb435cbe0	-1.6931108e-07
82	0x3586d0e0	1.0044569e-06
83	0x349a3187	2.872077e-07
84	0xb5a234cc	-1.2085306e-06
85	0x34268e28	1.5511671e-07
86	0x347dde78	2.3643395e-07
87	0xb3090a1b	-3.190699e-08
88	0xb1acd71a	-5.030313e-09
89	0x3488c4c7	2.5475148e-07
90	0xb4de4cfd	-4.140674e-07
91	0x349f2a42	2.9646804e-07
92	0x350c09b1	5.2168167e-07
93	0xb3bd0047	-8.801049e-08
94	0x333fb3f4	4.463432e-08
95	0xb2b21962	-2.073347e-08
96	0xb40e28f1	-1.3239675e-07
97	0xb3cae990	-9.448843e-08
98	0x34b4fd94	3.3712115e-07
99	0xb3f1a0e4	-1.1251703e-07
100	0x34a2a54d	3.0295124e-07
101	0xb3a1a774	-7.527606e-08
102	0x3443ab84	1.8223187e-07
103	0x3489192f	2.5536562e-07
104	0xb28c67a8	-1.6345282e-08
105	0x33eb6506	1.0961416e-07
106	0xb16d6e0c	-3.4550593e-09
107	0x33d87c15	1.0080854e-07
108	0xb4051498	-1.2394082e-07
109	0x34923949	2.72363e-07
110	0xb30f8fb9	-3.3425497e-08
111	0x33f2c136	1.1304148e-07
112	0xb5d01a87	-1.5504928e-06
113	0xb437ea1f	-1.7128376e-07
114	0x34765d59	2.2944495e-07
115	0x344664ad	1.8476813e-07
116	0xb622d99e	-2.426655e-06
117	0x347f757c	2.3791466e-07
118	0x3497f5b3	2.8304711e-07
119	0xb24bb56e	-1.18574075e-08
120	0x34e05b8f	4.178987e-07
121	0x33579e4c	5.020256e-08
122	0x342ac3ed	1.5903761e-07
123	0xb441e88c	-1.8059126e-07
124	0xb4aef6e2	-3.2589656e-07
125	0x34a2cbce	3.032314e-07
126	0x3347b3e5	4.649691e-08
127	0x34b135cf	3.300797e-07

layers.1.weight f4 [128]
0	0x3f1fb8da	0.62391436
1	0x3f1a0c12	0.6017467
2	0x3f2d1642	0.6761209
3	0x3f1df3ce	0.6170014
4	0x3f369ffb	0.7133786
5	0x3f1b5ef7	0.6069178
6	0x3f37e6f3	0.71836776
7	0x3f3502c0	0.7070732
8	0x3f288d75	0.65840846
9	0x3f362101	0.7114411
10	0x3f3a1ab0	0.7269697
11	0x3f43a447	0.7642254
12	0x3f290cdb	0.6603524
13	0x3f2a4e8f	0.6652612
14	0x3f36f807	0.7147221
15	0x3f2d3aaa	0.6766764
16	0x3f42dd34	0.7611878
17	0x3f1dbb6d	0.61614114
18	0x3f282f36	0.6569704
19	0x3f402d69	0.7506929
20	0x3f28372d	0.6570919
21	0x3f2e6432	0.68121636
22	0x3f2a233b	0.6646001
23	0x3f3f2443	0.74664706
24	0x3f177466	0.59161985
25	0x3f4ec18e	0.8076409
26	0x3f3d77f2	0.7401115
27	0x3f3aed4c	0.73018336
28	0x3f26313c	0.64918876
29	0x3f389b43	0.7211191
30	0x3f29b798	0.66295767
31	0x3f24abc2	0.6432458
32	0x3f345eb3	0.70457
33	0x3f300fd1	0.68774134
34	0x3f358769	0.70909745
35	0x3f2f02de	0.6836375
36	0x3f16a5a7	0.58846515
37	0x3f1b759d	0.6072634
38	0x3f30cab1	0.6905928
39	0x3f1ecd1f	0.6203174
40	0x3f3297db	0.69762963
41	0x3f2226fc	0.63340735
42	0x3f377cae	0.7167462
43	0x3f1e643f	0.61871713
44	0x3f124d86	0.5714954
45	0x3f2ecd80	0.6828232
46	0x3f20432a	0.62602484
47	0x3f165787	0.58727306
48	0x3f399c48	0.7250409
49	0x3f34affe	0.7058104
50	0x3f38f00a	0.7224127
51	0x3f2f03ed	0.68365365
52	0x3f314912	0.6925212
53	0x3f2a0421	0.6641255
54	0x3f38382b	0.71960706
55	0x3f2ac7b1	0.66710955
56	0x3f1cfd2b	0.61323804
57	0x3f282e99	0.656961
58	0x3f49db16	0.78849924
59	0x3f3797a6	0.7171577
60	0x3f1fa9b4	0.6236832
61	0x3f096a64	0.53677964
62	0x3f1be1a4	0.60891175
63	0x3f4a23b2	0.78960717
64	0x3f47495f	0.7784633
65	0x3f1b9f01	0.60789496
66	0x3f408778	0.7520671
67	0x3f2d34f9	0.67658955
68	0x3f1148d1	0.56751734
69	0x3f2d8919	0.6778732
70	0x3f2b0192	0.6679927
71	0x3f1ef8be	0.620983
72	0x3f42c2d4	0.76078534
73	0x3f26debe	0.6518363
74	0x3f1aca48	0.60464907
75	0x3f1d7b87	0.6151661
76	0x3f2795ab	0.6546275
77	0x3f460c26	0.7736229
78	0x3f4005e1	0.7500897
79	0x3f34c2d6	0.70609796
80	0x3f440522	0.7657033
81	0x3f26e415	0.65191776
82	0x3f49e8ee	0.7887105
83	0x3f2f0121	0.683611
84	0x3f26b05b	0.6511285
85	0x3f2d644f	0.67731184
86	0x3f28dc21	0.6596089
87	0x3f39bb24	0.7255118
88	0x3f30e3d5	0.69097644
89	0x3f450d14	0.7697308
90	0x3f25e30c	0.6479957
91	0x3f33251b	0.69978493
92	0x3f4aae18	0.79171896
93	0x3f38d42e	0.7219876
94	0x3f2e5ae8	0.6810746
95	0x3f26a74b	0.6509902
96	0x3f407f6b	0.75194424
97	0x3f2c1ad7	0.67228454
98	0x3f2c30bd	0.6726187
99	0x3f39fe17	0.72653335
100	0x3f4d112b	0.8010432
101	0x3f26c589	0.65145165
102	0x3f3b6ace	0.73209846
103	0x3f3d529a	0.73954165
104	0x3f3697aa	0.7132517
105	0x3f347c65	0.7050231
106	0x3f4bdefa	0.7963711
107	0x3f3411bb	0.70339555
108	0x3f17bffb	0.59277314
109	0x3f34a271	0.70560366
110	0x3f400108	0.75001574
111	0x3f307ebd	0.6894339
112	0x3f36302b	0.7116725
113	0x3f311906	0.6917881
114	0x3f3ac266	0.7295288
115	0x3f36cb21	0.714037
116	0x3f58c44d	0.8467453
117	0x3f1242ac	0.57132983
118	0x3f38acae	0.7213849
119	0x3f1a15d2	0.60189545
120	0x3f41c35e	0.7568873
121	0x3f2f3f0c	0.68455577
122	0x3f2ac6db	0.6670968
123	0x3f3f91a3	0.748316
124	0x3f4a6b29	0.79069763
125	0x3f125f49	0.57176644
126	0x3f306788	0.68907976
127	0x3f3b53ef	0.7317495

layers.1.bias f4 [128]
0	0xbe08ead0	-0.13370824
1	0xbce54a4f	-0.027989535
2	0xbc4f99d8	-0.012670957
3	0x3ceb7051	0.02874008
4	0xbd7e1d5b	-0.062039714
5	0xbdeb2ee4	-0.11483553
6	0x3c95dfe9	0.018295245
7	0xbe1263e7	-0.14295922
8	0xbd9ea47e	-0.07746218
9	0xbdf6cd56	-0.120508835
10	0xbd7d01f5	-0.061769444
11	0xbdeefae1	-0.11668945
12	0xbda81b2f	-0.0820831
13	0xbe3f72ed	-0.18696184
14	0xbd443ac5	-0.04790761
15	0xb9cd6888	-0.0003917853
16	0xbe059ad6	-0.13047346
17	0xbcacd2aa	-0.021096546
18	0xbde5d18e	-0.1122161
19	0xbe36c446	-0.1784831
20	0xbdf28211	-0.118412144
21	0xbb995142	-0.004678876
22	0xbdd6ea2b	-0.10493883
23	0xbe058c1c	-0.13041729
24	0x3d36ea2e	0.044656925
25	0xbdfb9438	-0.1228413
26	0xbd9626bc	-0.07331607
27	0xbded4797	-0.1158592
28	0x3c7e144a	0.015507767
29	0xbe372d31	-0.17888333
30	0xbdc56d8c	-0.09640035
31	0xbe2d22cc	-0.16907805
32	0xbbf313f0	-0.007418148
33	0xbdf2c3e4	-0.118537694
34	0x3ca0d010	0.019630462
35	0xbd9963f4	-0.07489768
36	0xbc81c535	-0.015841106
37	0xbce68288	-0.028138414
38	0xbd593fe2	-0.05303944
39	0xbd2e6b95	-0.042583067
40	0x3d26ebbc	0.040752158
41	0x3c81aaaf	0.015828459
42	0xbdb196e3	-0.086713575
43	0xbcbb80a0	-0.022888482
44	0xbd3050bd	-0.043045748
45	0xbe2dede8	-0.16985285
46	0xbdca2e66	-0.09872131
47	0xbdb02e93	-0.08602633
48	0xbdc64b83	-0.096823715
49	0xbe145370	-0.14484954
50	0xbd78c08a	-0.060730495
51	0xbe0ce672	-0.13759783
52	0xbd2d25fd	-0.042272557
53	0xbe00887d	-0.12552066
54	0x3d343e4d	0.044004727
55	0xbdf27052	-0.1183783
56	0xbdbe2f17	-0.092863254
57	0xbdcbc279	-0.09949202
58	0xbe01dc46	-0.12681684
59	0xbdde8fb0	-0.1086725
60	0xbdaf7002	-0.08566286
61	0xbd945b12	-0.07243933
62	0xbe100b25	-0.14066751
63	0xbd3e50c6	-0.04646375
64	0xbdfd9ecf	-0.12383806
65	0xbdb2886e	-0.08717428
66	0xbe12b167	-0.14325486
67	0x3d5bf430	0.053699672
68	0xbded0701	-0.115736015
69	0x3cf41466	0.029794883
70	0xbd9f02c1	-0.07764197
71	0xbde1165a	-0.10990591
72	0xbe04b9ed	-0.1296155
73	0xbdba0df4	-0.090846926
74	0xbde57b8d	-0.11205206
75	0xbe07d154	-0.13263446
76	0xbdc770b3	-0.097382925
77	0xbdb9224c	-0.09039745
78	0xbd9113a5	-0.07083825
79	0xbdb769d0	-0.08955729
80	0xbd582de3	-0.052778136
81	0xbca860fc	-0.020554058
82	0xbe0af0f6	-0.13568482
83	0xbd825371	-0.063635714
84	0xbd9b3784	-0.07578948
85	0xbe0b502f	-0.13604806
86	0xbe321106	-0.17389306
87	0xbdde5943	-0.10856869
88	0xbe199055	-0.14996465
89	0xbd699ad5	-0.057032425
90	0xbd8712c6	-0.065953776
91	0xbdc1eacb	-0.09468611
92	0xbe17a0da	-0.14807454
93	0xbe507962	-0.20358804
94	0xbdabc517	-0.08387201
95	0xbcae9106	-0.021309387
96	0xbe50249b	-0.20326464
97	0xbdee5822	-0.11637904
98	0xbd20835f	-0.039187785
99	0xbe44d8fc	-0.19223398
100	0xbdde4135	-0.10852281
101	0xbd40c197	-0.04705962
102	0xbe5c592a	-0.21518388
103	0xbdac491b	-0.08412381
104	0xbd1acdf2	-0.03779406
105	0xbdf79d7e	-0.12090586
106	0xbe5b7ba5	-0.21433885
107	0xbe1233db	-0.14277594
108	0xbdea2183	-0.11432173
109	0xbcef2ac2	-0.029195193
110	0xbcad5d4e	-0.021162655
111	0x3ca4b5b6	0.020106178
112	0xbdf378b5	-0.118882574
113	0xbd4c4081	-0.049866203
114	0xbe22f5a6	-0.1591402
115	0xbde30dd3	-0.11086621
116	0xbd954f2e	-0.07290493
117	0xbe220ba0	-0.15824747
118	0xbde4c191	-0.11169732
119	0xbe231f2d	-0.15929861
120	0xbdb830b3	-0.08993664
121	0xbc8c2422	-0.017107073
122	0xbda9a307	-0.08283048
123	0xbd634d1f	-0.05549347
124	0xbd9fb9ad	-0.07799087
125	0xbe0e1f10	-0.13879037
126	0xbe0de71c	-0.13857692
127	0xbdb26b95	-0.08711926

layers.1.running_mean f4 [128]
0	0xbbac6593	-0.005261132
1	0xbb882aad	-0.004155478
2	0x3b1a50a3	0.0023546598
3	0x3b8a85df	0.0042273845
4	0xbbd4fba6	-0.0064997254
5	0xbbc30cb0	-0.00595244
6	0x39fe4cb3	0.000485038
7	0x3a086028	0.00052023167
8	0x3a2c257b	0.00065668643
9	0xbabedffb	-0.0014562601
10	0x3b31c962	0.002712809
11	0xbb25b998	-0.0025287624
12	0x3b033df1	0.0020025934
13	0x3b5e0479	0.0033877178
14	0x3bec2a65	0.0072072023
15	0x3c08b09f	0.008342891
16	0x3af5aa95	0.0018742854
17	0x3bcff4d6	0.0063463254
18	0x3a65a9a8	0.00087609375
19	0xbb3e6cad	-0.0029056475
20	0xbba25165	-0.0049535506
21	0x39422efd	0.00018518786
22	0xbb22feb7	-0.002487106
23	0xba356014	-0.0006918919
24	0xbbbd7f24	-0.0057829786
25	0x3c0da1ce	0.008644534
26	0x3bb1a0f8	0.0054208003
27	0x3b4a4806	0.0030865683
28	0x3bda4ab9	0.0066617397
29	0x3b2ad7ea	0.0026068636
30	0x3b8c458d	0.004280752
31	0x3b2ef251	0.0026694725
32	0xba2929e8	-0.0006453083
33	0x3a602e16	0.0008551789
34	0xba74d328	-0.0009339326
35	0x3bca19c1	0.006167621
36	0x3b474d58	0.003041109
37	0x3bc86490	0.0061155036
38	0xbb518b77	-0.0031973997
39	0xbb8b9e7b	-0.0042608357
40	0x3c5b86ae	0.013398809
41	0x3c1e67b2	0.009668278
42	0x3b62b72f	0.003459405
43	0x3bbd0bb3	0.005769217
44	0xbba71e77	-0.0051000672
45	0xb848a680	-4.783878e-05
46	0x3be68390	0.0070347264
47	0xbbe6cad0	-0.00704322
48	0xbb432570	-0.0029776953
49	0xbb01a9d0	-0.0019785054
50	0x3c00c2e3	0.007858965
51	0xbb754a67	-0.003742838
52	0x3b685bb0	0.003545504
53	0xbafc543b	-0.0019251177
54	0x3a83b908	0.001004965
55	0xb91bb86d	-0.00014850656
56	0xbb07f23d	-0.002074375
57	0xbb71c652	-0.003689189
58	0xbc30d6a6	-0.010793364
59	0x3b278939	0.0025563969
60	0x3b42473e	0.0029644514
61	0xbbb5015a	-0.0055238428
62	0xba0fd289	-0.0005486389
63	0x3a60ff4f	0.0008582966
64	0x39042769	0.00012603182
65	0xbb0890ff	-0.0020838378
66	0xbbde8c97	-0.006791662
67	0x3b824220	0.003975168
68	0xbbb3fd71	-0.005492859
69	0xbbe1035b	-0.006866855
70	0x3b0dbd67	0.0021627785
71	0x3b0664bf	0.0020506827
72	0xbaf44f4b	-0.0018639354
73	0xbb7932c7	-0.003802465
74	0x3b8e57f7	0.0043439823
75	0x3ba5ec80	0.0050635934
76	0xbb94bc9f	-0.004539087
77	0x3bcce08f	0.0062523554
78	0x3beca9e3	0.0072224005
79	0x3be4f349	0.0069870097
80	0x3b96ad2f	0.004598282
81	0xbbb45001	-0.0055027013
82	0x3b908f70	0.0044116303
83	0xba398807	-0.00070774596
84	0x3adeef02	0.0017008486
85	0x3ad3827c	0.001613691
86	0x3a5fc56c	0.0008536193
87	0xbb22788a	-0.0024791085
88	0x3b989621	0.0046565686
89	0x3b766063	0.0037594072
90	0x3abbd788	0.0014331201
91	0x3b194ece	0.0023392919
92	0xb99f9aa0	-0.00030442048
93	0xbace7572	-0.0015751554
94	0x3b6c1eba	0.0036029057
95	0x3ba6f031	0.005094551
96	0x3b8327f0	0.0040025637
97	0x3abd8d6a	0.00144617
98	0x3b85325c	0.004064841
99	0x3bba0e90	0.0056780055
100	0x3b1ac32e	0.0023614871
101	0xbab3cf4d	-0.0013718397
102	0xbc02940d	-0.007969868
103	0xbaee4467	-0.0018178344
104	0x3c0558f9	0.0081388885
105	0x3bb4e412	0.005520352
106	0x3a8dc255	0.0010815362
107	0xbbcaa4ab	-0.0061841807
108	0x39b89bc0	0.00035211258
109	0xbbaf1eed	-0.005344263
110	0xbc1f1c75	-0.0097113745
111	0x3b2f4055	0.0026741226
112	0xbb47f68d	-0.0030511946
113	0x3b34c954	0.0027585821
114	0xbb467874	-0.0030284198
115	0x3a913796	0.0011079188
116	0x3bf7e721	0.0075653945
117	0x3bcda77c	0.006276069
118	0x3bc4c0a4	0.00600441
119	0xbb3aa2a8	-0.0028478298
120	0x3a9cc536	0.0011960629
121	0x3a353383	0.0006912278
122	0xbb9854af	-0.004648767
123	0x3b2c67b2	0.0026306924
124	0x3bc406e8	0.0059822686
125	0x3bb2b57e	0.0054537645
126	0x3af1a303	0.0018435422
127	0x3c2b3f96	0.010452172

layers.1.running_var f4 [128]
0	0x3ea3c0c7	0.31983015
1	0x3e3737a8	0.17892325
2	0x3e0956dc	0.1341204
3	0x3ed3cf79	0.41369227
4	0x3e32bf28	0.17455733
5	0x3e3cd787	0.18441592
6	0x3e4b2ebe	0.1984205
7	0x3e18512c	0.14874715
8	0x3e8d4eec	0.27599275
9	0x3e9fb9da	0.3119648
10	0x3e38ea41	0.18058111
11	0x3e25ef89	0.16204657
12	0x3e7e608e	0.2484152
13	0x3ee2610d	0.4421467
14	0x3ee10936	0.4395234
15	0x3e9a8c29	0.3018506
16	0x3e88f1a0	0.26746845
17	0x3ea79b82	0.3273583
18	0x3dbb6d01	0.0915165
19	0x3e012859	0.12613048
20	0x3e617ebd	0.22021003
21	0x3dd77911	0.105211385
22	0x3e13afeb	0.14422576
23	0x3d64f31e	0.055895917
24	0x3e0f3334	0.13984376
25	0x3ea15c43	0.31515703
26	0x3e4bee68	0.19915164
27	0x3df8d27b	0.12149521
28	0x3e636828	0.22207701
29	0x3e1b8325	0.15186746
30	0x3e7eaea8	0.24871314
31	0x3e68c9aa	0.22733179
32	0x3dee34c2	0.116311565
33	0x3e4d6804	0.2005921
34	0x3e36cac6	0.1785079
35	0x3e815912	0.25263268
36	0x3e6c30dc	0.23065513
37	0x3e13fc6b	0.14451759
38	0x3e608247	0.21924697
39	0x3ea23839	0.3168352
40	0x3e9d2b36	0.3069703
41	0x3e917be2	0.28414828
42	0x3dd9e7c5	0.1063991
43	0x3e44ea36	0.1922997
44	0x3e94520b	0.28968844
45	0x3e60633a	0.21912852
46	0x3e3223de	0.17396495
47	0x3ea24e2b	0.31700262
48	0x3e632329	0.22181381
49	0x3db62173	0.08893099
50	0x3e58f9ad	0.21188994
51	0x3e73c32f	0.23804925
52	0x3e5e1a90	0.2168982
53	0x3ddaf436	0.10691111
54	0x3ddf06c6	0.10889964
55	0x3e858b1e	0.260827
56	0x3e320de9	0.17388119
57	0x3e12e7ba	0.14346209
58	0x3e734966	0.23758468
59	0x3e46231f	0.19349335
60	0x3e191643	0.14949898
61	0x3e4def33	0.20110779
62	0x3e2e8d74	0.17046148
63	0x3e12676b	0.14297263
64	0x3ec3d239	0.38246325
65	0x3de6eaa5	0.11275224
66	0x3e02898e	0.12747785
67	0x3e12ea3a	0.14347163
68	0x3e89d833	0.2692276
69	0x3e1a7122	0.15082219
70	0x3e88f833	0.2675186
71	0x3eb0af17	0.34508583
72	0x3e872db8	0.26402068
73	0x3db703fa	0.08936305
74	0x3eaef6f1	0.34172776
75	0x3e6cc92d	0.23123617
76	0x3e3e55d5	0.1858743
77	0x3e493dc2	0.19652465
78	0x3e74673f	0.2386751
79	0x3e6b82e3	0.22999148
80	0x3e7b8537	0.24562536
81	0x3e1f9117	0.15582691
82	0x3e5a53e5	0.21321066
83	0x3de7fe13	0.11327758
84	0x3e4ed4b2	0.20198324
85	0x3e1504ef	0.14552663
86	0x3e48e33c	0.19617933
87	0x3e3bbef3	0.1833456
88	0x3e602a92	0.2189124
89	0x3e347a46	0.17624769
90	0x3dda5d47	0.106623225
91	0x3e5a2515	0.21303208
92	0x3e225773	0.15853672
93	0x3dbdfff7	0.09277337
94	0x3e3a0548	0.18166077
95	0x3e51515c	0.20441192
96	0x3e122882	0.14273265
97	0x3d9bdb19	0.07610149
98	0x3e87a85e	0.2649564
99	0x3ef03440	0.46914864
100	0x3e2ba8fc	0.16763681
101	0x3e156cc7	0.14592277
102	0x3ec965f7	0.39335606
103	0x3e1bb6b2	0.15206411
104	0x3ea20fd1	0.31652692
105	0x3ecee397	0.40408012
106	0x3df5961f	0.11991524
107	0x3e8b9b6c	0.27267015
108	0x3e5de0d0	0.2166779
109	0x3dbef6b8	0.093244016
110	0x3edb5964	0.42841637
111	0x3e000b70	0.12504363
112	0x3e023061	0.12713768
113	0x3e67b829	0.22628845
114	0x3e105e14	0.14098388
115	0x3e3b082c	0.18264836
116	0x3e5c9776	0.21542153
117	0x3de628df	0.11238264
118	0x3e888633	0.26664886
119	0x3e784ece	0.24248812
120	0x3e5a3306	0.21308526
121	0x3d96f58b	0.07371052
122	0x3e90e5c8	0.2830031
123	0x3e09566f	0.13411878
124	0x3e6f9ef9	0.23400487
125	0x3e1743a2	0.14771894
126	0x3de1fdb7	0.110347204
127	0x3e69e94d	0.22842903

layers.4.weight f4 [64, 128]
0	0x3c42b3ff	0.011883735
1	0xbb799055	-0.0038080413
2	0x3ae15fbd	0.001719467
3	0x3d6c3029	0.057663117
4	0x3c155164	0.009113643
5	0x3b6dc034	0.0036277892
6	0xbcac07bf	-0.020999787
7	0x3d4e4a7d	0.050364006
8	0xbd1fdd31	-0.039029304
9	0xbcae5cc5	-0.02128447
10	0x3d7dcaba	0.061960913
11	0x3cc2db34	0.023786165
12	0xbd611ce4	-0.054959193
13	0xb9c2e73e	-0.00037174852
14	0xbc8696d2	-0.016429339
15	0xbc8474de	-0.016169008
16	0xbd147b19	-0.036250208
17	0x3c55ea80	0.013056397
18	0x3d2cf16d	0.04222243
19	0x3cfec7bd	0.031101102
20	0xbd59e384	-0.05319549
21	0x3ba5905d	0.00505261
22	0x3d92f95a	0.07176466
23	0x3d9b3268	0.075779736
24	0x3c9922c5	0.018693337
25	0x3d1b66bb	0.03793977
26	0x3e130b96	0.14359888
27	0xbd0fa471	-0.035068933
28	0x3c736006	0.014854437
29	0x3d8254ac	0.06363806
30	0xbe126001	-0.14294435
31	0xbd2388f2	-0.039925523
32	0x3c43423c	0.011917647
33	0xbcd0f99d	-0.02550965
34	0xbd11129d	-0.03541814
35	0xbd99f4e0	-0.07517409
36	0xbd2e4865	-0.04254951
37	0x3d9264c9	0.071481295
38	0xbd92a3a4	-0.07160118
39	0xbae43ef7	-0.0017413785
40	0x3d805b7d	0.0626745
41	0xbd9dd40a	-0.07706459
42	0xbd8a7fcf	-0.06762659
43	0xbd938861	-0.072037466
44	0xbdb20de0	-0.08694053
45	0x3a4ddac5	0.00078527286
46	0x3cb2de0a	0.021834392
47	0xbce91bb6	-0.028455596
48	0xba8683e6	-0.0010262697
49	0xbdeb522c	-0.114902824
50	0xbd5b442d	-0.053531814
51	0x3d0a8bb6	0.033824645
52	0xbdb0eb82	-0.086386696
53	0xbe017008	-0.12640393
54	0x3cb6fec4	0.022338279
55	0xbda80476	-0.08203976
56	0xbc1e50b1	-0.009662793
57	0x3d0d4c7f	0.03449678
58	0x3cc85bdf	0.02445787
59	0x3cd16be7	0.025564147
60	0x3d328922	0.04358781
61	0x3d0e48e0	0.034737468
62	0xbc392270	-0.011299714
63	0x3d9a3565	0.075297154
64	0x3d0817b0	0.033225715
65	0xbd12a71e	-0.035803907
66	0xbcffbab2	-0.031216953
67	0xbccfd5a5	-0.025370428
68	0xbd692812	-0.05692298
69	0xbd43be06	-0.047788642
70	0x3cdeb058	0.027183697
71	0xbc6594fd	-0.014012572
72	0xbbe70acd	-0.007050848
73	0xbd033cea	-0.032040514
74	0x3d7dd72f	0.061972793
75	0x3de9d4d2	0.114175454
76	0xbd89672f	-0.06709134
77	0xbc663350	-0.01405032
78	0xbcae93d1	-0.021310719
79	0xbcf5127a	-0.029916037
80	0x3b4ec76f	0.0031551977
81	0x3cec2301	0.028825285
82	0x3d0fb767	0.035087015
83	0xbc7029e4	-0.014658425
84	0x3b953c47	0.0045543048
85	0x3ca83ec2	0.020537738
86	0xbd9d337a	-0.07675834
87	0x3ddd7641	0.10813571
88	0xbd968809	-0.073501654
89	0x3d28f1a0	0.041246057
90	0xbda16cf1	-0.07882107
91	0xbd56011e	-0.05224716
92	0x3c198bbd	0.009371695
93	0x3d2c53b8	0.042072028
94	0xbdfe828d	-0.12427244
95	0x3c04130f	0.008061185
96	0xbd86e687	-0.06586938
97	0xbc3c500f	-0.011493697
98	0xbd954758	-0.07288998
99	0xbe0ae94b	-0.13565557
100	0x3cd73b15	0.02627329
101	0xbc2da75a	-0.010598982
102	0xbd71f9b3	-0.059076022
103	0x3d5c3b12	0.05376727
104	0xbc0ef979	-0.008726471
105	0x3d2062a9	0.03915659
106	0xbd26f35c	-0.04075943
107	0xbcd31dc3	-0.025771027
108	0xbb629630	-0.0034574382
109	0x3c343973	0.011000025
110	0xbdca9084	-0.098908454
111	0xbd94f774	-0.072737604
112	0x3d901451	0.07035125
113	0x3d4f2542	0.05057264
114	0xbac60cf5	-0.0015110063
115	0xbcbe7612	-0.02324966
116	0x3d24dc72	0.040249296
117	0xbdcc4b80	-0.09975338
118	0x3d648a99	0.05579624
119	0xbda34408	-0.0797196
120	0xbd64077d	-0.055671204
121	0xbca88a33	-0.020573711
122	0xbdeaafe8	-0.11459333
123	0x3d9dbd0a	0.07702072
124	0x3de74ee0	0.11294341
125	0x3d9a6665	0.075390615
126	0xbcd6fae7	-0.026242686
127	0x3b795e5c	0.0038050627
128	0xbd25963e	-0.040426485
129	0xbce0ebcb	-0.027456185
130	0xbb86097a	-0.004090485
131	0x3c975604	0.018473633
132	0xbe09afa8	-0.13445914
133	0x3c0f9e27	0.008765734
134	0x3d82c3b7	0.06384986
135	0xbdace0a3	-0.084412836
136	0x3a8fe808	0.0010979185
137	0x3d7dd4af	0.06197041
138	0x3d9c6ee6	0.0763834
139	0x3d9f95bd	0.07792232
140	0x3d945f32	0.072447196
141	0xbc814283	-0.015778786
142	0x3c8fedf9	0.017569529
143	0x3d392092	0.045197077
144	0xbdbe5057	-0.09292667
145	0xbc742437	-0.014901212
146	0x3d053f38	0.032530993
147	0x3dc41b82	0.09575559
148	0x3b49116a	0.0030680546
149	0xbd302fd6	-0.04301437
150	0x3d28b5f1	0.041189138
151	0x3db2b922	0.087267175
152	0xbe0903f0	-0.13380408
153	0x3cc9c7d2	0.024631415
154	0xbc996667	-0.018725587
155	0xbcea380a	-0.028591175
156	0xbc90a541	-0.017656924
157	0xbc20bb7e	-0.009810327
158	0xbc5c6667	-0.013452149
159	0x3d43d623	0.04781164
160	0x3d20d5ab	0.03926627
161	0x3cba5138	0.022743806
162	0x3db0b7c0	0.086287975
163	0x3c102afb	0.00879931
164	0x3bcb12a3	0.00619729
165	0xbc837414	-0.016046561
166	0xbd295179	-0.041337464
167	0x3c409174	0.011753429
168	0xbd5ddf2c	-0.05416791
169	0x3da33696	0.07969396
170	0xbd672842	-0.056434877
171	0xbbd4ff84	-0.0065001864
172	0x3c10f945	0.008848493
173	0xbcc7af08	-0.024375454
174	0xbd3c7c11	-0.046016756
175	0x3d2fc02e	0.042907886
176	0xbdbbf299	-0.09177131
177	0xbceb1c74	-0.028700091
178	0xbd5869b7	-0.052835193
179	0x3d4e6f02	0.050398834
180	0x3dda0dd2	0.10647167
181	0x3d2e4d89	0.042554412
182	0x3d3d80c3	0.046265375
183	0x3d3f67a7	0.04672971
184	0x3d33c566	0.043889426
185	0x3cbecdc9	0.023291485
186	0x3d20169b	0.03908406
187	0x3b2ff44a	0.0026848488
188	0x3cfdaa72	0.030965064
189	0xbd8f60b0	-0.070008636
190	0xbca62b0f	-0.020284204
191	0xbd0cc14e	-0.034364037
192	0xbd0451d8	-0.032304615
193	0xbb6c96a7	-0.0036100538
194	0xbbb77ed6	-0.005599837
195	0x3d409adf	0.047022697
196	0xbde62aba	-0.11238618
197	0xbd43b5c1	-0.047780756
198	0xbcc31ac6	-0.023816478
199	0xbd5aafbb	-0.053390246
200	0xbced748a	-0.028986234
201	0x3d71d31d	0.059039224
202	0x3d6e78ac	0.05822055
203	0x3c684053	0.014175492
204	0x3bb6a72c	0.0055741277
205	0xbb3d4042	-0.0028877412
206	0xbd8612b4	-0.06546536
207	0xbc968e60	-0.018378437
208	0x3bfbfada	0.007689816
209	0x3be0c2d1	0.0068591614
210	0xbe2bee8d	-0.16790219
211	0x3ca5e5d3	0.02025119
212	0x3cea6f49	0.028617518
213	0xbda2a4be	-0.07941578
214	0xbe253c19	-0.16136207
215	0xbdfc4a32	-0.12318839
216	0x3d4fb688	0.050711185
217	0x3d8247ea	0.06361373
218	0xbb88332a	-0.00415649
219	0x3c982d8c	0.018576406
220	0xbdaa1240	-0.08304262
221	0xbcae924a	-0.02130999
222	0x3c8e68cd	0.017383957
223	0xbc47ddd5	-0.012198885
224	0x3ca892bc	0.02057778
225	0x3d12655f	0.035741206
226	0xbdb5e112	-0.088808194
227	0x3d508336	0.050906383
228	0x3dfced59	0.12349958
229	0xbd5f5e06	-0.054533027
230	0x3d45d635	0.048299987
231	0xbc66ce85	-0.014087324
232	0x3c7b950b	0.015355359
233	0x3cecaaa3	0.02888996
234	0xbcd12191	-0.025528701
235	0x3d3aebd3	0.045635056
236	0xbd8a130a	-0.06741913
237	0xbd84d9c6	-0.064868495
238	0xbd5f1aa5	-0.05446877
239	0x3ce712da	0.028207231
240	0x3dcca460	0.099922895
241	0x3d9326d2	0.07185139
242	0x3dcaa294	0.098942906
243	0x3d5ad6f7	0.053427663
244	0x3d05f2c1	0.03270221
245	0xbcc23553	-0.023707068
246	0xbdabac7c	-0.08382508
247	0xbd97222a	-0.07379563
248	0xbc540979	-0.012941712
249	0xbab8dbd7	-0.0014103603
250	0xbdd30c4f	-0.10305082
251	0x3d23a07e	0.03994798
252	0xbce5a7f5	-0.02803419
253	0xbd0eb524	-0.034840718
254	0xbc53258f	-0.012887373
255	0xbd4f973d	-0.05068134

layers.4.bias f4 [64]
0	0xb5258817	-6.1665327e-07
1	0x3612344d	2.1786138e-06
2	0xb514feea	-5.5505245e-07
3	0x350186b1	4.8252247e-07
4	0xb4ce3e1c	-3.841568e-07
5	0xb6995476	-4.569588e-06
6	0x34fc82c7	4.703381e-07
7	0x372c8c88	1.0284719e-05
8	0xb4d701dc	-4.0048224e-07
9	0x35483a27	7.459043e-07
10	0x351a4ce3	5.7481355e-07
11	0xb45e6e38	-2.0715459e-07
12	0xb47bc88b	-2.3449154e-07
13	0xb5327d82	-6.6492805e-07
14	0x35908bad	1.0769487e-06
15	0x3552aa5a	7.847899e-07
16	0xb5eb4aed	-1.7530671e-06
17	0xb22063c4	-9.33591e-09
18	0x3471a1f0	2.2503787e-07
19	0x32ab1af0	1.991927e-08
20	0x32150d00	8.675897e-09
21	0x359179ec	1.0838826e-06
22	0xb58123e4	-9.621695e-07
23	0xb51c397a	-5.819817e-07
24	0xb5359dbe	-6.76573e-07
25	0x35356e99	6.7588695e-07
26	0x36906c7e	4.3041646e-06
27	0x35562803	7.9779437e-07
28	0x35f0c108	1.7937573e-06
29	0xb597f26d	-1.1320932e-06
30	0x332324de	3.7984925e-08
31	0x35dabb54	1.6296785e-06
32	0xb5a72590	-1.2453402e-06
33	0xb5696d9e	-8.695878e-07
34	0xb4929430	-2.730244e-07
35	0xb5bfe2eb	-1.4296651e-06
36	0xb6f98c8a	-7.437139e-06
37	0x36592d5b	3.236192e-06
38	0x369d9719	4.6965547e-06
39	0x353f31cb	7.1225503e-07
40	0xb4980dbd	-2.8322202e-07
41	0xb556b80d	-7.998904e-07
42	0xb3eb6b3e	-1.09625475e-07
43	0x358ac3cb	1.0338784e-06
44	0xb5dc4b88	-1.641326e-06
45	0x348de734	2.643152e-07
46	0xb4156703	-1.3914182e-07
47	0xb79e0d00	-1.8841121e-05
48	0xb6129396	-2.1841602e-06
49	0x34df6df6	4.1616994e-07
50	0x329b2b62	1.8064103e-08
51	0xb71a7580	-9.206473e-06
52	0xb57b602e	-9.3644746e-07
53	0x354a839f	7.54424e-07
54	0xb52f32aa	-6.5266306e-07
55	0x35470ca5	7.4151677e-07
56	0xb3203280	-3.7298832e-08
57	0x34dfa437	4.165647e-07
58	0x355368df	7.875623e-07
59	0xb46e0900	-2.2168751e-07
60	0xb4ecb0ef	-4.4087162e-07
61	0xb68530ca	-3.9693887e-06
62	0x356a28a8	8.7230956e-07
63	0x3504ac90	4.9424943e-07

layers.5.weight f4 [64]
0	0x3f4725cb	0.7779204
1	0x3f2ed803	0.6829836
2	0x3f20a703	0.6275484
3	0x3f3a63c0	0.72808456
4	0x3f48336a	0.7820345
5	0x3f5057fa	0.8138424
6	0x3f258449	0.64654976
7	0x3f4bc7fd	0.7960203
8	0x3f30a53a	0.69002116
9	0x3f37bdb3	0.71773833
10	0x3f3110bc	0.6916616
11	0x3f01b6d3	0.5066959
12	0x3f2614e5	0.6487563
13	0x3f2a0d95	0.66426975
14	0x3f493bd0	0.7860689
15	0x3f2ab85e	0.6668757
16	0x3f3c37e9	0.7352281
17	0x3f093019	0.53589016
18	0x3f477252	0.77908814
19	0x3f2aeb1f	0.66765016
20	0x3f4944d3	0.7862064
21	0x3f4c13a1	0.7971745
22	0x3f3e5b56	0.7435812
23	0x3f12c472	0.57331
24	0x3f3ac62e	0.7295865
25	0x3f39c22c	0.7256191
26	0x3f35b59d	0.70980245
27	0x3f0b1d98	0.5434203
28	0x3f4ebad5	0.80753833
29	0x3f4180c5	0.7558711
30	0x3f4114d5	0.7542241
31	0x3f3eb663	0.7449705
32	0x3f41d313	0.757127
33	0x3f2c056e	0.67195785
34	0x3f4170e6	0.75562894
35	0x3f45e370	0.7730017
36	0x3f348033	0.70508116
37	0x3f3751ad	0.71609
38	0x3f34e15f	0.7065639
39	0x3f2b29d1	0.6686068
40	0x3f1debd5	0.61687976
41	0x3f20a168	0.62746286
42	0x3f2176b1	0.63071734
43	0x3f36e60e	0.71444786
44	0x3f3bb166	0.73317564
45	0x3f0f5d52	0.5600177
46	0x3f493dff	0.78610224
47	0x3f47b708	0.7801366
48	0x3f2d3332	0.6765624
49	0x3f44f29b	0.76932687
50	0x3f1adf97	0.6049742
51	0x3f47af5e	0.78001964
52	0x3f2ae748	0.6675916
53	0x3f4ef6d8	0.80845404
54	0x3f4c6b7c	0.7985151
55	0x3f3579e7	0.70889133
56	0x3f1c9fe0	0.6118145
57	0x3f276790	0.653924
58	0x3f40a245	0.75247604
59	0x3f3109c5	0.6915553
60	0x3f44466a	0.76669943
61	0x3f2fbc44	0.68646646
62	0x3f2d8bb3	0.6779129
63	0x3f52c2c5	0.82328445

layers.5.bias f4 [64]
0	0xbdfebeff	-0.12438773
1	0xbdfc0b7a	-0.123068765
2	0xbe04c03c	-0.12963957
3	0xbdfc2892	-0.12312426
4	0xbe233467	-0.15937959
5	0xbe19bc24	-0.15013176
6	0xbd3642cd	-0.0444973
7	0xbe786279	-0.24256314
8	0xbd1fcb41	-0.039012197
9	0xbe01a50b	-0.12660615
10	0xbe615640	-0.22005558
11	0xbdcb2fc9	-0.09921224
12	0xbdab96a7	-0.08378344
13	0xbe10eafb	-0.14152138
14	0xbe79ff89	-0.24413885
15	0xbde5baa8	-0.112172425
16	0xbe0a38d9	-0.13498248
17	0xbc07e1c2	-0.008293571
18	0xbe0f2e5b	-0.13982527
19	0xbe73b58c	-0.23799723
20	0xbd906414	-0.070503384
21	0xbe52c8c3	-0.20584397
22	0xbdef4d9d	-0.116847254
23	0xbdf7024d	-0.12060986
24	0xbe03e5a5	-0.12880571
25	0xbdb9e597	-0.09076994
26	0xbe313be3	-0.17308001
27	0xbe252ea0	-0.16131067
28	0xbe0feb55	-0.14054616
29	0xbe558067	-0.20849763
30	0xbe189560	-0.14900732
31	0xbe22b53a	-0.15889445
32	0xbdee0245	-0.11621527
33	0xbe0c0022	-0.13671926
34	0xbe0e1ec2	-0.1387892
35	0xbe3aaf99	-0.18231048
36	0xbe17e640	-0.14833927
37	0xbdeebe37	-0.11657374
38	0xbe4c4524	-0.1994825
39	0xbda40df3	-0.08010473
40	0xbe37ddc7	-0.17955695
41	0xbe03b0fd	-0.12860484
42	0xbde34c8f	-0.11098587
43	0xbe081321	-0.13288547
44	0xbe0dee95	-0.13860543
45	0xbde61cc5	-0.11235956
46	0xbe6adb3f	-0.22935198
47	0xbe35a019	-0.17736854
48	0xbdcd8180	-0.10034466
49	0xbd972952	-0.07380928
50	0xbd8b77a0	-0.06809926
51	0xbdbbeeae	-0.09176384
52	0xbe114abc	-0.14188665
53	0xbe118d77	-0.14214121
54	0xbe6a232b	-0.22864978
55	0xbe1dc423	-0.15406851
56	0xbda3bc3a	-0.07994886
57	0xbdc70d76	-0.09719364
58	0xbe373052	-0.17889526
59	0xbdaab62c	-0.08335528
60	0xbdf762bc	-0.12079379
61	0xbd24a240	-0.040193796
62	0xbdaaeb4e	-0.08345662
63	0xbe3a7468	-0.18208468

layers.5.running_mean f4 [64]
0	0xbe40d3e3	-0.18830828
1	0xbd8cee7d	-0.068814255
2	0x3f072407	0.5278935
3	0xbdc44e4b	-0.09585246
4	0x3ee63af8	0.44966865
5	0xbe0caeb1	-0.13738514
6	0xbdb646ab	-0.089001976
7	0xbd0de262	-0.034639724
8	0xbea3039c	-0.3183869
9	0xbde98968	-0.11403161
10	0xbe7e918d	-0.2486021
11	0x3ea6fabb	0.32613167
12	0x3d0de229	0.03463951
13	0xbe8da5e4	-0.27665627
14	0xbdd01365	-0.10159949
15	0xbdec126f	-0.115269534
16	0xbd0e757f	-0.03478002
17	0xbca0479f	-0.019565402
18	0xbdd78fd8	-0.10525483
19	0x3eaaaec9	0.33336475
20	0x3e87bb2b	0.26509985
21	0x3e13e6f4	0.1444357
22	0x3efec9bc	0.49763286
23	0x3cff0ecf	0.031134991
24	0xbe3636ac	-0.17794293
25	0xbea4b527	-0.32169458
26	0xbec4f155	-0.38465372
27	0x3d40cd2b	0.047070663
28	0xbdbfef62	-0.093718305
29	0x3f152195	0.5825437
30	0x3f12a1bf	0.57278055
31	0x3d5084c6	0.050907873
32	0x3e2d9f05	0.16955192
33	0xbdf778e4	-0.12083605
34	0x3f1a8980	0.6036606
35	0x3d76e98d	0.060281325
36	0xbe6d52c0	-0.23176098
37	0xbe750981	-0.23929407
38	0x3d22b08f	0.03971916
39	0xbd16201e	-0.036651723
40	0x3d186cdf	0.037213203
41	0x3e9c620b	0.3054355
42	0x3c4c8fdc	0.012485471
43	0x3dff6a62	0.12471463
44	0xbeb9d99f	-0.36298844
45	0xbe1a1091	-0.15045382
46	0xbec85086	-0.39123935
47	0xbe476e5f	-0.19475697
48	0xbdf21535	-0.11820451
49	0x3ddec826	0.10878019
50	0x3d536a8f	0.051615294
51	0xbe3803ae	-0.17970154
52	0xbe21cab4	-0.15799981
53	0xbec833f2	-0.3910213
54	0x3e7ef79b	0.24899141
55	0x3ca13d95	0.019682685
56	0x3e8675be	0.26261705
57	0xbe9f04b3	-0.31058273
58	0x3d70b598	0.05876693
59	0xbef7619a	-0.48316652
60	0xbea7d869	-0.32782295
61	0xbc96a977	-0.018391354
62	0x3e889b56	0.26681012
63	0xbe8e3dcc	-0.27781522

layers.5.running_var f4 [64]
0	0x3e06719f	0.1312928
1	0x3dda0a4b	0.106464945
2	0x3de1948d	0.11014662
3	0x3de898b4	0.11357251
4	0x3ded2a93	0.11580386
5	0x3df23f49	0.11828477
6	0x3e043b2c	0.12913197
7	0x3e0fe08a	0.14050499
8	0x3df3bdef	0.11901461
9	0x3db3f4ee	0.08786951
10	0x3db29524	0.087198526
11	0x3e05d4cd	0.13069458
12	0x3df601b4	0.120120436
13	0x3da15571	0.07877625
14	0x3e090567	0.13380967
15	0x3d700011	0.058593813
16	0x3e0076f9	0.12545384
17	0x3d9b203c	0.075745076
18	0x3decbc66	0.11559372
19	0x3dc42e29	0.09579117
20	0x3e3953c9	0.18098368
21	0x3d9c585a	0.07634039
22	0x3e6ca83c	0.23111051
23	0x3d944957	0.07240551
24	0x3e202984	0.15640837
25	0x3d890410	0.06690228
26	0x3e301321	0.17194797
27	0x3da3c849	0.07997186
28	0x3dfa92e1	0.12235046
29	0x3defe1ff	0.11713027
30	0x3dc88a3f	0.09791993
31	0x3e0432de	0.1291003
32	0x3d9da88a	0.07698162
33	0x3ddaa2bf	0.106755726
34	0x3e1479a4	0.14499527
35	0x3dad87a2	0.084731355
36	0x3deacdee	0.11465059
37	0x3dd09ea3	0.101865076
38	0x3dd0a6c9	0.10188062
39	0x3df0ea7c	0.11763474
40	0x3dce24fd	0.10065649
41	0x3e0c0a56	0.13675818
42	0x3e09de94	0.13463813
43	0x3ddb3b84	0.10704711
44	0x3de5d885	0.112229384
45	0x3dd7d18d	0.105380155
46	0x3e03d875	0.1287554
47	0x3e217e2b	0.15770786
48	0x3e0c2b9f	0.13688515
49	0x3de4f1a4	0.11178902
50	0x3de4a88b	0.111649595
51	0x3e0ca265	0.13733824
52	0x3dd79208	0.105259
53	0x3e268576	0.16261849
54	0x3dd6566a	0.10465701
55	0x3dc74104	0.097291976
56	0x3df16d11	0.11788381
57	0x3dcd3d7c	0.10021493
58	0x3de190ac	0.11013922
59	0x3e0cf7b9	0.13766374
60	0x3e0c0424	0.13673455
61	0x3e10e347	0.141492
62	0x3e32bf03	0.17455678
63	0x3e84a1b7	0.2590463

layers.8.weight f4 [32, 64]
0	0xbd9590ec	-0.07303032
1	0xbd061a75	-0.032740075
2	0xbdf754c0	-0.12076712
3	0xbdb93b47	-0.090445094
4	0x3de13773	0.10996904
5	0xbdffa760	-0.12483096
6	0xbd47fd10	-0.048825324
7	0xbdc5ab77	-0.09651845
8	0x3d90c964	0.07069662
9	0x3cd85eac	0.02641233
10	0xbcbd622b	-0.0231181
11	0xbc877612	-0.016535792
12	0xbcd5fe7c	-0.026122324
13	0xbd471b65	-0.04861011
14	0xbbeb86b5	-0.007187689
15	0x3d994d2a	0.07485421
16	0xbddd7727	-0.10813742
17	0x3d9a8927	0.07545691
18	0xbd354339	-0.04425356
19	0xbd0fff52	-0.0351556
20	0xbd6377b5	-0.055534083
21	0xbcfbd172	-0.03073952
22	0xbdaa06c4	-0.08302072
23	0xbd104866	-0.035225295
24	0xbd267336	-0.040637217
25	0x3bc551cb	0.0060217134
26	0x3e107222	0.14106038
27	0xbb9be198	-0.0047571175
28	0xbdc1b69b	-0.09458657
29	0xbd4a73c8	-0.049426824
30	0x3db35354	0.08756128
31	0xbd61d460	-0.055134177
32	0xbc4e9a92	-0.012610095
33	0xbcf8c742	-0.030368451
34	0xbdbf0d62	-0.093287244
35	0xbd733098	-0.059372514
36	0xbda663ed	-0.08124528
37	0xbd44dcd8	-0.048062176
38	0xbd78433d	-0.060611
39	0x3bc95109	0.0061436933
40	0xb9ce0d23	-0.0003930117
41	0xbcdbfdb8	-0.026854381
42	0xbd7ef32b	-0.06224362
43	0x3dc9a28b	0.09845456
44	0xbb83d1ef	-0.004022829
45	0xbd5c1ac4	-0.053736463
46	0xbe1f124f	-0.15534328
47	0xbde54d4e	-0.11196385
48	0xbc9f0e2e	-0.019415941
49	0xbd9afc79	-0.075676866
50	0x3df45c47	0.11931663
51	0x3dcb7887	0.09935098
52	0x3de6f053	0.11276307
53	0xbcee9fe3	-0.029128974
54	0xbcf3478e	-0.029697206
55	0x3b0473ba	0.002021058
56	0x3c26b779	0.010175579
57	0xbdabf298	-0.083958805
58	0x3d4b082a	0.049568333
59	0xbd14b7ba	-0.036308028
60	0x3ced8c98	0.028997704
61	0x3d75adda	0.05998025
62	0x3d2da74a	0.042395867
63	0xbc7cca68	-0.015429117
64	0xbdcd5b30	-0.10027158
65	0x3d7cf210	0.061754286
66	0xbda39966	-0.07988243
67	0xbbc00ad7	-0.005860667
68	0x3df30f33	0.118681334
69	0xbcc9fa44	-0.024655469
70	0xbd602b28	-0.054728657
71	0xbdf8f33c	-0.12155768
72	0x3d57a70f	0.052649554
73	0xbdb7224d	-0.08942089
74	0xbc0e57de	-0.008687941
75	0x3d3e6c24	0.04648985
76	0xbcfcd5a2	-0.030863587
77	0x3db5f093	0.088837765
78	0x3d92fdb4	0.07177296
79	0xbbc362ef	-0.0059627215
80	0xbd69a961	-0.057046298
81	0xbd07e505	-0.033177394
82	0x3a8c34af	0.0010696853
83	0xbe2d4b21	-0.1692319
84	0xbc1f854e	-0.009736372
85	0x3c990b3f	0.01868212
86	0x3cccd3b8	0.0250033
87	0x3d992378	0.07477468
88	0xbd412a67	-0.04715958
89	0x3d4ecdf4	0.05048938
90	0x3cc04316	0.023469489
91	0x3cfdd453	0.030985033
92	0xbd65a994	-0.056069925
93	0xbda65035	-0.08120767
94	0x3d80d1dd	0.06290028
95	0x3d4de8ba	0.050270773
96	0x3e11f7bb	0.14254658
97	0x3c9a2e09	0.01882078
98	0xbe042302	-0.1290398
99	0x3d6e3f58	0.058165878
100	0xbc9f3911	-0.019436391
101	0x3c707d23	0.014678272
102	0x3d814b63	0.06313207
103	0x3c1401a9	0.009033599
104	0x3ceb23fc	0.028703682
105	0xbdf97fcf	-0.12182581
106	0xbd5b05b2	-0.05347223
107	0x3d811a15	0.06303803
108	0x3db0d995	0.086352505
109	0xbd1b9908	-0.03798774
110	0xbe25d2d9	-0.16193713
111	0x3aea944b	0.0017896978
112	0x3d7734ae	0.060352974
113	0xbe00133a	-0.12507334
114	0x3d07bf60	0.033141494
115	0x3e04cbad	0.12968321
116	0xbcb97a1f	-0.02264124
117	0xbc52416e	-0.012832982
118	0x3d3b750f	0.045765933
119	0xbd993b82	-0.07482053
120	0x3d5e9d39	0.054349158
121	0x3e0db66b	0.13839118
122	0x3db9dcad	0.09075294
123	0xbd324f3b	-0.04353259
124	0x3ce85c51	0.028364332
125	0x3dd98074	0.106202036
126	0x3d91df51	0.07122672
127	0xbde4cca9	-0.11171848
128	0x3df3a5a3	0.11896827
129	0x3de58bd1	0.112083085
130	0x3c0b3c66	0.008498287
131	0x3d8399af	0.06425797
132	0x3d75f32d	0.060046364
133	0x3cbab465	0.022791097
134	0x3b79dd94	0.0038126456
135	0xbd3ce13f	-0.04611325
136	0xbe17a432	-0.1480873
137	0xbd56e1d9	-0.05246148
138	0x3bfb59c7	0.0076706144
139	0x3d8dd985	0.06926254
140	0x3cc242da	0.023713518
141	0xbd486980	-0.048928738
142	0x3d77edaa	0.06052939
143	0xbc874e0a	-0.016516704
144	0xbd5ae6dc	-0.05344282
145	0x3de3258a	0.110911444
146	0x3e05e64d	0.13076134
147	0x3d7a338a	0.061084308
148	0x3d0d8394	0.03454931
149	0xbd467c92	-0.048458643
150	0x3db7d744	0.089766055
151	0x3d9d16c7	0.0767036
152	0x3d42e52f	0.047581848
153	0xbde59cf2	-0.112115756
154	0x3cf99f39	0.030471431
155	0x3dcf1067	0.101105504
156	0xbc9c11bf	-0.01905143
157	0x3d566aa2	0.052347787
158	0x3c7d893a	0.015474612
159	0x3d4e53cc	0.050372884
160	0x3d02d624	0.0319425
161	0x3da07772	0.078352824
162	0x3d09afbb	0.033614855
163	0xbd524270	-0.05133289
164	0xbd17f84c	-0.03710203
165	0xbd9086af	-0.07056939
166	0x3da3440a	0.07971962
167	0x3d6908c8	0.05689314
168	0xbda7f6c3	-0.08201363
169	0x3d8a1e64	0.06744078
170	0xbd342d53	-0.043988537
171	0xbc88e301	-0.016709806
172	0xbd3e7dae	-0.046506576
173	0xbd3ffbdd	-0.046871055
174	0xbd56cc6e	-0.052441053
175	0x3bd6bf47	0.0065535638
176	0xbd10f1eb	-0.03538696
177	0xbd2f26be	-0.042761557
178	0x3cf62dd8	0.030051157
179	0xbd86a291	-0.06573976
180	0xbb4b4cea	-0.0031021186
181	0x3b444f48	0.0029954482
182	0xbd916585	-0.070994414
183	0x3d0c756a	0.034291662
184	0xbd703dc4	-0.058652654
185	0xbde0db62	-0.10979344
186	0x3b61cf18	0.0034455713
187	0xbd3d89c3	-0.046273958
188	0xbccd4879	-0.025058972
189	0xbcf8cbcd	-0.030370617
190	0x3c844654	0.016146816
191	0x3d024034	0.03179951
192	0xbc926650	-0.017871052
193	0xbcf31fe7	-0.029678298
194	0xbddf7a02	-0.10911943
195	0xbdbfa38e	-0.093573675
196	0x3d8bb536	0.068216726
197	0xbd26e8ee	-0.040749483
198	0x3cb16740	0.021655679
199	0x3c8854f9	0.01664208
200	0xbadd572b	-0.001688694
201	0x3c36595e	0.011129705
202	0xbd341998	-0.04396972
203	0xbda180e4	-0.07885912
204	0x3d5f6e75	0.0545487
205	0xbdfa912d	-0.12234721
206	0x3c472c47	0.012156553
207	0x3d9c6fbe	0.07638501
208	0xbddc8080	-0.10766697
209	0x3dc97e8a	0.098385885
210	0xbdd4eae9	-0.10396368
211	0xbdbf996e	-0.09355436
212	0xbda71427	-0.08158141
213	0x3dea319a	0.11435242
214	0xbd4aab93	-0.049480032
215	0x3d960748	0.073256075
216	0xbd636958	-0.055520386
217	0xbd57569a	-0.052572824
218	0xbc593dce	-0.013259364
219	0xbc2ea3b6	-0.010659149
220	0x3cc25df7	0.023726447
221	0xbdc99150	-0.09842169
222	0x3c8ce8c3	0.017200833
223	0x3d5ea4f8	0.054356545
224	0x3d82ab59	0.06380338
225	0xbbc44ac1	-0.0059903567
226	0x3bc8c85a	0.0061273994
227	0xbc875be8	-0.016523317
228	0xbd04684b	-0.032326024
229	0xbcdda6b7	-0.027057035
230	0xbd948672	-0.07252206
231	0xbdba1b8d	-0.09087286
232	0x3dd6b4eb	0.10483726
233	0x3c33b4f8	0.010968439
234	0x3d9cbec5	0.07653574
235	0x3d537e99	0.051634405
236	0x3d125fd2	0.035735913
237	0x3dafd773	0.085860156
238	0x3c4ce702	0.012506248
239	0xbe13e586	-0.14443025
240	0x3b866f5d	0.004102631
241	0xbde479cb	-0.11156043
242	0x3dd0bf3d	0.10192726
243	0x3d993b70	0.0748204
244	0x3dca7121	0.09884859
245	0x3bdc7aa5	0.0067284876
246	0x3c5f37f7	0.013624183
247	0x3d79b9f6	0.06096836
248	0xbd3ccab0	-0.046091735
249	0x3b9e329a	0.0048278095
250	0x3d924241	0.07141543
251	0x3d77ce32	0.060499378
252	0x3dde9bbe	0.10869549
253	0xbc6b6dde	-0.014369456
254	0xbc8a15f5	-0.016856173
255	0xbca645b1	-0.020296903

layers.8.bias f4 [32]
0	0xb48ab4fc	-2.5836187e-07
1	0xb4b2c72d	-3.3300003e-07
2	0xb6551bd2	-3.1755667e-06
3	0x35af6a4e	1.3069455e-06
4	0x352d1a5f	6.4485897e-07
5	0x34c6ca56	3.7027593e-07
6	0x3525a5a8	6.170835e-07
7	0xb43e9af8	-1.7751506e-07
8	0xb4be0a6a	-3.5397835e-07
9	0x3601d7a8	1.9348026e-06
10	0x358ce792	1.0498209e-06
11	0x34e4d661	4.262429e-07
12	0xb43a5ee5	-1.7357122e-07
13	0xb52ae0ef	-6.3657257e-07
14	0x34bf6a13	3.5653702e-07
15	0xb423e0ac	-1.5262293e-07
16	0xb4ce30b1	-3.8405918e-07
17	0xb61446ce	-2.2094932e-06
18	0xb5209eb9	-5.9835617e-07
19	0xb51b351e	-5.7819295e-07
20	0xb4196703	-1.4286711e-07
21	0x3480c500	2.3985194e-07
22	0x33728080	5.6461886e-08
23	0x34537dca	1.9696668e-07
24	0x349e8e3d	2.9533285e-07
25	0x35b4a212	1.3458214e-06
26	0x349fb22e	2.97457e-07
27	0xb556359c	-7.9799224e-07
28	0xb54aec5c	-7.559481e-07
29	0x343459e2	1.6796506e-07
30	0x3547c394	7.441788e-07
31	0xb6a5f792	-4.946204e-06

layers.9.weight f4 [32]
0	0x3f82c443	1.0216144
1	0x3f849291	1.0357229
2	0x3f835b47	1.0262231
3	0x3f76f4ef	0.9646749
4	0x3f4d46ac	0.8018596
5	0x3f3d05f8	0.7383723
6	0x3f860188	1.0469217
7	0x3f2df151	0.67946345
8	0x3f6e9f5b	0.9321191
9	0x3f83461c	1.0255771
10	0x3f88ba7a	1.0681908
11	0x3f794e10	0.9738474
12	0x3f77f985	0.9686511
13	0x3f8ad75c	1.0846972
14	0x3f6a537b	0.9153363
15	0x3f54977a	0.83043635
16	0x3f647b72	0.8925086
17	0x3f805f21	1.0029031
18	0x3f860e13	1.0473045
19	0x3f4a7790	0.7908869
20	0x3f90852d	1.1290642
21	0x3f948cfe	1.1605527
22	0x3f8ee711	1.1164266
23	0x3f7c3292	0.98514664
24	0x3f38a0dc	0.7212045
25	0x3f84961c	1.035831
26	0x3f839809	1.0280772
27	0x3f8c40ae	1.0957239
28	0x3f8ac0fa	1.0840142
29	0x3f8be526	1.0929306
30	0x3f35f8f8	0.7108302
31	0x3f83a456	1.0284526

layers.9.bias f4 [32]
0	0x3dd29ebd	0.10284183
1	0x3dc7b4e0	0.09751296
2	0x3e6ae957	0.22940575
3	0x3dc5a33a	0.096502736
4	0x3db03708	0.086042464
5	0x3dc40f4f	0.095732324
6	0x3e233413	0.15937833
7	0x3dbcc5eb	0.09217437
8	0x3e334215	0.17505677
9	0x3e0a93b2	0.13532904
10	0x3d5842a4	0.05279793
11	0x3da4be57	0.08044117
12	0x3de0bf7d	0.109740235
13	0x3e18697b	0.14883988
14	0x3e6b1369	0.22956623
15	0x3e2f7bb9	0.1713704
16	0x3e1298c1	0.14316083
17	0x3e433992	0.1906493
18	0x3dd0ffd5	0.10205046
19	0x3e2cc9d0	0.1687386
20	0x3dcd905f	0.10037302
21	0x3e1d3b9e	0.15354773
22	0x3e27dd8d	0.16393109
23	0x3d1e78fd	0.038689602
24	0x3e309bdb	0.17246954
25	0x3e48c5f2	0.1960676
26	0x3e263a4f	0.1623318
27	0x3dc0d38d	0.0941535
28	0x3e53ceee	0.20684406
29	0x3e8ab4ad	0.2709097
30	0x3e372327	0.17884503
31	0x3dfd0c93	0.12355914

layers.9.running_mean f4 [32]
0	0xbe8a6261	-0.27028182
1	0x3d0cad40	0.03434491
2	0x3d57cb35	0.052684028
3	0xbcfe3874	-0.031032778
4	0xbdb39472	-0.08768548
5	0xbe5b4cd5	-0.21416028
6	0xbe23d96a	-0.16000906
7	0xbe404231	-0.1877525
8	0xbdc81cbc	-0.09771106
9	0xbe117697	-0.14205395
10	0xbe722a42	-0.23648933
11	0xbd838a34	-0.064228445
12	0xbd93b2f0	-0.07211864
13	0xbdf27c5f	-0.11840128
14	0xbdbbe122	-0.091738
15	0xbddbfa01	-0.10741044
16	0x3d5a209a	0.053253748
17	0xbd8b3d07	-0.067987494
18	0xbdcc8faf	-0.09988343
19	0x3d84382e	0.06456028
20	0x3d05b9bb	0.03264783
21	0xbdab0a5e	-0.08351587
22	0x3c6e273a	0.0145357195
23	0xbe0e20eb	-0.13879745
24	0xbbbb8e60	-0.0057237595
25	0x3dd132f9	0.102148004
26	0xbe1aa557	-0.15102135
27	0xbe0dbf20	-0.1384244
28	0xbe0b25b0	-0.13588595
29	0xbda3c315	-0.07996193
30	0xbd87b002	-0.06625368
31	0xbe3ff53c	-0.18745893

layers.9.running_var f4 [32]
0	0x3d6d08f0	0.05786985
1	0x3d6faf55	0.05851682
2	0x3db22fed	0.08700547
3	0x3d4f7c7a	0.05065582
4	0x3d2bba81	0.04192591
5	0x3d3a7cf4	0.04552932
6	0x3d78311a	0.060593702
7	0x3d129d70	0.035794675
8	0x3d8136d4	0.06309286
9	0x3d830088	0.06396586
10	0x3d6a609c	0.05722104
11	0x3d6ebcb8	0.058285445
12	0x3d40b86c	0.04705088
13	0x3d412207	0.04715159
14	0x3d48803d	0.048950423
15	0x3d29a738	0.041419238
16	0x3d6f6b2f	0.058451828
17	0x3da6e3db	0.08148929
18	0x3d849cda	0.064752296
19	0x3d63ed08	0.055645972
20	0x3d77a0ac	0.060455963
21	0x3d2c340d	0.042041827
22	0x3d31310a	0.043259658
23	0x3d78c22c	0.06073205
24	0x3d25dde2	0.040494807
25	0x3d6dd744	0.05806662
26	0x3d3b8187	0.045777824
27	0x3d54363a	0.051809527
28	0x3d840573	0.06446352
29	0x3d77cb48	0.0604966
30	0x3d2496bb	0.04018281
31	0x3d507b75	0.050898988
