models/mlp_model.pth (torch, 9951 bytes, 13 tensors)

layers.0.weight f4 [32, 8]
0.036956016 -0.65523267 -0.23266485 0.17475896 0.0070587494 -0.14948285 -0.22025336 -0.050938264
0.032254726 0.05986755 -0.4852441 -0.12001099 0.27998424 -0.11926203 0.2968462 0.31710836
-0.14777613 -0.5611023 0.1729324 0.046920136 0.2141985 -0.08709424 0.14669995 -0.22702219
0.12787664 0.11942466 -0.14012557 -0.0782256 -0.6655087 0.059400532 0.07207058 0.18588024
0.08630966 -0.18537669 -0.16333848 -0.3187758 0.010738876 0.15475994 -0.26082122 -0.3421599
-0.012471009 -0.2115068 0.4793792 -0.12340444 0.2760665 -0.3782529 -0.08857064 -0.3257602
0.2612285 0.075433664 -0.040049233 0.24957095 0.3010266 0.21741714 -0.26223716 0.18327293
0.2022518 0.20092784 0.023804516 0.20078363 -0.33039853 0.32521075 0.006493305 0.1464978
0.00047202272 0.36630538 0.065324046 0.045824908 0.23089936 0.30144525 -0.4462001 -0.059709728
0.038103502 0.097316824 -0.14640883 -0.21664879 -0.06114804 0.37937325 0.04529578 -0.46369812
-0.46585184 -0.33979747 -0.09966182 0.27785245 -0.25402537 -0.14934629 -0.17816438 -0.6413232
0.33590356 -0.13856462 -0.18629348 0.34086522 -0.18060948 0.03242083 0.21902342 0.18991803
-0.34083322 0.39455253 -0.09775285 -0.26830584 0.08084365 -0.433055 0.11486283 -0.27627364
-0.019776987 -0.23784217 0.19668096 -0.1900767 0.29456502 0.009745025 -0.12904048 -0.61907154
0.108400546 -0.4165081 -0.21612333 0.05040664 -0.10703696 -0.330224 -0.16474244 0.39085948
0.08209513 0.5245977 0.15223372 -0.022326624 -0.037278347 0.09931966 -0.117216714 0.054119483
0.32773924 0.123246886 0.036308974 0.12991296 0.27537894 0.01230422 0.3777396 -0.34688792
0.48981956 0.2595808 -0.24572441 0.3414503 0.20200264 0.08110974 0.020145858 -0.13745707
0.49466696 0.032397304 -0.0797714 0.25207075 0.21543087 0.23839296 0.075238846 -0.17496817
-0.008878398 -0.45480555 -0.25653285 -0.18816087 0.18731132 -0.14429006 -0.15083171 -0.4389803
-0.46575803 0.41153267 0.06360014 -0.028522654 -0.1965303 0.32254177 0.01859095 0.33317062
-0.032749664 -0.48154017 -0.23260896 0.32978192 -0.38407362 -0.25032425 -0.16712514 0.32678297
0.09536996 0.09015399 -0.57026064 -0.17021133 -0.04715041 -0.078752965 -0.2642442 -0.19088693
-0.107615836 0.06435792 0.13078879 -0.18703674 -0.015767494 -0.7080961 -0.011381719 -0.37701508
0.15852767 0.5552979 -0.20164266 0.052744057 -0.10961797 0.2857802 -0.073763855 0.097387895
0.039868686 0.020873213 0.05606683 0.38324624 -0.18537302 0.20198205 -0.308889 0.2058003
-0.06947803 -0.11061918 0.2368083 0.17683795 -0.81646425 0.06596237 -0.3394719 -0.042403117
-0.10539414 0.28494525 0.016315177 0.047780026 0.035881255 -0.4940315 0.18519941 -0.18630485
-0.05542934 0.2759114 -0.04856019 -0.4267994 -0.18854438 -0.17828749 0.0514673 0.1113784
0.41326657 0.34497473 -0.12199526 0.1898982 0.20567805 0.096047 0.13112977 0.4462952
-0.13130257 0.2812288 -0.16593026 0.1789719 -0.13284275 0.6160636 0.18155466 0.1805399
0.18902697 -0.0756786 0.15539923 0.08922495 -0.43894306 0.1284002 0.38101977 -0.49102792
00000000: 315f 173d 54bd 27bf b23f 6ebe 03f4 323e
00000010: 154d e73b 0812 19be 198a 61be a4a4 50bd
00000020: 881d 043d ad37 753d ea71 f8be 52c8 f5bd
00000030: 185a 8f3e a73f f4bd 3afc 973e 075c a23e
00000040: a052 17be 66a4 0fbf 3115 313e 542f 403d
00000050: da56 5b3e 775e b2bd 8338 163e 8178 68be
00000060: 18f2 023e eb94 f43d 147d 0fbe be34 a0bd
00000070: c75e 2abf f94d 733d be99 933d 6457 3e3e
00000080: 1ec3 b03d 63d3 3dbe 3442 27be 9536 a3be
00000090: 1cf2 2f3c 6479 1e3e 5c8a 85be 952f afbe
000000a0: 3453 4cbc 3d95 58be 3171 f53e 78bb fcbd
000000b0: 9758 8d3e 5daa c1be 8664 b5bd 0aca a6be
000000c0: bebf 853e f77c 9a3d aa0a 24bd 878f 7f3e
000000d0: 2920 9a3e 99a2 5e3e f343 86be e6ab 3b3e
000000e0: 191b 4f3e 07c0 4d3e b001 c33c 399a 4d3e
000000f0: ff29 a9be 0682 a63e cac5 d43b 8503 163e
00000100: d179 f739 618c bb3e 9dc8 853d e6b2 3b3d
00000110: e270 6c3e 0857 9a3e 5774 e4be 3092 74bd
00000120: 6b12 1c3d 0b4e c73d 32ec 15be 2ed9 5dbe
00000130: 5e76 7abd 363d c23e 1188 393d d769 edbe
00000140: 2284 eebe eff9 adbe 7f1b ccbd ad42 8e3e
00000150: 9d0f 82be 3cee 18be b970 36be c22d 24bf
00000160: 8dfb ab3e e2e3 0dbe b8c3 3ebe e385 ae3e
00000170: b1f1 38be b4cb 043d ad47 603e df79 423e
00000180: b181 aebe ca02 ca3e a532 c8bd 625f 89be
00000190: 5b91 a53d 63b9 ddbe 343d eb3d bd73 8dbe
000001a0: 5903 a2bc e68c 73be bc66 493e 77a3 42be
000001b0: 3ad1 963e 99a9 1f3c 3023 04be 797b 1ebf
000001c0: 1b01 de3d 8d40 d5be 6f4f 5dbe 3177 4e3d
000001d0: 3236 dbbd 1f13 a9be 3eb2 28be bc1e c83e
000001e0: 7e21 a83d 094c 063f 28e3 1b3e 53e6 b6bc
000001f0: 2eb1 18bd 1b68 cb3d 510f f0bd 64ac 5d3d
00000200: 70cd a73e dd68 fc3d b8b8 143d e707 053e
00000210: 78fe 8c3e a497 493c 1667 c13e 4b9b b1be
00000220: a1c9 fa3e c6e7 843e 2e9f 7bbe 93d2 ae3e
00000230: c8d9 4e3e dd1c a63d ed08 a53c 8cc1 0cbe
00000240: fd44 fd3e 09b3 043d 305f a3bd 6b0f 813e
00000250: e999 5c3e 491d 743e d316 9a3d db2a 33be
00000260: b376 11bc 46dc e8be 4658 83be 3ead 40be
00000270: 8ace 3f3e c6c0 13be a173 1abe 07c2 e0be
00000280: d677 eebe 69b4 d23e ca40 823d 57a8 e9bc
00000290: 3d3f 49be 3224 a53e 0c4c 983c 5795 aa3e
000002a0: 8324 06bd 6f8c f6be 0b31 6ebe 2dd9 a83e
000002b0: 4ca5 c4be 802a 80be da22 2bbe 1950 a73e
000002c0: 5351 c33d a8a2 b83d 9afc 11bf e14b 2ebe
000002d0: ca20 41bd 3c49 a1bd 044b 87be dd77 43be
000002e0: b165 dcbd 16ce 833d 7fed 053e 8f86 3fbe
000002f0: d52a 81bc c945 35bf 647a 3abc 1f08 c1be
00000300: 1455 223e 0128 0e3f 6a7b 4ebe 270a 583d
00000310: 637f e0bd c851 923e 8111 97bd 4e73 c73d
00000320: 594d 233d 4dfe aa3c 55a6 653d da38 c43e
00000330: 6dd2 3dbe 62d4 4e3e b326 9ebe 50bd 523e
00000340: 7f4a 8ebd 4f8c e2bd e07d 723e 0215 353e
00000350: cd03 51bf 4717 873d 43cf adbe e4ae 2dbd
00000360: e2d8 d7bd 58e4 913e 68a7 853c fdb4 433d
00000370: 39f8 123d b2f1 fcbe eaa4 3d3e b3c6 3ebe
00000380: e009 63bd 4244 8d3e 0de7 46bd 7385 dabe
00000390: c711 41be ff90 36be 60cf 523d 5c1a e43d
000003a0: ad97 d33e 87a0 b03e a7d8 f9bd ac74 423e
000003b0: 449d 523e 4ab4 c43d e246 063e ce80 e43e
000003c0: 2e74 06be 39fd 8f3e 9fe9 29be 6944 373e
000003d0: ee07 08be 58b6 1d3f 77e9 393e 74df 383e
000003e0: 4990 413e 62fd 9abd fa20 1f3e 92bb b63d
000003f0: 25bd e0be 587b 033e 0615 c33e 0368 fbbe

layers.0.bias f4 [32]
0.08262096 0.25515768 -0.24150763 -0.010587971 -0.24651062 -0.26222143 0.24264543 0.30490196
-0.26380363 -0.3232923 -0.07902876 0.12120472 0.24367386 -0.32104233 -0.3122983 -0.19543505
0.28073832 -0.23145127 -0.09076712 0.18175554 -0.07152598 -0.31149516 -0.019998312 0.25387964
-0.2863933 0.32710353 -0.17387426 0.2828574 -0.32238266 0.16793074 0.05731386 -0.13420987
00000000: 2e35 a93d 07a4 823e c74d 77be 2b79 2dbc
00000010: 486d 7cbe e341 86be 0b78 783e 1c1c 9c3e
00000020: 4511 87be 9186 a5be d5d9 a1bd 2e3a f83d
00000030: a485 793e a95f a4be 90e5 9fbe 2020 48be
00000040: efbc 8f3e 9001 6dbe 1de4 b9bd 201e 3a3e
00000050: 377c 92bd 4b7c 9fbe 80d3 a3bc 83fc 813e
00000060: 25a2 92be 1d7a a73e 180c 32be afd2 903e
00000070: 570f a5be 09f6 2b3e f0c1 6a3d 506e 09be

layers.1.weight f4 [32]
1.0514555 0.9252461 1.0492811 1.0780352 0.9563981 1.0656742 0.8846102 1.0098053
0.8533766 1.0877162 1.0034531 0.95183134 1.0999893 0.9679469 1.1722763 0.8548108
0.95527065 0.9102183 0.98310167 1.0418814 0.97856724 0.9806715 1.0257841 1.1214082
0.73411924 1.0280383 1.0393456 1.1319376 0.7067389 0.85048896 0.98310137 1.1280555
00000000: 1896 863f eedc 6c3f d84e 863f 0ffd 893f
00000010: 82d6 743f 0368 883f d075 623f 4d41 813f
00000020: e476 5a3f 493a 8b3f 2771 803f 38ab 733f
00000030: 73cc 8c3f 5ecb 773f 260d 963f e1d4 5a3f
00000040: 9e8c 743f 1104 693f 8dac 7b3f 5f5c 853f
00000050: 6283 7a3f 4a0d 7b3f e54c 833f 4e8a 8f3f
00000060: 3def 3b3f c296 833f 4709 853f 55e3 903f
00000070: d7ec 343f a5b9 593f 88ac 7b3f 1f64 903f

layers.1.bias f4 [32]
-0.37394068 -0.3492426 -0.4058493 -0.57962644 -0.34829533 -0.5056742 0.044116333 -0.08684813
-0.67561704 -0.27267694 -0.0030994897 -0.18369068 -0.15055801 -0.3019459 -0.365237 -0.3451155
-0.042908117 -0.25634927 -0.32300824 -0.109339446 -0.11096462 -0.27262723 -0.15621282 -0.09804771
-0.37953603 -0.42574745 -0.28639254 -0.25027844 -0.64676785 -0.07533817 -0.1354963 -0.43739608
00000000: 2775 bfbe edcf b2be 7bcb cfbe 6662 14bf
00000010: c453 b2be dd73 01bf 54b3 343d 6fdd b1bd
00000020: 3df5 2cbf 509c 8bbe cf20 4bbb 6919 3cbe
00000030: e12b 1abe a798 9abe 5800 bbbe fbb2 b0be
00000040: 6cc0 2fbd 3640 83be 5661 a5be 5ced dfbd
00000050: 6b41 e3bd cc95 8bbe 41f6 1fbe 3dcd c8bd
00000060: 8c52 c2be 92fb d9be 0ba2 92be 7f24 80be
00000070: 9492 25bf e64a 9abd 8bbf 0abe 61f2 dfbe

layers.1.running_mean f4 [32]
0.08261984 0.2551578 -0.24150737 -0.010587726 -0.24651071 -0.26222175 0.24264532 0.30490196
-0.26380387 -0.3232926 -0.07902833 0.12120461 0.24367379 -0.32104203 -0.31229797 -0.19543527
0.2807378 -0.23145136 -0.09076709 0.18175563 -0.07152565 -0.31149536 -0.019998387 0.25387973
-0.28639325 0.32710376 -0.17387436 0.2828572 -0.32238305 0.16793075 0.057313554 -0.13421015
00000000: 9734 a93d 0ba4 823e b54d 77be 2478 2dbc
00000010: 4e6d 7cbe ee41 86be 0478 783e 1c1c 9c3e
00000020: 4d11 87be 9c86 a5be 9bd9 a1bd 1f3a f83d
00000030: 9f85 793e 9f5f a4be 85e5 9fbe 2f20 48be
00000040: ddbc 8f3e 9601 6dbe 19e4 b9bd 261e 3a3e
00000050: 0a7c 92bd 527c 9fbe a8d3 a3bc 86fc 813e
00000060: 23a2 92be 257a a73e 1f0c 32be a9d2 903e
00000070: 640f a5be 0af6 2b3e 9ec1 6a3d 636e 09be

layers.1.running_var f4 [32]
0.67769396 0.49976468 0.41461104 0.43740088 0.43125346 0.42111775 0.56520456 0.41395366
0.54291403 0.35282618 1.5369692 0.37792745 0.72201395 0.5378212 0.603196 0.39676377
0.43366 0.57949686 0.48626864 0.87819487 0.47686473 0.74975127 0.5801872 0.81459516
0.4690866 0.42466396 0.97019166 0.29770818 0.34843153 1.1012614 0.7210242 0.509186
00000000: 5a7d 2d3f 28e1 ff3e e647 d43e 02f3 df3e
00000010: 41cd dc3e bf9c d73e 3fb1 103f bcf1 d33e
00000020: 6afc 0a3f a2a5 b43e 68bb c43f b57f c13e
00000030: e8d5 383f a6ae 093f 0e6b 1a3f 9f24 cb3e
00000040: af08 de3e e859 143f 34f8 f83e 61d1 603f
00000050: 9d27 f43e b3ef 3f3f 2687 143f 4f89 503f
00000060: 1e2c f03e 8e6d d93e 7b5e 783f 356d 983e
00000070: 9e65 b23e 22f6 8c3f 0b95 383f 045a 023f

layers.4.weight f4 [16, 32]
0.17642993 0.015931224 0.13993466 -0.23120874 0.15966624 0.120170236 -0.13443063 0.1788777
-0.1492853 -0.022873832 0.13411814 0.012152122 0.052241243 0.05173687 -0.13396731 0.029980779
-0.109015554 -0.11086747 -0.05179133 0.23263092 -0.27758867 0.10904979 0.11273799 0.09098348
-0.11926843 0.21910127 0.038971364 0.19764677 -0.23278588 -0.19355018 -0.22486077 -0.5859464
0.22029763 -0.020814689 0.2984313 0.37444147 -0.15727618 0.2500068 -0.29536438 0.1332281
-0.030388469 0.13368465 -0.07366623 0.14746764 0.23675911 0.22675358 0.07133934 0.08270801
-0.05667097 -0.18285103 -0.19753544 0.05986029 -0.013430444 0.34354267 0.059658114 0.10189849
0.010182163 -0.13037176 0.06712541 0.13888156 -0.060391024 -0.023107816 0.07210372 -0.03677499
0.25697422 0.30938852 0.0825695 0.18466692 -0.23843585 0.1813895 -0.09027723 0.15780868
-0.27521452 -0.32966405 0.27222338 0.08198345 0.08426413 0.025875902 0.2702935 -0.1666327
-0.07598445 -0.17543419 -0.32111773 0.011580175 0.18920024 0.22815193 -0.39298925 0.16459279
-0.11785207 0.2778611 0.059755243 0.13962293 0.0104524335 0.119737245 0.26258877 0.09554963
0.279119 -0.044468794 -0.33076897 -0.21319124 -0.011217423 -0.03291808 0.23382929 0.17478645
0.37566784 0.22427796 -0.08609638 0.3538894 0.38402188 -0.05583117 -0.1919402 0.2055501
-0.13699688 -0.021882223 -0.0824842 0.0072920085 -0.049310636 0.0050222706 0.060451735 0.07876593
0.09096613 0.18699265 -0.0955878 0.307448 0.22880107 -0.035889026 0.10107294 -0.11177589
0.51999056 0.21737382 0.16767558 0.37654066 -0.24216497 0.08959747 0.027416922 0.09059915
-0.28668463 -0.117373236 0.087244615 0.1468403 0.11813449 -0.012499726 0.2324788 -0.22551428
-0.25991386 -0.17393535 -0.12626265 0.15221235 -0.08737101 0.015790999 -0.24388918 0.10487112
-0.23431025 0.53078884 0.16350329 0.22076498 -0.15258223 0.060069226 -0.112865716 0.0087363925
0.06424563 -0.14270832 -0.025107255 -0.27196693 -0.16464584 -0.49512243 -0.17208998 -0.16475636
0.21227892 -0.06502071 -0.40088773 -0.05987876 0.33838004 -0.7108817 -0.049908 -0.068778105
0.017119631 -0.13450138 0.07990336 -0.23602396 0.02343608 0.0071646282 -0.094495624 -0.06355074
-0.19351207 0.063068844 -0.504141 0.093554355 0.17056468 -0.013490891 -0.12322089 0.11800273
0.32259488 0.09358899 0.04817675 0.14291917 0.093829684 -0.019993631 0.030931551 0.07475356
-0.04173301 -0.006047542 -0.22067246 0.014805551 0.15889655 0.017192345 -0.32974434 0.042478655
-0.2771162 -0.0708565 -0.037848677 0.1419364 -0.3317114 0.061526638 0.023217179 0.048739035
0.028598333 0.09605675 0.24806027 0.119884856 -0.31386667 -0.17979969 -0.19741158 -0.5780018
0.26926404 0.051058836 -0.27757135 -0.4766341 -0.094984025 -0.13348918 -0.1869338 -0.15091226
0.18771273 0.05266076 -0.29178 -0.07702286 0.081953734 -0.40552115 -0.018526012 -0.15030429
-0.011400675 0.11446381 0.020827135 -0.06775638 0.13962191 0.153968 -0.04311958 -0.14392509
0.06597812 0.29433683 -0.45994592 0.11382273 0.15043081 0.042513356 0.100838855 -0.09365532
00000000: 0caa 343e 3382 823c 084b 0f3e fcc1 6cbe
00000010: 8c7f 233e d01b f63d 2fa8 09be b72b 373e
00000020: 3fde 18be e761 bbbc 4456 093e b219 473c
00000030: eafa 553d 0aea 533d ba2e 09be 409a f53c
00000040: 8c43 dfbd 7c0e e3bd 2523 54bd cd36 6e3e
00000050: 1a20 8ebe 7f55 df3d 2de3 e63d 8c55 ba3d
00000060: 0243 f4bd 155c 603e 70a0 1f3d ea63 4a3e
00000070: 6c5f 6ebe 0532 46be e741 66be 9500 16bf
00000080: b495 613e 9183 aabc fdcb 983e cbb6 bf3e
00000090: 020d 21be e400 803e 003a 97be f26c 083e
000000a0: 3df1 f8bc a1e4 083e 52de 96bd c201 173e
000000b0: fb70 723e 1732 683e 5c1a 923d d162 a93d
000000c0: d21f 68bd 4d3d 3bbe bb46 4abe 1030 753d
000000d0: 5d0b 5cbc d3e4 af3e 115c 743d 28b0 d03d
000000e0: 16d3 263c 2d80 05be 0c79 893d f836 0e3e
000000f0: 945c 77bd 9a4c bdbc 1dab 933d 5fa1 16bd
00000100: 2092 833e 2c68 9e3e 331a a93d 5319 3d3e
00000110: 8728 74be 2bbe 393e 45e3 b8bd 9998 213e
00000120: ebe8 8cbe bac9 a8be dd60 8b3e f0e6 a73d
00000130: ac92 ac3d b3f9 d33c e963 8a3e c3a1 2abe
00000140: bc9d 9bbd 05a5 33be 8b69 a4be c6ba 3d3c
00000150: b5bd 413e a9a0 693e e335 c9be 038b 283e
00000160: 6d5c f1bd cf43 8e3e eac1 743d 50f9 0e3e
00000170: af40 2b3c cd38 f53d 0972 863e 86af c33d
00000180: b0e8 8e3e e924 36bd 8d5a a9be ce4e 5abe
00000190: 48c9 37bc 1cd5 06bd f270 6f3e 38fb 323e
000001a0: 8957 c03e 1fa9 653e 4d53 b0bd fe30 b53e
000001b0: 849e c43e 3aaf 64bd f98b 44be ba7b 523e
000001c0: e948 0cbe 5942 b3bc 7aed a8bd cdf1 ee3b
000001d0: f3f9 49bd dc91 a43b 3d9c 773d 0850 a13d
000001e0: 734c ba3d 007b 3f3e 89c3 c3bd d369 9d3e
000001f0: d44a 6a3e 5f00 13bd 54ff ce3d c2ea e4bd
00000200: 1a1e 053f 3e97 5e3e 26b3 2b3e f0c9 c03e
00000210: 18fa 77be e17e b73d 7499 e03c 0c8c b93d
00000220: 54c8 92be 6161 f0bd 4ead b23d 4e5d 163e
00000230: 7ff0 f13d a7cb 4cbc ec0e 6e3e 37ed 66be
00000240: 6e13 85be 1c1c 32be ff4a 01be 8edd 1b3e
00000250: 92ef b2bd 205c 813c 16be 79be abc6 d63d
00000260: 07ef 6fbe c7e1 073f 686d 273e 3710 623e
00000270: 843e 1cbe 260b 763d 2426 e7bd 1623 0f3c
00000280: 3693 833d 2122 12be bbad cdbc 403f 8bbe
00000290: eb98 28be b080 fdbe 5b38 30be e4b5 28be
000002a0: a55f 593e 9429 85bd 2841 cdbe 6e43 75bd
000002b0: 2640 ad3e 58fc 35bf 556c 4cbd 89db 8cbd
000002c0: 783e 8c3c bbba 09be 5fa4 a33d 44b0 71be
000002d0: 06fd bf3c 42c5 ea3b ec86 c1bd e426 82bd
000002e0: 0728 46be 3d2a 813d 620f 01bf 6d99 bf3d
000002f0: 82a8 2e3e e608 5dbc 3c5b fcbd 6aab f13d
00000300: 282b a53e 96ab bf3d fc54 453d 6759 123e
00000310: c729 c03d afc9 a3bc 2a64 fd3c 6518 993d
00000320: 3cf0 2abd 762a c6bb f6f7 61be fb92 723c
00000330: c7b5 223e f6d6 8c3c 40d4 a8be 19fe 2d3d
00000340: 2de2 8dbe 361d 91bd 3707 1bbd c757 113e
00000350: 14d6 a9be 5b03 7c3d f431 be3c 95a2 473d
00000360: 0d47 ea3c 67b9 c43d 8303 7e3e 3186 f53d
00000370: 22b3 a0be 691d 38be 4326 4abe edf7 13bf
00000380: fadc 893e 1223 513d d51d 8ebe 6209 f4be
00000390: fc86 c2bd 63b1 08be 936b 3fbe be88 1abe
000003a0: c437 403e cfb2 573d 3064 95be 29be 9dbd
000003b0: 5cd7 a73d 78a0 cfbe ddc3 97bc 5ee9 19be
000003c0: e6c9 3abc 016c ea3d ab9d aa3c dbc3 8abd
000003d0: 0cf9 0e3e caa9 1d3e 289e 30bd 1961 13be
000003e0: 891f 873d 51b3 963e 087e ebbe e41b e93d
000003f0: 890a 1a3e 7c22 2e3d 9a84 ce3d 5cce bfbd

layers.4.bias f4 [16]
-0.028895993 -0.1732396 -0.14917706 0.14901069 -0.08750822 0.08977684 0.1303467 -0.16379453
-0.0981582 0.06501335 -0.05552839 -0.09018572 -0.061231192 -0.05966734 -0.07322 -0.05205529
00000000: 4ab7 ecbc b965 31be dfc1 18be 4296 183e
00000010: 8237 b3bd ebdc b73d 9b79 053e c1b9 27be
00000020: 2b07 c9bd b825 853d bd71 63bd 4ab3 b8bd
00000030: 8fcd 7abd be65 74bd 5ef4 95bd ee37 55bd

layers.5.weight f4 [16]
1.3729284 1.4496326 1.6785216 1.4462808 1.754135 1.4655017 1.579832 1.4289099
1.386096 1.5229609 1.4230154 1.144849 1.3958888 1.3320935 1.4566275 1.5305691
00000000: 1ebc af3f 908d b93f ccd9 d63f bb1f b93f
00000010: 7f87 e03f 8f95 bb3f ef37 ca3f 85e6 b63f
00000020: 986b b13f 62f0 c23f 5e25 b63f 698a 923f
00000030: 7cac b23f 0a82 aa3f c572 ba3f b0e9 c33f

layers.5.bias f4 [16]
0.24422184 0.16516392 0.17085463 0.15411128 0.10613338 0.32628798 0.33395922 0.23609032
0.28449368 0.1617958 0.112340495 0.17848858 0.2033313 0.21266223 0.23807655 0.22307953
00000000: 4a15 7a3e bb20 293e 84f4 2e3e 59cf 1d3e
00000010: 755c d93d 380f a73e b4fc aa3e a9c1 713e
00000020: 28a9 913e ccad 253e c612 e63d b6c5 363e
00000030: 1536 503e 21c4 593e 57ca 733e f66e 643e

layers.5.running_mean f4 [16]
-0.028722988 0.24119551 0.27057973 0.6627932 0.23121777 -0.6925871 -0.10292422 -0.50271606
-0.1300899 0.3090926 0.37172574 -0.24772769 0.04105368 0.30615026 -0.032782223 0.40045595
00000000: 794c ebbc f5fb 763e 6d89 8a3e d1ac 293f
00000010: 5ac4 6c3e 634d 31bf efc9 d2bd 00b2 00bf
00000020: 4936 05be 6341 9e3e d652 be3e 54ac 7dbe
00000030: e727 283d babf 9c3e a746 06bd 9008 cd3e

layers.5.running_var f4 [16]
0.66426814 0.41877338 0.4696777 0.37455985 0.5585741 0.47852144 0.4204976 0.28993756
0.5742515 0.4040258 0.3806648 0.6405075 1.1032276 0.38933292 0.67108357 0.47404623
00000000: 7a0d 2a3f 7769 d63e 9879 f03e 4fc6 bf3e
00000010: b6fe 0e3f c300 f53e 764b d73e b272 943e
00000020: 2502 133f 78dc ce3e 7fe6 c23e 4df8 233f
00000030: 9036 8d3f a556 c73e 22cc 2b3f 30b6 f23e

layers.7.weight f4 [1, 16]
-0.3931241 -0.39386955 -0.47744566 0.3623184 -0.44427103 0.31150398 -0.3782991 0.3563346
-0.40747088 -0.32099408 0.32409093 0.30412978 -0.2785521 0.5016712 -0.38555872 -0.40934467
00000000: 9047 c9be 45a9 c9be c273 f4be cc81 b93e
00000010: 7e77 e3be 737d 9f3e 6bb0 c1be 7d71 b63e
00000020: 06a0 d0be 5659 a4be 3fef a53e e6b6 9b3e
00000030: 619e 8ebe 866d 003f f467 c5be a095 d1be
