models/mlp_model.pth (torch, 9951 bytes, 13 tensors)

layers.0.weight f4 [32, 8]
000000 ef a0 b1 bc b4 de f0 3e 71 30 65 bd 3f 39 80 3d
       -0.021683184 0.4704491 -0.0559544 0.06260919
000010 30 d9 6e 3d 9f 7d c7 3e 11 7c 85 be 2a e8 b6 3d
       0.058312595 0.3896303 -0.26071218 0.089310005
000020 c9 cd 06 3f fd 70 5a be 01 8c 8a 3e 0e 79 fb 3c
       0.52657753 -0.21332164 0.2705994 0.030697372
000030 e2 30 a4 3e 12 5a 0e 3e 4f 26 25 3e 67 5c b8 be
       0.32068545 0.13901547 0.16127895 -0.36007997
000040 e1 af 85 3e c3 82 27 be 24 67 ab bc 3b 15 98 3e
       0.26110747 -0.16358475 -0.020923205 0.29703698
000050 17 76 a5 be 55 04 7e 3e 1e 1a 3f be ec 4b b3 3e
       -0.32316658 0.2480634 -0.18662307 0.3501886
000060 ee 0c 12 be f1 cf 02 bf cf 27 96 bd ac 58 2e 3d
       -0.14262745 -0.51098543 -0.07331812 0.042565033
000070 cb fe 48 3e 75 59 59 bf ea 8c b6 bc a2 a1 41 be
       0.19628446 -0.84902126 -0.02228399 -0.18909314
000080 80 5e b2 3e 46 48 cc 3d ef bd 37 be d3 56 bf 3e
       0.34837723 0.099747226 -0.17943548 0.3737093
000090 97 c4 47 bd ec 68 49 3e d9 4f 6f 3d 1b 22 83 be
       -0.048771467 0.19668931 0.058425758 -0.25611958
0000a0 ac 83 db 3e 96 a6 7a 3e 9b b0 27 3e 35 9e f8 3d
       0.42873895 0.2447761 0.16375963 0.121395506
0000b0 21 0b 95 3e 03 47 cc 3d b0 33 9d 3e 72 11 19 be
       0.29110053 0.09974482 0.30703497 -0.14948061
0000c0 c5 4c 72 3d 67 2d 9f be 21 02 31 bf 93 fd 87 be
       0.059155244 -0.31089327 -0.69143873 -0.2656065
0000d0 db 08 27 be a0 48 ae 3d 7e 62 bb bc ae 2e 23 3e
       -0.16311972 0.08509946 -0.022874113 0.15935776
0000e0 94 87 18 be 56 13 4c bd f6 78 8d 3e 5c b4 d4 3d
       -0.14895469 -0.049823128 0.27631348 0.10385963
0000f0 7f d6 99 bd 5b 73 15 bf d5 47 7b bc 37 cd a5 be
       -0.07511615 -0.58379143 -0.01533695 -0.3238313
000100 83 9c 73 3e 77 6d f7 bd ce ad bd 3e 2f 07 12 bf
       0.23790173 -0.12081426 0.37046665 -0.5704221
000110 7e 8b 0b bd a8 c2 7c be aa 11 ce 3d 49 1a 04 bd
       -0.034068577 -0.2468363 0.10061963 -0.03225163
000120 22 ad a3 3e f3 65 dc bd 5e 35 4a bf 55 39 68 be
       0.31968027 -0.10761633 -0.7898768 -0.2267812
000130 61 98 9d 3d e5 86 a6 be 96 4b 88 bd 62 a4 36 3e
       0.076950796 -0.3252479 -0.06655042 0.17836145
000140 09 9d 9b 3d 99 3a 56 be 92 78 eb 3e 67 19 a5 bd
       0.075983115 -0.2092079 0.45990425 -0.08061486
000150 c7 8b 8c 3e 94 b9 c6 be 90 a2 04 be c4 64 ce be
       0.27450392 -0.3881346 -0.12952638 -0.40311253
000160 00 88 01 bf a9 07 a8 3e 05 72 ad be 36 f3 52 be
       -0.50598145 0.32818344 -0.33876052 -0.2060059
000170 a2 b4 f3 bb 1f 04 be bd c9 6f 93 bd a1 b1 1f be
       -0.0074373046 -0.0927813 -0.07199056 -0.15595104
000180 d3 e4 a2 3e 40 6d 58 bd e9 ae 94 be 00 40 8d be
       0.31815204 -0.052838564 -0.29039696 -0.2758789
000190 ef 87 35 be 83 a1 23 3d a8 c8 a2 be b7 82 e0 be
       -0.17727636 0.03994895 -0.31793714 -0.43849728
0001a0 50 56 f2 3d e8 ad ad 3d 6c cb 33 bf c9 e8 99 bd
       0.11832869 0.084804356 -0.7023227 -0.07515103
0001b0 a7 26 c7 3d bd e5 09 be 81 a1 ce 3e 7e 24 98 3e
       0.09724169 -0.13466544 0.40357593 0.2971534
0001c0 44 2b 34 be 8c e1 f2 be 99 c3 7c bd 04 35 1b be
       -0.1759463 -0.47437704 -0.061709974 -0.15156943
0001d0 ba 1d 84 3e 28 6d 15 be 93 d9 c5 be ac 99 a4 be
       0.2580393 -0.14592421 -0.38642558 -0.32148492
0001e0 80 99 dd bd 59 3a 96 bd ec 93 68 3d 64 4c 43 3e
       -0.108202934 -0.07335348 0.056781694 0.1907211
0001f0 7c 14 29 bf ff 80 88 be d3 b4 91 be bb ee ac be
       -0.6604688 -0.26660916 -0.2845827 -0.33775887
000200 9e 05 2a 3e ad 4d b3 bc ef 52 9b 3e a5 25 cb 3d
       0.16603705 -0.021887625 0.3033671 0.099192895
000210 68 b1 2d bf 0b 83 cf 3e 05 5f a0 be bd 2a 16 be
       -0.67848825 0.40529665 -0.31322494 -0.14664741
000220 1d 3f 00 be f7 42 33 bf 71 d9 21 3e 35 5c 08 3e
       -0.12524076 -0.70024055 0.15805604 0.13316424
000230 cb 53 8f 3e a4 02 5f be b0 4b 1a 3e 8f 1b 80 be
       0.27993616 -0.21778351 0.15067935 -0.25021026
000240 88 04 46 bc d7 17 70 be 93 4b 81 3e 3a f7 8f 3d
       -0.012086041 -0.23446594 0.2525297 0.070295766
000250 74 61 ad 3e e7 0f c7 be 02 60 e9 bd d2 e4 b9 be
       0.33863413 -0.3887932 -0.11395265 -0.3630739
000260 28 3d be 3c 52 40 3d be 1e b5 bb 3e 11 57 76 be
       0.023222521 -0.18481568 0.3666162 -0.2405665
000270 4f d5 48 3e 1d 52 58 3d 13 38 19 be de 5c 1e bf
       0.19612621 0.052812684 -0.14962797 -0.61860454
000280 c7 3f 48 3c 9d f8 4a 3e e4 14 2c 3e 95 44 ac be
       0.012222237 0.19821401 0.16804844 -0.33646074
000290 09 2d 5e 3e 1f 93 bb 3e bf 77 f9 be 3c ce 13 be
       0.21696867 0.36635682 -0.48724172 -0.14434141
0002a0 0e 17 cc bd a8 41 2c bf aa 14 2f be 2a cf 90 3d
       -0.09965335 -0.67287683 -0.17097726 0.070707634
0002b0 26 92 aa 3d 8a c6 1a be 7c a0 28 be 96 a6 f1 bc
       0.08328657 -0.15114799 -0.1646747 -0.02949838
0002c0 7a 93 f1 be 06 d4 58 3e 8c 97 aa 3e 47 20 cf be
       -0.47182828 0.2117463 0.33318746 -0.40454313
0002d0 85 d9 2d be e4 f4 bf 3b 45 4e 02 bd 9f ea 3d bd
       -0.16977508 0.0058580507 -0.031812925 -0.04636633
0002e0 3a 05 22 3e 24 f8 b3 3e 24 45 3d bd d7 02 db bc
       0.15822306 0.35150254 -0.046208516 -0.026734753
0002f0 0a ae f2 bd 79 c0 af 3e 3a 0b 3d 3d 32 58 c7 bd
       -0.118496016 0.34326532 0.046153285 -0.09733619
000300 1a 53 a8 3e fd 93 a6 3e 86 1e 06 be 9d 69 c6 3d
       0.328759 0.3253478 -0.13097581 0.09688113
000310 28 e5 2a 3e 4c 10 90 3e 55 6b 0d 3e 41 94 ee bd
       0.16688979 0.28137434 0.13810475 -0.11649371
000320 1b dc 0d bf ba c3 98 bd 8d b5 82 bc c9 35 97 3e
       -0.5541398 -0.07459207 -0.01595571 0.29533222
000330 41 b8 83 be 2e 01 06 be 64 7e 14 be 7d 21 e4 be
       -0.25726512 -0.13086388 -0.14501339 -0.445568
000340 fd 3c ea 3d 04 64 84 3c 0f a2 57 3c 8f 50 f5 3d
       0.11437414 0.016160972 0.013161196 0.11978256
000350 a7 fc 4d bf 48 18 22 bd 19 be e7 3d 29 03 89 3e
       -0.8046364 -0.039573938 0.11315555 0.26760224
000360 ac ca 34 3e e6 65 84 3c 18 bb fe 3c 1e 6f 06 be
       0.17655438 0.01616187 0.031095073 -0.13128325
000370 b9 41 ca be ba 28 f4 3e b4 dd 04 be 10 0d 1f be
       -0.39503267 0.47687322 -0.12975198 -0.15532327
000380 b7 b3 08 bf a4 ad f6 3e 71 1a 9f 3e ee ad 57 3e
       -0.53399223 0.48179352 0.3107486 0.21062443
000390 b3 68 5a be 7b 3b c2 be f6 dd 28 be 37 67 e2 bd
       -0.21329002 -0.37936005 -0.16490921 -0.11054843
0003a0 14 d4 bd 3e 55 e5 f7 3e cd 75 e0 bd 3e 5a 72 3e
       0.37075865 0.48417154 -0.10959969 0.23667237
0003b0 bf 34 a5 3d d0 b8 8d be 75 a4 75 be e3 9f 1c be
       0.08066701 -0.27680063 -0.23988517 -0.15295367
0003c0 b2 aa 05 3e d2 3f e1 be 60 cb ce bc ca 12 2b 3d
       0.13053396 -0.43994004 -0.025243461 0.041765966
0003d0 c5 b7 6a bd b1 12 15 be c5 0f 9c be 08 79 bd 3e
       -0.057304163 -0.14557911 -0.3048078 0.37006402
0003e0 df 0d c3 be b2 2a 34 3d 32 d0 2d 3a 6f 25 df be
       -0.3809652 0.04398603 0.000663045 -0.43583247
0003f0 ed c3 42 3c 25 89 f7 be 01 f0 23 bd 17 ad 88 be
       0.011887533 -0.4834682 -0.040023807 -0.26694557

layers.0.bias f4 [32]
000000 c2 a0 39 3e 83 c4 66 be a8 2c 37 3e fb 46 19 3e
       0.1812773 -0.22535901 0.17888129 0.14968483
000010 fa 0b 87 3e 13 f2 85 be b6 85 87 3e 28 25 07 be
       0.26376325 -0.2616125 0.264692 -0.13197768
000020 12 b5 12 3e a7 5e ae 3e ba 00 73 bd e0 86 b5 bc
       0.14326885 0.3405659 -0.059326865 -0.02215904
000030 85 32 ae bd fa c3 97 be 65 00 27 3e 72 94 b7 be
       -0.085057296 -0.29641706 0.16308744 -0.35855442
000040 fb 14 66 3e c0 65 8c 3e 54 a5 9e 3e e1 d0 b9 bd
       0.22468941 0.2742138 0.3098551 -0.090730436
000050 60 87 9a be c4 a5 bc 3d 2e cc 51 3e 42 68 b1 be
       -0.30181408 0.09211305 0.20488045 -0.34649855
000060 56 d0 cd bd c6 67 5b be 04 84 6b bc a9 05 57 be
       -0.100495026 -0.21426305 -0.014374737 -0.20998253
000070 ac e3 17 be c2 f6 d5 bd 1e f0 b3 be a0 7f 91 3e
       -0.14832944 -0.10447456 -0.35144132 0.28417683

layers.1.weight f4 [32]
000000 46 04 50 3f 3f e0 70 3f 87 43 95 3f 04 e1 66 3f
       0.8125652 0.9409217 1.1661233 0.90187097
000010 a1 d0 2e 3f 6f 78 63 3f 50 f7 0f 3f 40 f0 89 3f
       0.6828709 0.8885564 0.56236744 1.0776443
000020 f2 33 8f 3f 3b 4e 70 3f 53 a6 82 3f bc a9 93 3f
       1.1187727 0.9386937 1.0207008 1.1536174
000030 4a 78 9b 3f 9f dc 64 3f 94 ff 47 3f ed a3 77 3f
       1.2146084 0.8939914 0.78124356 0.96734506
000040 e9 4e 7d 3f 63 96 88 3f c8 8f 88 3f 9e c1 85 3f
       0.9894853 1.0670894 1.0668879 1.0449712
000050 ed 2a 45 3f 38 d4 66 3f 40 98 7b 3f 68 3d 5b 3f
       0.77018625 0.9016757 0.9827919 0.85640574
000060 e2 80 32 3f 13 56 4d 3f 21 d1 64 3f 20 fd 96 3f
       0.6972791 0.80209464 0.89381605 1.1795998
000070 06 92 76 3f 20 4c 7a 3f 51 59 8c 3f c7 e4 61 3f
       0.96316564 0.9777241 1.0964757 0.8823971

layers.1.bias f4 [32]
000000 b2 76 32 bf 2f bc 78 be db 96 b2 be 00 19 ae be
       -0.69712365 -0.24290536 -0.3488072 -0.34003448
000010 df de 6a bd 0c 7e 2b bd d7 56 52 3d 39 27 24 bf
       -0.057341453 -0.041868255 0.05135235 -0.6412235
000020 36 e3 17 be d6 52 20 3d 58 bd 1a bf 30 ce c4 be
       -0.14832768 0.0391415 -0.60445166 -0.3843856
000030 8e 4b 92 be e8 d8 0a bf 40 91 56 bd 2a af 21 3d
       -0.2857327 -0.5423722 -0.052384615 0.03947369
000040 b2 8d da be a5 f8 fc be a4 ab b3 be 92 32 09 bf
       -0.4268623 -0.4940845 -0.3509189 -0.5359279
000050 d2 c4 b7 bd bb 8a e8 be 56 cb a4 be 36 a7 c1 be
       -0.08973087 -0.45418343 -0.32186383 -0.37822884
000060 55 68 23 bd 30 39 de bd f0 ed 18 bf ee 8a c1 be
       -0.03989442 -0.108507514 -0.59738064 -0.37801307
000070 71 3f 58 be 0f 61 06 bf f7 79 ea bd 6d 66 2c be
       -0.21117951 -0.5249185 -0.11449044 -0.16835947

layers.1.running_mean f4 [32]
000000 7e a0 39 3e c7 c4 66 be c7 2b 37 3e 85 46 19 3e
       0.18127629 -0.22536002 0.17887793 0.14968307
000010 79 0c 87 3e aa f2 85 be cd 85 87 3e 94 25 07 be
       0.26376703 -0.261617 0.2646927 -0.13197929
000020 cb b3 12 3e 44 5e ae 3e 02 01 73 bd 5c 7e b5 bc
       0.14326398 0.34056294 -0.059327133 -0.02215498
000030 f9 2f ae bd c7 c4 97 be ad 00 27 3e 1b 94 b7 be
       -0.08505244 -0.29642317 0.16308852 -0.35855183
000040 bf 14 66 3e 0a 66 8c 3e 5f a5 9e 3e 7b d5 b9 bd
       0.22468852 0.274216 0.30985543 -0.09073921
000050 65 87 9a be 56 a3 bc 3d f5 cb 51 3e af 68 b1 be
       -0.30181423 0.09210841 0.2048796 -0.3465018
000060 e3 cc cd bd c7 67 5b be 74 99 6b bc 6f 04 57 be
       -0.10048845 -0.21426307 -0.014379848 -0.20997785
000070 6a e3 17 be c3 f7 d5 bd 7f ef b3 be 97 7f 91 3e
       -0.14832845 -0.104476474 -0.3514366 0.28417656

layers.1.running_var f4 [32]
000000 f5 36 09 3f f5 b3 e2 3e 6c 2d 14 3f 69 8e 9f 3f
       0.5359948 0.4427792 0.5788181 1.2465335
000010 2c 50 b7 3e f7 ea 2f 3f 37 87 4a 3f 1f 02 e3 3e
       0.35803354 0.687179 0.7911257 0.44337556
000020 34 5b 23 3f e8 37 8b 3f 2f ac dd 3e e7 8c 2a 3f
       0.6381104 1.0876436 0.43295428 0.6662125
000030 ab c9 23 3f 2e e7 39 3f ce 6c 50 3f f6 1d 70 3f
       0.63979596 0.7261838 0.8141602 0.93795717
000040 cc 63 57 3f d8 aa 18 3f ee 2c ae 3e 37 7a 03 3f
       0.8413665 0.59635687 0.34018654 0.5135836
000050 60 e1 e5 3e ea aa 24 3f 41 f3 f2 3e 93 ed 81 3e
       0.4489851 0.64323294 0.47451213 0.25376567
000060 bd e1 fa 3e a9 93 74 3f 2c b5 2a 3f 5f 7a ab 3e
       0.4900035 0.9553781 0.66682696 0.334918
000070 21 49 12 3f 66 8d ef 3e 2c f9 fe 3e 69 67 83 3f
       0.57142836 0.46787566 0.49799478 1.0265933

layers.4.weight f4 [16, 32]
000000 b3 a9 81 3e 32 7d 81 3d d0 02 f3 3d 21 5d 0c be
       0.25324783 0.06322707 0.11865771 -0.13707401
000010 9d ee 99 bd 6e 08 98 bd a4 48 10 3e d1 1a 2c be
       -0.07516215 -0.07423483 0.1409021 -0.16807105
000020 d6 a7 ce 3c cb 36 9b be 35 38 4a be 1d f8 40 3e
       0.025226515 -0.3031524 -0.19748004 0.18844648
000030 36 9c 0d bf 59 24 b3 bc b9 64 0c be 70 be 93 bd
       -0.55316484 -0.021867918 -0.13710298 -0.072140574
000040 4a 31 a7 be ce 79 99 3e a3 77 8e be f3 90 d2 be
       -0.32654792 0.29975742 -0.2782565 -0.41126212
000050 ae 27 21 3e 55 1e 9b 3c 54 ed bd 3d 5e 7d 06 3e
       0.15737793 0.018935362 0.09273782 0.13133761
000060 91 1d 56 be c5 0b 0c bb 77 6c 29 3e ce 95 ad be
       -0.20909716 -0.002136932 0.16545282 -0.33903354
000070 1d ce cb 3d 9a b7 42 3e 83 d3 51 bd d3 37 44 3d
       0.09951422 0.19015351 -0.051227104 0.0479048
000080 4e 51 93 bc 96 48 27 bc dc ef 8e 3e eb b0 05 be
       -0.017983105 -0.010210177 0.27917373 -0.1305577
000090 8f bf 39 bd 7c 41 46 bd 6c ad 82 bd 14 b4 84 be
       -0.0453487 -0.048402295 -0.06380734 -0.2591864
0000a0 f2 2d 08 be 75 a8 87 be db f2 8a bc bd aa 08 3f
       -0.13298777 -0.2649571 -0.016961506 0.53385526
0000b0 80 24 ad be c9 69 6e be 04 e5 2c 3c 85 5a 30 bd
       -0.3381691 -0.23282541 0.010552648 -0.043055076
0000c0 aa f2 66 be ba 31 bb 3d 15 e2 c5 ba 2e 9c 06 bf
       -0.22553506 0.09140344 -0.0015097285 -0.5258206
0000d0 06 75 ba bd cd 12 88 bc fe 5a 2e bd 1e 94 be 3c
       -0.09104352 -0.016610527 -0.042567246 0.023263987
0000e0 e2 b4 8d bd 83 6e d2 bd 40 77 a8 3e 62 9b f4 be
       -0.06919266 -0.10274985 0.3290348 -0.47774798
0000f0 37 e6 c9 3d 59 f0 71 3e f3 b1 01 3e 80 29 12 bc
       0.09858363 0.23626842 0.12665538 -0.008921027
000100 80 9b 57 be bb 8e 20 3c e9 60 0c 3e 74 f1 69 3d
       -0.21055412 0.009799655 0.13708843 0.057115033
000110 3a df 66 bd af 33 38 3c c2 de 8b bd 7e 4f 14 3f
       -0.05636523 0.011242791 -0.06829597 0.57933795
000120 37 3d 2c 3e 7c 59 da 3b cc d2 c1 3d 08 66 0f 3c
       0.16820227 0.0066634994 0.094640344 0.0087523535
000130 70 99 a0 be cb 77 8b 3e 0f de 99 bd 9d 9f 63 bd
       -0.31367064 0.27239832 -0.075130574 -0.05557214
000140 ca 11 28 bc 72 84 ab 3d 5c c9 d4 3d 6d 00 cc bd
       -0.0102581475 0.08374871 0.10389969 -0.09961019
000150 7a 3c 74 be 32 8d 30 3e d8 f1 11 be f4 80 7b be
       -0.23851195 0.17241362 -0.14252412 -0.2456091
000160 4d 77 c0 3b 4e f8 48 3e e7 19 31 3e 1d 01 c1 3d
       0.0058735968 0.1962597 0.17295037 0.094240405
000170 76 a6 d7 3e b6 b1 61 bd ea 09 f7 3e 80 67 df 3d
       0.42119187 -0.05510112 0.4824975 0.10908413
000180 24 7e a1 3b 3c 72 0c bd 1c 79 9f 3d 5b 5e 89 be
       0.004928367 -0.03428863 0.07786772 -0.268298
000190 db a2 9c 3c f1 e5 51 bd bf 12 c4 3d 46 b9 43 be
       0.019120624 -0.05124468 0.09573888 -0.19113645
0001a0 52 4d 97 3d 49 1b a0 bd 05 4d 66 bd 37 b5 b1 3e
       0.073877946 -0.07817704 -0.056225795 0.34708568
0001b0 ec 44 16 be 58 c3 ff 3c d1 eb d0 3b d6 e2 96 bd
       -0.14674729 0.031221077 0.0063757678 -0.07367484
0001c0 6f f7 a3 be a6 55 31 3b f1 eb d1 3c f7 84 ca be
       -0.32024714 0.0027059107 0.025625201 -0.3955457
0001d0 0d d3 0d 3e 81 29 38 be 0d 49 9a be 71 db 16 bb
       0.1385004 -0.17984582 -0.30133858 -0.002301898
0001e0 60 13 05 be aa ec 70 bd df b0 2c be dd 0e 08 bf
       -0.12995672 -0.05881945 -0.16864346 -0.5314768
0001f0 55 64 05 3e 95 c7 3e 3e fc 77 cf 3d 9c f5 28 be
       0.13026555 0.18630822 0.10130307 -0.16499943
000200 d7 f4 ed bd 83 57 ea 3d cd 71 16 3e 6a dd 9a bd
       -0.11618965 0.11442473 0.14691849 -0.07561763
000210 9e 72 2a 3e 87 12 0b be 90 a7 d1 3d ed 58 21 bc
       0.16645285 -0.13581286 0.10237038 -0.009847862
000220 17 3b 24 3e ea 45 ff 3d 1f 4d 86 be 95 14 55 3e
       0.16038166 0.12464507 -0.26230714 0.20808633
000230 08 38 35 be 23 c2 e1 3d be 8f 7b bd 0a 8e 00 be
       -0.17697155 0.11023357 -0.06141638 -0.12554184
000240 7c 12 93 be 9f 03 f1 3c 45 39 04 bf ab 95 97 be
       -0.2872504 0.029420672 -0.51649886 -0.29606375
000250 0f 47 06 bc bb 41 9a bd 3a 0d 89 3d f0 95 b4 3d
       -0.008195653 -0.07532068 0.06691976 0.08817661
000260 cf cd d0 bc a4 25 85 3c d7 4b f5 3c 8e bf 4e 3d
       -0.025488762 0.0162533 0.02994339 0.05047565
000270 83 9a a9 3e 8d 04 0e bf e8 89 c9 bd 85 9c ef 3d
       0.33125696 -0.55475694 -0.09840757 0.116997756
000280 66 7e 99 3e f7 d8 26 be a8 95 0b 3d f0 39 da bd
       0.29979247 -0.16293703 0.03407827 -0.10655582
000290 21 39 ec 3d 6d e4 e7 3a da ea 3b 3d f4 0f de bc
       0.11534334 0.0017691978 0.04587827 -0.027107216
0002a0 f9 67 9a bd 90 48 4e 3d c3 d2 2c be fb 21 c8 3d
       -0.075393625 0.05036217 -0.16877274 0.09772106
0002b0 af d1 94 be 5e 88 8d bc 87 aa d3 bd b6 dc f4 be
       -0.29066226 -0.017276939 -0.1033526 -0.4782464
0002c0 84 87 70 bd 14 38 84 be 98 4f 83 bd 46 54 a0 be
       -0.058722988 -0.25824034 -0.06411666 -0.31314296
0002d0 13 eb 08 39 eb 20 75 3d 16 0c 7d 3e f3 1e 43 3e
       0.00013057543 0.059845846 0.24711642 0.19054775
0002e0 a7 52 5a 3e f5 da a2 be 06 09 0d bd 1d 52 35 3e
       0.21320592 -0.31807676 -0.034432434 0.17707105
0002f0 ff 4f 86 3e 6a f4 c4 bd 3d eb b6 bd 38 d5 63 3d
       0.26232907 -0.09616931 -0.08931587 0.055623263
000300 53 ba 0a bb ea 0a b1 be 2a 3f fd 3c 01 c8 dd 3d
       -0.0021168187 -0.3457864 0.030913908 0.10829163
000310 19 a6 4a be c0 70 a7 be 45 a0 86 3e 74 11 54 3e
       -0.19789924 -0.3270321 0.2629415 0.20709783
000320 88 17 24 3e 93 6c 61 3e 3b 5d 45 3e 0d b3 7f 3e
       0.16024601 0.22014074 0.19273846 0.24970646
000330 7b d8 37 bd d8 cd 0e 3d 92 64 ec 3d 5f d2 04 bd
       -0.044884186 0.034864277 0.1154262 -0.032427188
000340 1b f6 dc bd 98 0f 8c 3e 40 5a 78 3e 74 e6 ec 3d
       -0.107891284 0.27355647 0.24253178 0.11567393
000350 3a d2 38 be 69 df 09 3c 29 be 34 3e b0 8d 80 3d
       -0.18048945 0.008415082 0.17650665 0.06277025
000360 7a 9f bd bc cb 40 d2 3d 08 bc 4e 3e d9 f5 65 bd
       -0.023147333 0.102662645 0.20188916 -0.05614266
000370 ee 9e c4 3c 8a 57 94 be af 0b 3d 3e 1b 12 fb 3d
       0.024001565 -0.28973037 0.18461488 0.12259313
000380 b6 da 02 be 51 cc 92 be b3 83 80 be b3 f5 bd bb
       -0.12778744 -0.28671506 -0.2510048 -0.005797112
000390 7a 4f 92 3e c5 28 93 be 1a ed 19 3e 1b 94 d0 bd
       0.2857626 -0.28742042 0.15031853 -0.10184499
0003a0 e9 9c 49 be 26 6a 18 bd 1d a7 a7 3d 41 24 29 3e
       -0.19688763 -0.037210606 0.08186171 0.16517736
0003b0 75 a6 8a 3e c1 9e b4 3c ca 1a 11 3e 2c 11 6d 3b
       0.27080122 0.022048356 0.14170375 0.0036173565
0003c0 1d 41 0d 3d f0 d8 a4 3d a6 b7 56 3d 89 a6 0d be
       0.034485925 0.0804919 0.052421235 -0.1383306
0003d0 21 ae 98 be 34 db ca 3e 64 d6 ab bc ce 19 d6 bd
       -0.2982035 0.39620364 -0.020976253 -0.104541406
0003e0 a3 72 8b bd 44 21 66 3d c5 d6 bd 3e 1d 4f 94 3d
       -0.068089746 0.05618407 0.3707792 0.07241652
0003f0 3a ea bb be 0c 97 0c bb 41 29 23 3d 7a 80 3a 3e
       -0.36702138 -0.0021452336 0.039834265 0.18213072

layers.4.bias f4 [16]
000000 f8 01 41 bd 4e 59 83 3d b9 a8 14 be 41 8d b2 3d
       -0.04712102 0.06413518 -0.14517488 0.08718348
000010 bc c9 86 bd 55 32 28 be 3b 74 34 3a 80 60 9f 3d
       -0.065814465 -0.1642545 0.0006883775 0.07782078
000020 e6 0f 24 3e 89 86 b7 bd 62 21 a8 bd 85 6f 22 3d
       0.1602169 -0.089612074 -0.08209492 0.039657135
000030 aa f2 73 3d 7a 57 85 3d 46 27 dc 3d 55 da 3b bd
       0.059557594 0.065108255 0.10749678 -0.045862515

layers.5.weight f4 [16]
000000 20 19 c9 3f e1 44 d4 3f cf d6 07 40 22 7f ab 3f
       1.5710793 1.658352 2.1224859 1.3398173
000010 70 00 99 3f 13 ef a6 3f 58 a9 e9 3f cb 31 d8 3f
       1.1953259 1.304171 1.8254805 1.6890196
000020 0e 5d f1 3f c6 05 08 40 1c 8f ba 3f c1 27 cd 3f
       1.8856523 2.1253524 1.4574924 1.6027757
000030 6c 3d cc 3f 04 f3 fc 3f 0e 7d b5 3f 4b 78 07 40
       1.5956244 1.9761662 1.4178789 2.116717

layers.5.bias f4 [16]
000000 77 23 91 be a4 19 b3 bd 12 6d 22 3e 90 0f 60 3e
       -0.2834737 -0.08745125 0.1586192 0.21880937
000010 a8 9c 51 bd 80 ac b1 bc 6f bf 27 3d 06 66 99 3e
       -0.05117479 -0.0216887 0.04095405 0.2996065
000020 9c 44 d2 bc 17 60 e4 bd c6 5e 6d 3e c2 09 99 3e
       -0.025667481 -0.1115114 0.23180684 0.29890257
000030 d7 a3 ae 3d 9e 35 e4 3d 9b d0 da bc d0 8a 73 3e
       0.08527344 0.11143039 -0.026710799 0.23783422

layers.5.running_mean f4 [16]
000000 26 e4 fa be be 7a 98 be 0e 1e 7e 3e 34 32 8b be
       -0.49002188 -0.29781145 0.24816152 -0.2718674
000010 87 30 49 be 5c c4 e0 be 34 d4 ac 3e f1 29 3d bc
       -0.19647418 -0.4389981 0.33755648 -0.011545644
000020 1c 51 b4 3e 3c 9c f0 be a1 85 2b be 67 19 1a bd
       0.35218132 -0.46994197 -0.16750194 -0.03762188
000030 08 da e9 3e e0 5c d2 3e 02 a6 a4 3e d1 fe 03 bf
       0.45674157 0.41086483 0.32157904 -0.51560694

layers.5.running_var f4 [16]
000000 b7 8b de 3e ec d6 e3 3e 85 c1 f4 3e 38 5a c4 3e
       0.4346597 0.4449991 0.47803894 0.3835008
000010 13 36 ab 3e 9d 70 04 3f 1e 1a 68 3f 03 b6 0a 3f
       0.33439693 0.51734334 0.9066485 0.5418398
000020 57 8a eb 3e c0 c0 dd 3e d7 22 ba 3e 06 7a fe 3e
       0.46003982 0.4331112 0.36354706 0.49702471
000030 53 76 af 3e 0f ed 0f 3f d3 a0 7c 3e dc 2b cb 3e
       0.34269962 0.562211 0.24670725 0.396819

layers.7.weight f4 [1, 16]
000000 23 af 16 3f 63 fe 2c 3f 8a fd 4d bf d3 a8 e8 3e
       0.5886099 0.67575663 -0.80464995 0.45441303
000010 08 f5 8a 3e 85 db f5 3e 61 30 32 bf fa 3d 1b bf
       0.2714007 0.48019043 -0.6960507 -0.60641444
000020 78 e8 14 bf 60 df 51 3f e5 fe 00 3f ce 8e 11 bf
       -0.5816722 0.8198147 0.5038894 -0.5685853
000030 7e b5 0d 3f fd 5a 32 bf b3 09 ea 3e cd d0 19 bf
       0.5535506 -0.6967009 0.45710525 -0.6008423
