models/mlp_model.pth (torch, 10015 bytes, 13 tensors)

layers.0.weight f4 [32, 8]
-0.15846728 -0.034030773 0.22545496 0.25861374 -0.02986521 -0.09415542 -0.5320837 0.29475373
-0.1456628 0.5144323 0.34170923 0.19595866 -0.113705434 -0.43325737 -0.004756105 -0.2721191
-0.020336984 -0.29086566 -0.05930833 0.032033276 -0.6030303 0.03126832 -0.4021594 0.23232031
0.02126539 -0.16922817 0.3323884 -0.17412727 0.06845809 0.14169376 -0.13537435 -0.7077617
-0.4829654 -0.3909112 0.034584753 0.11950049 0.3970551 -0.28618896 -0.15701732 0.2192136
-0.06140651 0.4172297 -0.12054734 0.036268383 0.029059118 0.28837195 -0.31856334 0.23377885
-0.1250472 0.032879718 0.10624805 -0.0059628286 0.22745582 0.3913057 0.4216991 0.13977376
0.039198898 -0.067215025 -0.030641932 0.065091446 -0.5800738 0.043576807 -0.5211774 -0.08560267
-0.39057815 -0.34229013 -0.55292416 0.022723997 0.22342823 0.18925183 -0.21736634 0.13757294
-0.046680685 -0.5577736 -0.1835036 0.12905514 -0.03817976 -0.39139813 -0.1461899 -0.0073070605
-0.05619596 -0.19239795 0.14475924 0.16753376 -0.6608739 -0.00900201 -0.0006209554 0.32606357
0.2508709 -0.33397305 -0.14863138 0.28549692 -0.29398373 0.25199628 -0.038440328 0.3052346
0.4262775 0.33606568 0.16085789 -0.1668427 -0.34917998 -0.07376432 0.35973743 -0.2079345
-0.5912091 0.25729656 0.10510963 -0.1102317 0.22088271 0.055882864 -0.07956987 0.45795152
-0.22812103 0.09270898 0.46468356 0.6021898 -0.07857036 -0.3353675 0.24647993 0.3668458
-0.30769256 0.42103595 -0.06741031 -0.035228893 0.09139574 0.31461513 -0.29065287 0.20614018
0.53386813 0.27444765 -0.17773433 0.29963544 0.20976606 -0.08830146 0.1529356 -0.17550147
0.06155249 0.018994179 -0.317874 -0.10953045 -0.8269723 -0.12529992 0.029782798 0.3859312
0.4845042 0.2124831 0.1827354 -0.19964375 -0.16927585 0.11236483 0.29489058 -0.2529278
-0.45353502 -0.19368635 -0.107282564 0.36102158 0.06501451 -0.22361568 0.16730012 -0.38400555
-0.04602399 -0.27282208 0.27427357 -0.24696672 0.20177132 -0.005061825 -0.25111753 -0.5505348
0.19635023 -0.441485 0.27682167 -0.039987568 -0.5342017 0.3392302 -0.15082824 -0.010308467
0.090806395 -0.14245638 0.15585141 0.5684124 -0.31175545 0.23972873 -0.26809633 0.32467824
-0.016353514 -0.47295627 -0.24943341 -0.21256688 0.20145325 0.045191746 -0.11594358 -0.20948759
-0.09937173 -0.17016938 0.47012818 -0.4799263 0.23121193 -0.045080665 0.3499159 -0.0746861
0.19475576 0.103986405 -0.030550694 0.48857823 0.14468767 0.1737545 0.053633604 -0.46346623
-0.18050906 0.27281308 0.34698117 -0.73882204 0.19237657 -0.20406714 -0.09279258 -0.07430414
-0.08341367 -0.16389368 0.41483536 0.059052207 0.06939618 -0.798913 0.010289105 -0.26715708
0.46449217 0.22952773 -0.047036625 0.15341415 0.104967855 0.26773134 0.020114886 -0.003621769
0.044799626 0.121801965 -0.46979448 -0.31168583 0.1123105 -0.35375077 0.3752142 -0.00071248505
0.16470325 -0.27905217 -0.27691114 0.097110495 0.050543234 -0.5088105 0.09230306 -0.05826121
0.3565921 -0.28173733 0.24074301 0.10668712 0.15458663 -0.1509955 -0.5538758 -0.48907146
00000000: 3f45 22be da63 0bbd aadd 663e 0569 843e
00000010: e3a7 f4bc 8fd4 c0bd a336 08bf f6e9 963e
00000020: a128 15be d6b1 033f 83f4 ae3e 63a9 483e
00000030: 65de e8bd e9d3 ddbe 1ad9 9bbb 3253 8bbe
00000040: bf99 a6bc 58ec 94be 4bed 72bd 5335 033d
00000050: 3260 1abf 3613 003d d6e7 cdbe 60e5 6d3e
00000060: c134 ae3c 264a 2dbe d02e aa3e 6b4e 32be
00000070: c133 8c3d 2b18 113e 939f 0abe df2f 35bf
00000080: 3e47 f7be 8325 c8be bea8 0d3d acbc f43d
00000090: ce4a cb3e 5c87 92be 26c9 20be 8879 603e
000000a0: 6585 7bbd 229f d53e 86e1 f6bd 288e 143d
000000b0: 630d ee3c 7da5 933e bc1a a3be b963 6f3e
000000c0: 600c 00be e2ac 063d 9498 d93d d563 c3bb
000000d0: 2eea 683e 3959 c83e f2e8 d73e da20 0f3e
000000e0: 068f 203d 08a8 89bd ca04 fbbc aa4e 853d
000000f0: b77f 14bf 987d 323d e26b 05bf 7450 afbd
00000100: dcf9 c7be a740 afbe 708c 0dbf ad27 ba3c
00000110: 5fca 643e 3bcb 413e 4895 5ebe ecdf 0c3e
00000120: 3f34 3fbd 40ca 0ebf 5ee8 3bbe 0827 043e
00000130: 6162 1cbd 5665 c8be ceb2 15be 1170 efbb
00000140: bc2d 66bd f803 45be c43b 143e f88d 2b3e
00000150: 082f 29bf 2b7d 13bc 9dc7 22ba cef1 a63e
00000160: 2772 803e 84fe aabe d332 18be a72c 923e
00000170: 0985 96be a805 813e 9b73 1dbd b647 9c3e
00000180: 0b41 da3e cd10 ac3e eeb7 243e d0d8 2abe
00000190: b8c7 b2be bf11 97bd 812f b83e c8ec 54be
000001a0: 7b59 17bf 60bc 833e b843 d73d 28c1 e1bd
000001b0: 142f 623e 6ee5 643d 87f5 a2bd 9f78 ea3e
000001c0: 8f98 69be 35de bd3d 01eb ed3e 1c29 1a3f
000001d0: 7fe9 a0bd 4ab5 abbe 3c65 7c3e 36d3 bb3e
000001e0: e189 9dbe 0692 d73e 6b0e 8abd 2c4c 10bd
000001f0: b12d bb3d 3c15 a13e 74d0 94be 6916 533e
00000200: 95ab 083f 6784 8c3e fdff 35be d169 993e
00000210: eacc 563e 65d7 b4bd 269b 1c3e a8b6 33be
00000220: 771e 7c3d ae99 9b3c 62c0 a2be 8051 e0bd
00000230: 75b4 53bf 9f4e 00be 0efb f33c c698 c53e
00000240: ef10 f83e 2b95 593e fd1e 3b3e 696f 4cbe
00000250: a656 2dbe 881f e63d e6fb 963e c17f 81be
00000260: be35 e8be b755 46be f6b6 dbbd d2d7 b83e
00000270: 5426 853d 82fb 64be b950 2b3e 609c c4be
00000280: a783 3cbd 56af 8bbe 966d 8c3e d8e4 7cbe
00000290: 249d 4e3e aadd a5bb 7a92 80be d9ef 0cbf
000002a0: 0910 493e 520a e2be 92bb 8d3e 01ca 23bd
000002b0: 71c1 08bf 95af ad3e b872 1abe d8e4 28bc
000002c0: b4f8 b93d 16e0 11be 8397 1f3e 7a83 113f
000002d0: 699e 9fbe 737b 753e ec43 89be 3a3c a63e
000002e0: cef7 85bc 5327 f2be 796b 7fbe 22ab 59be
000002f0: c349 4e3e fb1a 393d d473 edbd ea83 56be
00000300: 6883 cbbd e240 2ebe a4b4 f03e e6b8 f5be
00000310: d2c2 6c3e 81a6 38bd 2d28 b33e 07f5 98bd
00000320: 0e6e 473e d3f6 d43d 7345 fabc ed26 fa3e
00000330: 0129 143e b3ec 313e e9ae 5b3d 724b edbe
00000340: 5ed7 38be 28ae 8b3e 84a7 b13e 7123 3dbf
00000350: 5dfe 443e faf6 50be 090a bebd c52c 98bd
00000360: c9d4 aabd bfd3 27be 4d65 d43e bae0 713d
00000370: 961f 8e3d 9085 4cbf a293 283c d0c8 88be
00000380: ebd1 ed3e 5109 6b3e 7aa9 40bd 9918 1d3e
00000390: 63f9 d63d 1514 893e f9c7 a43c 335b 6dbb
000003a0: d07f 373d 4f73 f93d e788 f0be 4995 9fbe
000003b0: 0c03 e63d d21e b5be 131c c03e 10c6 3aba
000003c0: f8a7 283e eddf 8ebe 4cc7 8dbe dee1 c63d
000003d0: 6c06 4f3d 6841 02bf 6309 bd3d 4ea3 6ebd
000003e0: 3d93 b63e e03f 90be 5685 763e c77e da3d
000003f0: f54b 1e3e 909e 1abe ceca 0dbf 9367 fabe

layers.0.bias f4 [32]
-0.06312276 0.34011936 0.030371627 -0.34366775 -0.10585153 -0.09423011 -0.17196226 0.2407148
0.22172917 -0.22794892 0.3167048 0.13388409 -0.31069994 0.09510374 -0.260577 0.12409409
0.31025815 -0.26675132 0.20576225 0.2532777 -0.010311632 -0.25267455 0.17416678 0.113146126
0.27987307 0.26742887 0.3052299 -0.056118596 -0.3460759 0.022309868 0.14425679 0.16726884
00000000: 8146 81bd 2024 ae3e ebcd f83c 38f5 afbe
00000010: b0c8 d8bd b7fb c0bd e016 30be f17d 763e
00000020: f90c 633e 716b 69be 2227 a23e e918 093e
00000030: 1014 9fbe c0c5 c23d 596a 85be 0b25 fe3d
00000040: 28da 9e3e a193 88be 57b3 523e 9dad 813e
00000050: 1ff2 28bc 8f5e 81be c758 323e 28b9 e73d
00000060: 864b 8f3e 70ec 883e 1847 9c3e 9ddc 65bd
00000070: dc30 b1be 2fc3 b63c 0db8 133e 8648 2b3e

layers.1.weight f4 [32]
1.1293906 1.1854535 1.1626916 1.1672053 0.9199284 0.8700727 0.72449285 1.0461258
1.1017455 1.0166557 0.87635547 1.1232153 1.0178858 0.88532656 0.82269025 0.8682418
1.084917 0.8551628 1.0212383 0.97541744 1.0501921 0.9021638 1.138429 0.9526096
0.7974714 1.0144587 0.889006 1.0048375 0.86615247 0.95966554 1.1051457 1.1196795
00000000: df8f 903f f1bc 973f 14d3 943f fc66 953f
00000010: 6d80 6b3f 16bd 5e3f 5d78 393f 73e7 853f
00000020: ff05 8d3f c621 823f d558 603f 85c5 8f3f
00000030: 154a 823f c3a4 623f d49b 523f 1845 5e3f
00000040: 8fde 8a3f f3eb 5a3f f0b7 823f f5b4 793f
00000050: b26c 863f 35f4 663f 0bb8 913f 39de 733f
00000060: 1627 4c3f c8d9 813f e695 633f 849e 803f
00000070: 2bbc 5d3f a4ac 753f 6a75 8d3f a851 8f3f

layers.1.bias f4 [32]
-0.20759597 -0.18036628 -0.33319476 -0.3408455 0.15839005 -0.37425712 -0.08305886 -0.38360056
-0.2793334 -0.29600027 -0.17366262 -0.5506124 -0.13673414 -0.29766592 0.0002453398 -0.4616102
-0.3245713 -0.52547044 -0.10393285 -0.37126306 -0.35366157 -0.2783771 -0.6668987 -0.2912916
-0.6843036 -0.13687304 -0.093557075 -0.72336024 -0.31118894 -0.032516133 -0.2723442 -0.0043100277
00000000: 0a94 54be f0b1 38be 8198 aabe 4d83 aebe
00000010: 0031 223e a19e bfbe c31a aabd 4b67 c4be
00000020: ca04 8fbe 598d 97be 9dd4 31be eff4 0cbf
00000030: 0904 0cbe ab67 98be f3a0 8039 2c58 ecbe
00000040: 362e a6be 3b85 06bf bfda d4bd 3116 bebe
00000050: 2113 b5be 7187 8ebe e0b9 2abf 2c24 95be
00000060: 852e 2fbf 7228 0cbe da9a bfbd 232e 39bf
00000070: 2854 9fbe a32f 05bd b370 8bbe 223b 8dbb

layers.1.running_mean f4 [32]
-0.06312681 0.34011835 0.03037315 -0.34367073 -0.10585141 -0.09423193 -0.17196263 0.24071562
0.22172794 -0.22794984 0.31670448 0.1338823 -0.31070063 0.09510459 -0.26057678 0.12409297
0.31025773 -0.26675135 0.20575988 0.25327858 -0.010308321 -0.2526768 0.17416514 0.11314919
0.27987325 0.26742926 0.3052296 -0.05611808 -0.34607747 0.022310717 0.14425683 0.16726664
00000000: a148 81bd fe23 ae3e 1dd1 f83c 9cf5 afbe
00000010: a0c8 d8bd acfc c0bd f916 30be 287e 763e
00000020: a60c 633e af6b 69be 1727 a23e 7118 093e
00000030: 2714 9fbe 32c6 c23d 526a 85be 7424 fe3d
00000040: 1ada 9e3e a293 88be b8b2 523e bbad 813e
00000050: 3be4 28bc db5e 81be 5958 323e c3ba e73d
00000060: 8c4b 8f3e 7dec 883e 0e47 9c3e 12dc 65bd
00000070: 1131 b1be f7c4 b63c 10b8 133e f247 2b3e

layers.1.running_var f4 [32]
0.46524465 0.40249857 0.84922945 0.5922433 0.40949535 0.42545578 0.5995309 0.76286596
0.61517197 0.7044514 0.6042879 0.5041324 0.4047977 0.4838418 0.78974634 0.43876332
0.55147254 0.9595237 0.34455264 0.7497407 0.5800217 0.80012316 0.8301065 0.5221524
0.50231373 0.56247264 0.7897778 0.67289734 0.53497255 0.7363758 0.4994856 0.6527243
00000000: 8c34 ee3e 4b14 ce3e 1a67 593f 429d 173f
00000010: 60a9 d13e 57d5 d93e db7a 193f 2f4b 433f
00000020: e97b 1d3f ed56 343f 9db2 1a3f d20e 013f
00000030: a541 cf3e 1dba f73e d12c 4a3f 96a5 e03e
00000040: 4e2d 0d3f 58a3 753f 3469 b03e 02ef 3f3f
00000050: 4d7c 143f dfd4 4c3f dc81 543f c8ab 053f
00000060: a297 003f 35fe 0f3f e12e 4a3f 0043 2c3f
00000070: f6f3 083f 2083 3c3f 94bc ff3e f118 273f

layers.4.weight f4 [16, 32]
0.18156987 0.01263213 0.060802333 -0.19999458 0.36253008 0.14911649 -0.21418719 -0.33037037
0.16238932 -0.20769611 0.12814982 -0.24201612 0.16326453 0.33811092 -0.20249063 0.0856773
0.10762537 -0.103072956 -0.042288095 0.0866582 -0.23454972 -0.018045988 -0.01659037 -0.1320289
-0.18044592 -0.06520409 0.13579716 -0.0145752 -0.103070155 -0.03027584 -0.22247122 -0.28995895
0.046482794 0.2655818 -0.39891115 0.12755987 -0.53026754 0.31030357 0.0026756765 -0.15092953
0.0714965 0.082642645 -0.002134731 0.3661016 0.06325404 -0.02748476 -0.11068763 0.016682463
0.05714685 -0.08832893 0.009945889 -0.116727546 -0.16935304 0.21798219 0.3394363 -0.1113648
-0.4787773 0.051794108 -0.01650326 -0.20385928 0.095126845 -0.009624642 0.084587686 0.17375308
-0.0666533 0.16970697 -0.20972891 -0.006701627 -0.09219678 -0.058165535 0.04727855 -0.053012557
0.03916786 0.15886448 -0.09620324 -0.03719238 -0.40066302 -0.24780259 0.15838723 -0.07902543
-0.298952 -0.10381018 -0.36999726 0.17674026 0.18280062 -0.05800878 0.3033937 0.3711145
0.0011609828 0.0075240685 0.057383347 0.16972122 -0.29021743 -0.023971062 0.09400935 0.043467104
-0.43931422 -0.28088823 -0.36101556 0.20271163 0.059510235 0.05817512 -0.18950143 -0.20557962
0.19155562 0.13263795 -0.075867034 0.046893165 -0.1089717 -0.22406743 0.24252664 -0.009483911
-0.04178282 0.093958 -0.12495948 -0.076234385 -0.041459955 0.1732822 -0.2476397 0.14376754
-0.189081 -0.4196108 0.23376326 0.19112992 -0.10986496 0.13204174 0.16072325 0.13054606
0.17967243 0.07630426 -0.07456168 -0.15034145 0.024275044 0.04474529 -0.15226418 0.052451637
0.24967116 0.20234668 0.29957822 0.33898497 -0.09759489 -0.07666738 0.0662208 -0.16438797
-0.22270803 0.2362615 -0.1078855 0.11880296 -0.20537584 0.21572588 0.35229203 0.18719216
-0.14996801 -0.10707163 -0.36434373 0.1921984 -0.20408113 0.48612273 -0.03357357 0.11658571
-0.17402564 0.3853539 -0.18401907 0.09462137 -0.005064648 -0.039831575 -0.14113808 0.15245573
0.15632755 0.22365446 -0.063132554 -0.100053184 -0.16648859 -0.26465622 0.05359642 -0.18401754
-0.30945522 -0.16870809 -0.17284271 0.028997475 -0.017247103 -0.06919846 0.44063804 0.28826788
0.20516098 0.03941572 0.19706604 0.12033023 -0.22339515 -0.1461416 -0.034445863 -0.047231093
0.024699472 0.31562606 -0.5701686 0.32242316 -0.06458387 0.08478382 0.045106743 -0.2674553
0.24065569 -0.07243692 -0.0016832149 -0.012449494 0.025959471 0.023892086 0.07745196 0.25935742
0.061455194 0.02192096 0.056969002 0.12817086 -0.18649185 0.20483644 0.43121648 -0.01059237
-0.50470096 0.07434381 0.03742957 -0.104341075 0.052698933 0.17178272 -0.06982395 0.09426246
-0.010898779 0.16489732 -0.05084405 -0.32815292 0.12787569 0.07544397 0.036407303 -0.36036384
0.1506506 -0.26399225 0.168545 0.15579826 -0.12715384 -0.17867127 0.023291767 -0.05911946
-0.08737039 -0.3259424 -0.022115113 0.21960169 -0.5548816 -0.43990737 -0.020411236 0.03479368
0.04348127 -0.024516642 0.10122232 -0.28155133 0.08088639 0.022632437 -0.3248294 -0.59107596
00000000: 74ed 393e fef6 4e3c de0b 793d 61cb 4cbe
00000010: 8b9d b93e feb1 183e e353 5bbe 4e26 a9be
00000020: 6349 263e 4aae 54be b539 033e 13d3 77be
00000030: d12e 273e e01c ad3e b459 4fbe 9577 af3d
00000040: b16a dc3d ea17 d3bd 4836 2dbd db79 b13d
00000050: cd2d 70be 2ed5 93bc 87e8 87bc 9532 07be
00000060: d1c6 38be b989 85bd 690e 0b3e d2cc 6ebc
00000070: 7216 d3bd 0a05 f8bc 7fcf 63be 8075 94be
00000080: be64 3e3d 56fa 873e 153e ccbe 0e9f 023e
00000090: 9dbf 07bf 1ce0 9e3e 675a 2f3b 458d 1abe
000000a0: c26c 923d 8c40 a93d d8e6 0bbb ab71 bb3e
000000b0: 568b 813d b827 e1bc 32b0 e2bd a9a9 883c
000000c0: d112 6a3d cce5 b4bd 15f4 223c da0e efbd
000000d0: e26a 2dbe b936 5f3e 98ca ad3e 3a13 e4bd
000000e0: 4c22 f5be 0f26 543d d831 87bc 7dc0 50be
000000f0: ddd1 c23d adb0 1dbc 4f3c ad3d 54ec 313e
00000100: 8681 88bd aac7 2d3e 2dc3 56be 5299 dbbb
00000110: aad1 bcbd fc3e 6ebd 27a7 413d b223 59bd
00000120: 7a6e 203d 5fad 223e 3406 c5bd 0957 18bd
00000130: b423 cdbe f6bf 7dbe 4330 223e 16d8 a1bd
00000140: 3d10 99be 6f9a d4bd 4870 bdbe 66fb 343e
00000150: 1630 3b3e 9d9a 6dbd 6b56 9b3e b802 be3e
00000160: 1e2c 983a 768c f63b cd0a 6b3d 66cb 2d3e
00000170: 6197 94be f65e c4bc f987 c03d 900a 323d
00000180: cbed e0be 95d0 8fbe 08d7 b8be a393 4f3e
00000190: 01c1 733d 0949 6e3d aa0c 42be 7783 52be
000001a0: 2827 443e 3ed2 073e 2d60 9bbd 0c13 403d
000001b0: 8e2c dfbd ef71 65be e758 783e 6862 1bbc
000001c0: 7624 2bbd 0d6d c03d c1ea ffbd c620 9cbd
000001d0: ead1 29bd e470 313e 4395 7dbe cc37 133e
000001e0: 739e 41be 3ad7 d6be a35f 6f3e 90b7 433e
000001f0: e100 e1bd f335 073e a394 243e dead 053e
00000200: 0dfc 373e 6845 9c3d cbb3 98bd 1cf3 19be
00000210: 75dc c63c d646 373d 24eb 1bbe 87d7 563d
00000220: cca9 7f3e f833 4f3e 5162 993e 708f ad3e
00000230: d4df c7bd ca03 9dbd c59e 873d 5255 28be
00000240: 930d 64be 89ee 713e 13f3 dcbd f74e f33d
00000250: 0b4e 52be 3fe7 5c3e 9f5f b43e 4daf 3f3e
00000260: 3791 19be 5f48 dbbd 438b babe a8cf 443e
00000270: a5fa 50be 14e5 f83e 7184 09bd 7dc4 ee3d
00000280: c733 32be 1b4d c53e 7f6f 3cbe d9c8 c13d
00000290: 59f5 a5bb 6f26 23bd 8086 10be 5b1d 1c3e
000002a0: 5414 203e ad05 653e a44b 81bd afe8 ccbd
000002b0: fc7b 2abe 0581 87be eb87 5b3d 186f 3cbe
000002c0: ea70 9ebe d0c1 2cbe aefd 30be 1d8c ed3c
000002d0: cc49 8dbc ecb7 8dbd 4f9b e13e d997 933e
000002e0: b815 523e 6172 213d aecb 493e b26f f63d
000002f0: b3c1 64be 25a6 15be 1b17 0dbd 6475 41bd
00000300: 8c56 ca3c bd99 a13e 92f6 11bf a614 a53e
00000310: 8c44 84bd 24a3 ad3d d9c1 383d e7ef 88be
00000320: 726e 763e cf59 94bd 529f dcba f6f8 4bbc
00000330: f5a8 d43c 56b9 c33c 229f 9e3d 7fca 843e
00000340: 71b8 7b3d 9693 b33c 5458 693d 393f 033e
00000350: b8f7 3ebe a5c0 513e 68c8 dc3e 9f8b 2dbc
00000360: 1534 01bf 9141 983d c04f 193d c6b0 d5bd
00000370: d6da 573d cfe7 2f3e dcff 8ebd ad0c c13d
00000380: cb90 32bc d8da 283e da41 50bd a903 a8be
00000390: d8f1 023e 5e82 9a3d d31f 153d 9c81 b8be
000003a0: 2744 1a3e fe29 87be 0f97 2c3e 9489 1f3e
000003b0: 9e34 02be 9af5 36be 60ce be3c 3f27 72bd
000003c0: 3fef b2bd ece1 a6be c12a b5bc 44df 603e
000003d0: b80c 0ebf 8a3b e1be 7735 a7bc d183 0e3d
000003e0: 6b19 323d 20d7 c8bc a64d cf3d 7f27 90be
000003f0: c3a7 a53d a967 b93c 0a50 a6be c150 17bf

layers.4.bias f4 [16]
0.024856107 -0.032529537 0.018419301 0.008651454 -0.14628957 -0.15822688 -0.1019835 -0.13055483
0.16644976 -0.11664472 0.10762316 -0.15825832 0.04045917 0.1342996 0.016813543 -0.10878088
00000000: 099f cb3c b13d 05bd 13e4 963c d4be 0d3c
00000010: efcc 15be 3a06 22be badc d0bd 2ab0 05be
00000020: ce71 2a3e 6de3 eebd 8869 dc3d 780e 22be
00000030: 84b8 253d d685 093e 8ebc 893c 83c8 debd

layers.5.weight f4 [16]
1.0878323 1.3491381 1.4462968 1.6589645 1.8251454 1.6014948 1.4310888 1.7866253
0.914694 1.6647619 1.7486174 1.7615414 1.8554918 1.769043 1.5757034 0.9037032
00000000: 173e 8b3f 8fb0 ac3f 4120 b93f f358 d43f
00000010: 5d9e e93f c8fd cc3f eb2d b73f 23b0 e43f
00000020: 6329 6a3f eb16 d53f b2d2 df3f 307a e13f
00000030: c180 ed3f 0070 e23f a6b0 c93f 1859 673f

layers.5.bias f4 [16]
-0.13222706 -0.03470041 0.2717442 0.17002052 0.20529544 0.29612604 -0.06618889 0.33812633
-0.12807214 0.30961534 0.07840517 0.41230324 0.23629649 0.15833193 -0.07498639 -0.12048586
00000000: 8866 07be 0422 0ebd 0e22 8b3e dc19 2e3e
00000010: f838 523e d59d 973e 0a8e 87bd e51e ad3e
00000020: 5825 03be e785 9e3e e492 a03d 6919 d33e
00000030: b5f7 713e c421 223e 7792 99bd 4ac1 f6bd

layers.5.running_mean f4 [16]
-0.109303966 0.018752709 -0.16010973 -0.21696705 0.15317392 -0.22211094 0.2790404 -0.7574072
0.366941 -0.5019158 0.263847 -0.38183135 -0.55761623 0.38642156 0.4509658 -0.66335267
00000000: c2da dfbd 489f 993c cef3 23be 9c2c 5ebe
00000010: a0d9 1c3e 0d71 63be 62de 8e3e 70e5 41bf
00000020: b1df bb3e 8e7d 00bf f416 873e 667f c3be
00000030: f0bf 0ebf 0cd9 c53e fde4 e63e 7bd1 29bf

layers.5.running_var f4 [16]
0.40371433 0.5203336 0.70907 0.62391317 0.606088 0.5134219 0.38781583 0.72704464
0.42284688 0.6894039 0.38836923 0.45098957 0.8541462 0.35516217 0.4649045 0.29022375
00000000: a5b3 ce3e 9534 053f 9d85 353f c6b8 1f3f
00000010: 9528 1b3f 9e6f 033f cc8f c63e 991f 3a3f
00000020: 637f d83e c67c 303f 55d8 c63e 1be8 e63e
00000030: 53a9 5a3f d1d7 b53e f607 ee3e 3598 943e

layers.7.weight f4 [1, 16]
0.27342817 0.38809225 -0.57910925 -0.6020231 -0.67353624 -0.6545722 0.48072237 0.5757283
0.16698664 -0.5272672 0.7215736 -0.43973923 0.64080507 -0.6254489 -0.40990546 0.08231152
00000000: c7fe 8b3e 07b4 c63e 8140 14bf 301e 1abf
00000010: df6c 2cbf 0b92 27bf 3e21 f63e ee62 133f
00000020: 8cfe 2a3e fcfa 06bf 0cb9 383f 8025 e1be
00000030: cd0b 243f 6b1d 20bf 21df d1be f192 a83d
