models/mlp_model.pth (torch, 9951 bytes, 13 tensors)

layers.0.weight f4 [32, 8]
000000 5a 17 23 3e b1 16 d7 3e 0d bc d0 bd 64 2c 43 3e
       0.15926877 0.420095 -0.10192118 0.19059902
000010 45 9a 9b 3b 56 e5 54 3e 28 0a 7e bd 19 3b 95 3d
       0.004748615 0.2079061 -0.062021405 0.072866626
000020 44 26 d9 3e a1 a4 1a be 07 4d 57 3e 18 70 37 3c
       0.42412007 -0.15101863 0.21025477 0.011196159
000030 95 db 96 3e 03 14 29 3e 38 15 95 3e 45 1f ec bd
       0.29464403 0.1651154 0.2911775 -0.11529402
000040 11 22 99 3e 87 07 82 3d d4 9b a3 bd 6c 9a 6e 3d
       0.29908803 0.06349092 -0.07988706 0.058252737
000050 03 cb 16 be 1d 20 d2 ba d5 aa 64 be 40 09 84 3e
       -0.1472588 -0.0016031299 -0.22330792 0.25788307
000060 ec bc 74 be ef 8d 97 be c0 3f 41 be f0 3b 23 be
       -0.23900193 -0.29600474 -0.18871975 -0.15940833
000070 75 95 14 3e 9e e4 eb be 60 65 64 3e c5 2d 85 be
       0.14510138 -0.4607286 0.22304296 -0.26011482
000080 dd 2a cd 3e 01 24 81 3b 30 14 3a be 27 40 30 3e
       0.40071765 0.0039410596 -0.18171763 0.17211972
000090 18 cc 3e bc c3 f1 4d 3e be 66 f3 3d 4c 39 09 be
       -0.011645339 0.20111756 0.11884831 -0.13400763
0000a0 99 c5 5a 3e 8d b6 c8 3c 0b b4 e2 3d af 17 6a 3e
       0.2136444 0.02450111 0.11069497 0.22860597
0000b0 41 b9 80 3e 44 64 98 bc 03 f0 ab 3e d6 41 80 bd
       0.25141338 -0.018602498 0.33581552 -0.06262557
0000c0 99 c5 95 3d 93 cf aa be 63 d6 d5 be 51 56 25 be
       0.073130794 -0.33361492 -0.41765127 -0.16146208
0000d0 42 92 c9 be 31 30 31 3e 5a 32 df bc 66 3b c7 3d
       -0.39369398 0.1730354 -0.02724569 0.09728126
0000e0 4a b6 9c bc ea fb 0a be 03 f6 8a 3e 55 3a 3d be
       -0.019129891 -0.1357266 0.27140817 -0.18479283
0000f0 08 45 60 bc 7f c3 23 be 8a d2 c8 bc ed 9b 83 be
       -0.013688333 -0.15992545 -0.024514455 -0.257049
000100 55 a3 ac 3d a9 39 40 be b4 d7 58 3e cf b2 59 be
       0.084295906 -0.18771996 0.21176034 -0.21259616
000110 dd 3b 9b be 3e 7f a4 be 5b d0 4c 3e cd 4b 21 3e
       -0.3031911 -0.32128328 0.20001356 0.15751572
000120 df f1 66 3e 68 3c c6 be 23 2b f4 be 85 28 92 be
       0.22553204 -0.3871796 -0.4768916 -0.2854654
000130 3d 0b a5 be 54 69 1c 3d 9c a1 1d 3d ea b5 43 3e
       -0.32235137 0.038186386 0.0384842 0.19112363
000140 72 8b fd bd 08 64 42 be e1 60 99 3e ee 49 cd bc
       -0.12380113 -0.18983471 0.29956725 -0.025059666
000150 c8 ea b4 3e 94 76 e1 bd fc 91 fa 3d 30 70 75 be
       0.35335374 -0.11008945 0.122348756 -0.23968577
000160 eb f4 8a be be 6e e8 3c c9 43 8f 3c 35 e6 44 be
       -0.27139983 0.028373118 0.017488377 -0.19228442
000170 ba 87 fb 3d e6 8c 10 3e 9b d4 ad be b1 35 89 be
       0.12281747 0.14116248 -0.33951268 -0.26798776
000180 6e 6c 55 3e 46 14 7b be 6a f6 46 be 6f 06 99 be
       0.20842144 -0.24519452 -0.19429937 -0.2988772
000190 ad 84 a2 be fa 69 ca 3c 2d 84 3c be ee cf ae be
       -0.3174185 0.024708737 -0.18409796 -0.34143013
0001a0 6b 13 04 3e 10 19 3a be 30 76 d7 be 82 06 c2 bd
       0.12898032 -0.18173623 -0.42082357 -0.094738975
0001b0 26 c9 63 be 9b 7e 13 be da e1 cf 3e 49 c2 e0 3d
       -0.22244701 -0.14403765 0.40602 0.10974557
0001c0 51 71 89 bb 03 0a db be 9e c3 f7 bd 48 3c c9 ba
       -0.0041944166 -0.42781076 -0.12097858 -0.0015353048
0001d0 96 c8 61 3d 29 b3 49 be df b1 8b be f1 b1 9b be
       0.055122934 -0.1969725 -0.27284142 -0.30409196
0001e0 fe 11 f6 bd e9 ca 83 be bc 62 46 bc 3f 76 bf bd
       -0.120151505 -0.25740746 -0.012108501 -0.093487255
0001f0 5e c1 97 be c6 04 a6 bd 20 2f 83 be fb ae b6 be
       -0.29639715 -0.08106379 -0.2562189 -0.35680375
000200 76 af 2c 3e 1e 2c 24 be 54 25 99 3e 60 7d ec 3d
       0.16863808 -0.16032454 0.29911292 0.11547351
000210 6b 2f c5 be f8 1e 01 3e 00 e9 77 be b5 33 51 be
       -0.3851274 0.1260947 -0.24209976 -0.20429881
000220 3b 6a c1 be 72 c4 e5 be cc b8 a4 3d 2e 94 c4 bc
       -0.3777636 -0.44876438 0.0804306 -0.023996439
000230 9a 21 0a 3e a8 48 85 be 99 a7 36 3e 49 a9 cc be
       0.1348938 -0.26031995 0.17837371 -0.39972904
000240 46 a6 c6 3c 40 5e 2e 3d cc a7 93 3d 07 66 67 3e
       0.024249207 0.042570353 0.07209739 0.22597514
000250 e0 d0 94 3e 6b c3 b1 be b9 bd 23 bd 82 49 84 be
       0.2906561 -0.34719405 -0.039975855 -0.25837332
000260 a8 56 78 bc 0f e4 96 be e7 b3 c4 3e 34 3d 58 be
       -0.015157379 -0.2947087 0.38418505 -0.21117097
000270 ca 06 4e 3e 71 10 01 3e cc 14 8d 3d 56 b1 46 be
       0.20119777 0.12603928 0.06888732 -0.19403586
000280 6b 18 c0 3e 50 08 3d 3e 81 4e d9 3c 62 3d 98 be
       0.3751863 0.18460202 0.026526691 -0.2973433
000290 9f 27 60 3e 80 c9 1f 3d b0 0d a2 bd ed e2 31 3e
       0.21890114 0.039010525 -0.07912767 0.17371722
0002a0 1c 63 7e 3d d2 de 65 be 2f 9b 0f be 72 08 83 bd
       0.062106237 -0.2244828 -0.14024042 -0.06398095
0002b0 46 eb 26 3e 4e 23 2b be 88 89 69 be 1f b5 44 be
       0.16300687 -0.16712686 -0.2280637 -0.19209717
0002c0 24 da 76 be f6 96 3a 3e c0 15 98 3e 84 2a ca be
       -0.24106652 0.1822165 0.29704094 -0.39485562
0002d0 7a e1 ed bc 84 96 d5 3d c2 4d d3 3d b8 a0 7e bc
       -0.02903818 0.10429099 0.103175655 -0.015541248
0002e0 70 14 89 3d 7f b2 95 3e 4f 4e 21 bc aa fc 90 bc
       0.06693351 0.29237744 -0.00984533 -0.017698605
0002f0 b1 53 c9 bd 51 a7 19 3e 14 31 d8 3b d6 92 98 bd
       -0.09830416 0.15005232 0.0065976474 -0.07449882
000300 70 e5 ff 3d 8a a9 df 3e 9b c3 a3 bd b8 f3 0f 3c
       0.124949336 0.43684036 -0.07996293 0.008786134
000310 17 ce f5 3c 88 42 f1 3d 7d 76 72 3d 2d 80 f2 3c
       0.030005498 0.11780268 0.05919503 0.029602135
000320 23 be a6 be 6c c5 05 be 8c 1d 5d 3e 76 b8 19 3e
       -0.32566938 -0.13063592 0.21593302 0.15011773
000330 88 57 24 3d 5b 3c 77 be 1e 36 9a be 15 01 d8 be
       0.04012254 -0.24144118 -0.30119413 -0.42188326
000340 ea ee 12 be ae 5e e6 3b 48 2f 74 3e ab 4b 23 3e
       -0.14348951 0.0070303297 0.23846161 0.15946834
000350 7c 43 a8 be 63 0d 51 be fa 83 35 bb 4c 6d c0 3e
       -0.32863986 -0.20415263 -0.0027697072 0.37583387
000360 64 2e 02 bc 55 e2 ad bd e3 fa 06 3e 32 c9 71 bc
       -0.007945631 -0.08490435 0.13181643 -0.014757441
000370 3b 91 82 be c0 9c a0 3e 8f 8d 29 be 8f 37 09 bd
       -0.25501427 0.3136959 -0.16557907 -0.03350025
000380 2c e7 8d be 70 99 72 3e 12 d3 3e 3e 60 f3 68 3e
       -0.27715433 0.23691344 0.18635204 0.2274909
000390 d4 87 84 be f9 21 8e be e4 b0 b0 be c3 4b a6 3e
       -0.2588488 -0.27760294 -0.34509957 0.32479677
0003a0 f5 ad 88 3e 2b 6b cf 3e f5 d4 71 3d 78 f2 13 3e
       0.2669522 0.4051145 0.059040982 0.14447963
0003b0 c0 86 a8 3d 4c fd 29 be 90 99 45 be 99 a7 81 be
       0.082288265 -0.16600531 -0.1929686 -0.2532318
0003c0 5a f3 06 3d 4e b3 a4 be 64 84 cf 3a 14 5e 67 bd
       0.032946922 -0.3216805 0.0015832302 -0.056486204
0003d0 b7 15 68 bd ae 46 d2 bd 24 2c af be 15 87 34 3e
       -0.056661334 -0.10267387 -0.34213364 0.17629655
0003e0 4a 70 2f be 4f 0a a0 3d fc f7 98 bd d2 9a a7 be
       -0.17132679 0.07814466 -0.07469174 -0.32735306
0003f0 7b cb 2f be 5f 88 8a be b4 60 3e be dc 6f dc be
       -0.17167465 -0.27057168 -0.18591577 -0.43054092

layers.0.bias f4 [32]
000000 49 01 4d 3e 83 e3 7b be 8d da 38 3e db 5c 22 3e
       0.20020021 -0.24598508 0.1805212 0.15855734
000010 d1 84 81 3e 97 2f 8c be 09 32 81 3e c0 cf 28 be
       0.25296643 -0.27380058 0.25233486 -0.164855
000020 d1 0a 05 3e f3 04 ab 3e b5 3e 55 bd 8a 37 aa bb
       0.12992407 0.33402213 -0.052061755 -0.005194609
000030 9d d4 a5 bd c6 0e 96 be 73 23 2e 3e 8e 46 b2 be
       -0.080971934 -0.29308146 0.1700571 -0.34819454
000040 32 c0 61 3e fd e1 86 3e dd c8 ab 3e 82 fa a8 bd
       0.22045973 0.2634429 0.33551684 -0.082509056
000050 79 cb 96 be 53 16 a6 3d ff 83 49 3e 07 d9 b6 be
       -0.29452112 0.08109727 0.19679259 -0.35712454
000060 a6 2a a3 bd 84 34 56 be 7c 39 e9 bc 68 22 33 be
       -0.07967119 -0.2091847 -0.028469793 -0.17493594
000070 b6 fb 12 be 8d 80 e8 bd 70 97 ab be aa 10 94 3e
       -0.14353833 -0.11352644 -0.33513975 0.28918964

layers.1.weight f4 [32]
000000 ba 97 86 3f 73 a8 6c 3f 5b 3c 79 3f b4 75 67 3f
       1.0515053 0.92444533 0.9735772 0.90413976
000010 d9 e5 64 3f c7 23 73 3f 35 c4 8b 3f 7d b5 81 3f
       0.8941322 0.94976467 1.0919253 1.0133511
000020 e0 da 69 3f 86 7a 66 3f 2f b1 8a 3f 0a b3 64 3f
       0.913496 0.90030706 1.0835322 0.8933569
000030 d4 56 8a 3f 3f c6 68 3f e2 ed 7d 3f 59 55 8c 3f
       1.0807748 0.909275 0.99191105 1.0963546
000040 8d a3 88 3f b2 ca 85 3f 66 b1 5d 3f 7b 4e 6e 3f
       1.0674912 1.0452483 0.86598814 0.930885
000050 99 6f 71 3f 27 a4 7c 3f ed 38 7c 3f e6 46 8f 3f
       0.9431091 0.98687977 0.9852436 1.1193511
000060 46 f9 64 3f 6d c8 76 3f 7c 9e 85 3f 72 40 6a 3f
       0.8944286 0.96399575 1.043899 0.91504586
000070 ea 45 66 3f ec 31 77 3f c6 7a 90 3f 36 09 84 3f
       0.8995043 0.9656055 1.1287467 1.0315311

layers.1.bias f4 [32]
000000 80 88 f7 bc 1b db bc 3d 76 0e 6c bd 2e cc 54 bd
       -0.030216455 0.092214786 -0.05763098 -0.051952533
000010 2c 35 da bd c4 f9 da 3d fb b3 c3 3d 12 bb 88 bc
       -0.10654673 0.1069217 0.09555813 -0.016690765
000020 99 4f c2 bd 06 15 e3 bd 55 f4 be bd 48 71 cb bd
       -0.09487838 -0.11087994 -0.093239464 -0.09933716
000030 58 d5 5a 3d e1 84 ec bd cd 90 65 3c 37 91 a2 3d
       0.053426117 -0.11548782 0.014011574 0.07937854
000040 2a 30 0e 3e 0f b8 5e 3d 8a 46 9e bd 7e 28 98 bd
       0.1388556 0.05437475 -0.07728298 -0.07429598
000050 e6 f7 21 bc b3 cf 5d bd b1 da a4 bd 5f 6d 04 3e
       -0.009885764 -0.054153156 -0.080495246 0.12932347
000060 18 83 66 bb 87 0b d7 bc fe 32 e1 3c a2 3e c6 bd
       -0.0035173353 -0.026250614 0.027490135 -0.09679915
000070 17 46 cb bd ed 24 5a bd 08 bb d9 3d a0 de c6 bc
       -0.09925478 -0.05325787 0.106313765 -0.024276078

layers.1.running_mean f4 [32]
000000 9d a9 21 3e 2d e6 47 be 71 17 12 3e 31 f7 01 3e
       0.15787359 -0.19521399 0.14266755 0.12691952
000010 9a cd 4d 3e be 1e 5e be e1 ae 4d 3e fd 84 06 be
       0.20097962 -0.21691415 0.20086242 -0.13136669
000020 ec b0 d3 3d 75 6c 87 3e 12 79 27 bd 31 21 7e bb
       0.103364795 0.26449934 -0.040886946 -0.0038777108
000030 d9 43 84 bd 4e bb 6e be 3a 26 0a 3e 62 ba 8d be
       -0.064582534 -0.23313639 0.13491145 -0.2768126
000040 7b 6b 32 3e 1d 87 56 3e 5d 74 88 3e 38 ba 86 bd
       0.17423813 0.20949979 0.26651278 -0.06578487
000050 90 49 6e be fe be 83 3d f4 27 20 3e 48 83 90 be
       -0.2327025 0.06432913 0.15640241 -0.2822516
000060 8c 55 83 bd 7b 7c 2a be 02 25 be bc 11 a9 0d be
       -0.06412801 -0.16649048 -0.023211006 -0.13834025
000070 9b 56 eb bd ec 8d b8 bd 93 5c 88 be 44 49 6b 3e
       -0.11491128 -0.090114444 -0.2663313 0.22977167

layers.1.running_var f4 [32]
000000 ed 2c 12 3f d9 07 0b 3f 82 30 d8 3e ac c5 5b 3f
       0.570998 0.5430885 0.4222451 0.858485
000010 3e ee ce 3e 8b f3 f2 3e ba 97 1f 3f 8a d1 c7 3e
       0.4041614 0.47451434 0.6234089 0.39027053
000020 9d b5 15 3f 07 9c 45 3f ea d4 c2 3e 54 ea e0 3e
       0.58480245 0.77191204 0.38053066 0.43928778
000030 a4 ad 3d 3f 6c e4 2d 3f 6e 8c 2d 3f 35 99 49 3f
       0.7409308 0.6792667 0.67792404 0.787494
000040 7c dd 03 3f aa fe 47 3f 9d b9 a8 3e ee 35 bf 3e
       0.51509833 0.7812296 0.32954112 0.37345833
000050 94 79 11 3f e1 7f b9 3e 0e 89 c7 3e 0b 88 8b 3e
       0.5682614 0.36230376 0.38971752 0.2725223
000060 e2 bf db 3e 2f 5c 18 3f 62 34 d4 3e 10 66 af 3e
       0.42919832 0.5951566 0.41446215 0.34257555
000070 8f e4 f5 3e 5e 05 d6 3e ed 80 fe 3e 59 27 3d 3f
       0.4802594 0.4180097 0.49707738 0.73888165

layers.4.weight f4 [16, 32]
000000 d1 3f 5f 3e 76 9d 85 bc 22 dd ac bc b7 73 0b be
       0.21801688 -0.016310435 -0.021101538 -0.1361836
000010 ba 0b 87 bd 27 fd d5 bd 81 a8 dc bc 7f e9 30 be
       -0.065940335 -0.104486756 -0.026935818 -0.17276572
000020 0f 6f 28 be 18 d3 cc bd d3 61 28 be e2 dd 4d bc
       -0.16448615 -0.100012004 -0.16443567 -0.012565108
000030 f2 79 96 bd 2e ed d0 bd 2f 69 13 be b1 97 27 be
       -0.07347478 -0.102014884 -0.14395593 -0.1636646
000040 cf 45 8b be b1 37 83 3d 76 6e da bc 52 b5 53 bd
       -0.27201697 0.06407107 -0.026664 -0.051686592
000050 c6 82 b3 bc 7a 55 a7 bd 1a ce 5f 3e 58 a3 45 3e
       -0.021912944 -0.081706 0.21855965 0.19300592
000060 6a d0 62 bd 8e cd 14 bd c6 44 1d 3d 54 f9 4e bd
       -0.05537454 -0.036328845 0.038395666 -0.050530747
000070 e8 a3 70 bb 90 79 64 3e 19 eb 05 be 4e 7d 1e bd
       -0.003671879 0.22311997 -0.13077964 -0.03869372
000080 b9 ee 3d bd 7c 86 35 3c 24 3d 24 3d b8 6b af 39
       -0.04637024 0.011079427 0.04009737 0.00033458858
000090 da fd 92 bc 2a 79 9c bd 50 90 67 be 1d 33 2f be
       -0.017943311 -0.07640298 -0.22613645 -0.17109342
0000a0 5f 75 0f be af 8a 11 be 92 d1 39 3b 88 36 25 3d
       -0.14009617 -0.1421306 0.0028353673 0.04033521
0000b0 38 a2 61 be f9 10 66 be 46 ee 4b bc 38 ca 63 be
       -0.22034538 -0.22467412 -0.0124469455 -0.22245109
0000c0 74 b9 1b be a6 04 74 bc 58 47 ea bc bb f6 fb bd
       -0.15207464 -0.014893686 -0.028598472 -0.123029195
0000d0 1a b3 dd bc 51 59 16 be b7 f3 c7 3c 88 8b e9 bc
       -0.027062941 -0.14682509 0.024408204 -0.028508916
0000e0 f0 de c8 bc 4a c6 53 be 89 53 4a 3d c7 74 4f be
       -0.024520367 -0.2068111 0.04939607 -0.20259391
0000f0 e7 4a 6b be 4e 9c 2f 3e 39 4f 79 bd 7a cb 53 3c
       -0.22977792 0.1714947 -0.06086657 0.012926931
000100 cd c9 87 3d 07 a5 86 3c 5f 1a 0b be 52 d5 b5 3d
       0.06630287 0.016436113 -0.13584279 0.08878578
000110 e6 5e e8 3c 2d f0 da bd 78 94 e4 3c 98 1f 76 3e
       0.028365564 -0.10690341 0.027902827 0.2403549
000120 18 c5 cf 39 6e f5 14 3c 08 bb 96 bd 7a 65 25 bd
       0.00039628963 0.009091718 -0.07359892 -0.04037998
000130 29 bf 36 3e d9 b7 ea 3d 5a 27 10 3e 22 40 21 bd
       0.1784636 0.114608474 0.14077511 -0.039367802
000140 92 e7 73 bd 05 3e aa 3d 0c f4 b8 3d aa 23 4e 3e
       -0.059547015 0.083126105 0.09030923 0.20130792
000150 03 10 aa bd 10 5a bb 3d 18 e3 98 bd 5c 42 0a be
       -0.08303835 0.091480374 -0.0746519 -0.13501877
000160 3a e1 2e bd 06 0f 4e 3e e8 c1 77 3e bb ad 30 bd
       -0.04269526 0.20122918 0.24195063 -0.043134432
000170 3f 0d 38 3e 9a 30 02 bd 17 e4 37 3e a9 20 6a 3e
       0.17973803 -0.03178463 0.17958103 0.22864021
000180 cb 75 9e 3d 51 d1 58 3e 6f 30 2b be 8f 78 17 be
       0.07737311 0.21173598 -0.16717695 -0.14792083
000190 ff fd 46 3e 88 2e 0e 3c 21 32 8e bd 3b ad 0f be
       0.1943283 0.008678086 -0.06943155 -0.14030926
0001a0 a0 d6 20 3d 14 64 21 bc 1b 85 41 bd 40 ac 82 39
       0.039267182 -0.009850521 -0.04724608 0.00024923868
0001b0 23 c9 52 be fe 61 7b bd 49 38 0e bd 4e 4f 28 be
       -0.2058454 -0.06137275 -0.034721646 -0.16436502
0001c0 70 1a 35 be c3 e7 e5 3c 5c 4c 0a 3d 22 38 8d bd
       -0.17685866 0.028064614 0.03376423 -0.06895472
0001d0 d3 9d 80 bd cf 06 72 be a7 fe 53 be 29 6a 14 3d
       -0.062801026 -0.2363541 -0.20702611 0.036234055
0001e0 36 c9 56 3c 03 c2 3f bd a4 08 2c be 77 72 28 be
       0.013109496 -0.046815883 -0.16800171 -0.16449915
0001f0 6d 80 80 3d e2 b6 b4 3d 13 85 98 3c be 0e 18 be
       0.06274495 0.08823945 0.018618142 -0.14849374
000200 44 64 a2 bd 20 b9 04 3e f2 7b 33 be ef 21 52 be
       -0.079292804 0.12961245 -0.1752775 -0.20520757
000210 d2 f1 d1 3d 00 06 b9 b9 61 13 57 be 92 d1 8c bc
       0.10251202 -0.0003529042 -0.21003486 -0.017189775
000220 47 2a 21 3e 0f 30 0c bd 23 5c 16 be c5 e0 49 be
       0.15738784 -0.03422552 -0.14683585 -0.19714649
000230 38 78 28 be f2 4f 11 bd 8e e8 b5 bc 9b df 04 be
       -0.1645211 -0.035476632 -0.022205617 -0.12975924
000240 cf a6 05 be b7 ff 8e bc de b3 86 be 8c 01 b4 3a
       -0.13051914 -0.017455919 -0.26309103 0.0013733371
000250 e1 2c f0 bd 34 d7 ce bd 79 b1 5e 3d be d0 12 3e
       -0.1172731 -0.100996405 0.05436847 0.14337441
000260 bf 57 72 3d d8 4e 2c 3c aa 64 2e bd 0c c8 d5 3c
       0.059165712 0.010516845 -0.04257647 0.026096366
000270 8e a4 46 3d c2 f1 2f be 7b a7 71 be 29 5b 10 3d
       0.048496775 -0.17182067 -0.23599045 0.035243187
000280 e0 6a 51 3e 7c d2 b2 bd e0 a7 00 be aa b2 5f be
       0.20450926 -0.08731553 -0.12564039 -0.21845499
000290 6d 8c 2c bd 98 5f a7 3d 82 15 31 bd 1a 80 c9 bc
       -0.042126108 0.0817253 -0.043233402 -0.024597216
0002a0 3d c5 b8 bd 5c 22 91 3d 2e 03 b5 bd 0f 37 dd bc
       -0.09021995 0.07086632 -0.08838497 -0.027003793
0002b0 48 a2 b3 bd bd 9c 1d bd ad 9d 06 bd 40 04 4a be
       -0.08771187 -0.038479555 -0.032865215 -0.19728184
0002c0 31 63 7b 3c 00 fb 2a be da d4 c8 bd 69 dc 10 be
       0.015343473 -0.16697311 -0.09806223 -0.1414658
0002d0 9f d3 f7 3d 26 4a 23 3d 5a 5c 72 3e d8 47 58 3e
       0.121009104 0.039865635 0.23668042 0.21121156
0002e0 d7 64 5e 3e ea 84 0b be 91 a8 57 be 72 23 2a 3d
       0.21718155 -0.13624921 -0.21060397 0.04153771
0002f0 9f 32 15 be 03 c9 b7 bc fd d4 2c be b2 b6 8f bc
       -0.14570092 -0.022434717 -0.16878124 -0.01754317
000300 15 98 a7 3c 05 46 08 be 02 f4 c8 bd bf 62 af 3d
       0.02045826 -0.1330796 -0.09812166 0.08563756
000310 de e3 39 be 34 56 12 be 2c cb 3a 3e 0a 42 2d 3d
       -0.1815333 -0.14290696 0.18241566 0.042299308
000320 b1 fa 14 3e a8 1c 60 3e 76 70 00 3e 79 d5 29 3d
       0.14548756 0.21885931 0.125429 0.04146335
000330 dd 74 06 3e 9b 92 5b 3d 90 29 c8 3d ec e7 d2 3d
       0.13130517 0.05360661 0.097735524 0.10298142
000340 9a 42 b5 3d 22 7b 77 3e 83 74 2c 3c 43 a4 db ba
       0.08850594 0.24168065 0.010525825 -0.0016757328
000350 70 a4 d1 bd cd 3f 06 3d 2c 00 9f bd 25 e6 17 3d
       -0.10236442 0.03277569 -0.07763705 0.037084717
000360 14 51 5c 3d 87 e3 48 3e 94 12 00 3c 95 fd 36 3c
       0.05378826 0.19618045 0.007816929 0.011168857
000370 8c 86 98 3d 96 91 40 bd 25 76 02 3e cd da 81 bd
       0.07447538 -0.04701384 0.12740381 -0.06340561
000380 d4 a2 a4 bc 54 d0 4d be d5 69 12 3c 30 8e 4f bd
       -0.020097174 -0.20099002 0.008936365 -0.05067271
000390 15 59 6f 3d fc f6 38 be eb 95 5b 3e d5 49 a1 3d
       0.058434565 -0.18062967 0.21443908 0.078754105
0003a0 75 f0 a7 3d 68 73 2c 3e 41 53 c7 3d 8f 8f f3 3c
       0.082001604 0.16840899 0.09732676 0.02973154
0003b0 16 d7 49 3e fe 79 8c bd 5c 3f 2f 3e b5 6a 03 3e
       0.19710955 -0.06859206 0.17114013 0.12833674
0003c0 1c f7 15 bc b0 31 09 3e 6e 6c 0a 3c 2c 36 53 bc
       -0.009153154 0.1339786 0.008448703 -0.012891334
0003d0 60 9e 09 3d 8e 5f 8a 3e da 63 2d 3d b7 c2 db bd
       0.033598304 0.27026027 0.042331554 -0.10730498
0003e0 f1 fd 49 be dd 14 04 3e 1b 77 97 3c 17 6d 07 3e
       -0.19725777 0.12898584 0.018489411 0.13225208
0003f0 36 fd 54 3c df 92 71 3c 61 f9 89 3d 1c 0b 00 3e
       0.012999823 0.014744489 0.067370184 0.12504238

layers.4.bias f4 [16]
000000 29 e8 be bc 2f f2 84 3d 49 78 22 be 43 00 d4 3d
       -0.023304062 0.06491505 -0.15866198 0.103516124
000010 a8 ee 61 bd e4 42 06 be c9 a8 b9 3c 8d 48 b1 3d
       -0.05515924 -0.13111454 0.02266349 0.08656416
000020 e3 83 19 3e 6c 58 da bd 43 86 a3 bd fe 24 0c 3d
       0.14991717 -0.106613964 -0.07984593 0.034214966
000030 33 49 89 3d 1f 8d 90 3d 4d 7c d1 3d 5c 14 2e bd
       0.06703415 0.07058167 0.102287866 -0.042499885

layers.5.weight f4 [16]
000000 6a 02 89 3f ff 14 86 3f 7b 9e 8d 3f 51 76 88 3f
       1.0703862 1.0475157 1.1063989 1.0661107
000010 4f bb 73 3f f1 88 91 3f 55 cc 92 3f bc 75 92 3f
       0.95207685 1.1369916 1.1468607 1.144218
000020 c7 57 92 3f d9 bb 82 3f ed e3 90 3f 02 54 91 3f
       1.1433038 1.0213577 1.1319557 1.1353762
000030 05 c2 91 3f 85 c6 92 3f dd f8 85 3f b5 a0 8e 3f
       1.1387335 1.1466833 1.0466572 1.1142794

layers.5.bias f4 [16]
000000 8f da 80 3d 72 98 79 3d 38 3c 94 3d 82 6f e4 3d
       0.06291687 0.0609364 0.07238048 0.11154081
000010 1d 28 ba bc d8 13 0e 3e 3e 7b 15 3e ea de 15 3e
       -0.022724206 0.13874757 0.14597794 0.14635816
000020 61 9b 15 3e 6d e3 d3 3c 9c 99 08 3e 71 e6 0c 3e
       0.14610054 0.025865281 0.13339847 0.13759781
000030 4f 8a 0c 3e 87 2e 12 3e 00 72 b3 3d 5d 74 74 3d
       0.13724636 0.14275561 0.08761978 0.059681285

layers.5.running_mean f4 [16]
000000 26 2a 88 be cd 3d 0d bf 20 e4 1a 3e 64 c5 87 be
       -0.26594657 -0.55172426 0.15126085 -0.26517785
000010 d5 fa d5 be 7b 6c 90 be 10 20 98 3e 06 2f b1 3e
       -0.41792932 -0.28207764 0.29711962 0.3460619
000020 e4 d7 cc 3e d8 19 d1 be 71 37 de be 7a 58 b6 3e
       0.4000846 -0.4084003 -0.43401673 0.35614377
000030 67 60 3a 3a 91 8c f4 3e 96 33 b4 bd 2c 99 96 3d
       0.0007109702 0.47763494 -0.08798902 0.07353434

layers.5.running_var f4 [16]
000000 09 3f 14 3f 0e bc 06 3f 37 35 0e 3f a2 24 05 3f
       0.57908684 0.526307 0.5554995 0.5200902
000010 a1 91 d2 3e 15 68 18 3f e8 53 15 3f dd d5 44 3f
       0.4112673 0.59533817 0.58331156 0.7688883
000020 98 a4 49 3f 84 ac a8 3e 50 a8 35 3f c0 9a ea 3e
       0.78766775 0.3294412 0.7095995 0.4582119
000030 ba 9f 24 3f 62 89 29 3f 35 7d 17 3f 0f 4f f5 3e
       0.64306223 0.66225255 0.59175426 0.4791188

layers.7.weight f4 [1, 16]
000000 be 07 56 3e 99 71 6e 3e ab b7 2b be 11 58 7a 3e
       0.20901391 0.23285522 -0.16769283 0.24447657
000010 a4 65 aa 3d c4 6b b6 3e 42 3e 92 be 16 74 87 be
       0.08320168 0.35629094 -0.28563124 -0.26455754
000020 6a f6 52 be 39 d7 a7 3d 58 73 8e 3e 0c 99 8b be
       -0.20601812 0.08195347 0.27822375 -0.27265203
000030 99 80 85 3e 02 86 6a be e6 58 4c 3e 3d 84 06 be
       0.26074675 -0.22902682 0.19955787 -0.13136382
