models/mlp_model.pth (torch, 9951 bytes, 13 tensors)

layers.0.weight f4 [32, 8]
000000 60 45 49 3e eb 32 ef 3e f8 0a 03 3e 52 b3 05 3e
       0.1965537 0.46718535 0.12797153 0.13056687
000010 fd 87 c0 3d 57 87 4d 3e 8c 8f 09 be 4a 9a 90 3a
       0.09400938 0.2007116 -0.13433665 0.001103231
000020 c6 57 d7 3e dd e3 1b be 43 c3 57 3e f5 78 96 bd
       0.42059153 -0.15223642 0.2107058 -0.073472895
000030 39 4b 82 3e 72 22 3d 3d 1b eb a4 3e 48 8b 88 be
       0.25448015 0.046175428 0.3221062 -0.26668763
000040 16 ad 6f 3e d2 db 58 3d 39 8a c9 bd 24 1c 11 bd
       0.23405871 0.052944012 -0.09840817 -0.035427228
000050 38 23 40 be 2a 46 99 be a9 0b 56 be 8b 5d 88 3e
       -0.18763435 -0.29936343 -0.20902885 0.26633868
000060 d7 cf a8 be 67 83 af be 31 6b 0f be 36 42 5d be
       -0.3297107 -0.3427994 -0.14005734 -0.21607289
000070 2f ad 02 3e eb 9d e4 be 01 bf 02 3e 90 13 fe be
       0.12761377 -0.44651732 0.12768175 -0.496243
000080 6a 8e e3 3e 6a 58 1a bc 50 20 bf bd 18 01 5f 3e
       0.4444459 -0.009420494 -0.09332335 0.21777761
000090 f8 90 69 bd d4 8b 20 3e d5 ae 2f 3e 1c 3d 19 be
       -0.05702302 0.1567834 0.17156537 -0.14964718
0000a0 17 ee 87 3e f1 cc 3c 3d c5 b7 47 3e 8f 76 0b 3e
       0.26548836 0.046093885 0.19503696 0.13619445
0000b0 83 06 7f 3e bb ba 10 be 05 dd a0 3e 2e 1e f2 bd
       0.24904828 -0.14133732 0.31418625 -0.118221626
0000c0 f4 f3 03 3c 0e fb 8a be 7a 0d e0 be d8 ed 95 3d
       0.008053768 -0.27144665 -0.43760282 0.07320756
0000d0 70 aa e3 be ab 2e bd 3e 3f a2 19 3d 9a 5d f6 3d
       -0.4446597 0.36949667 0.037508246 0.12029572
0000e0 4c 50 09 3d c1 ce 21 be e9 39 bc 3e b3 e3 c4 bd
       0.033523843 -0.15801527 0.36762932 -0.09613743
0000f0 55 eb 0e 3d bf 7c bc be e6 9f 45 bd 5f 69 9c be
       0.0348924 -0.36813924 -0.048248194 -0.30549142
000100 2c e9 eb bc 55 b0 32 be f0 d5 5b 3e 97 f3 2b be
       -0.028797708 -0.17450078 0.2146833 -0.16792141
000110 b0 30 9e be 62 84 b6 be 98 4d 8e 3e ff 34 f5 3d
       -0.3089652 -0.35647875 0.27793574 0.11972999
000120 6d 06 2f 3e 65 13 d9 be fa 36 0f bf bb e7 8b be
       0.17092295 -0.4239761 -0.5594326 -0.27325234
000130 c2 81 c8 be bf 70 49 3d a7 87 c1 3d d8 af 11 3e
       -0.39161497 0.04917979 0.09449702 0.14227235
000140 b8 df be 3c 1d 4c 85 be ca d8 66 3e de 68 f9 bd
       0.023300037 -0.26034632 0.22543636 -0.12178205
000150 10 df 95 3e 07 ac 65 be 2b a0 e7 3c 36 a4 ed be
       0.29271746 -0.22428904 0.028274616 -0.46414346
000160 98 15 8d be 76 cf 71 3c cb 62 fb bc 65 a7 33 be
       -0.27555537 0.014758935 -0.030686757 -0.17544325
000170 1d 75 08 3e 9c d2 01 3e 60 f8 8c be 77 e6 b3 be
       0.13325925 0.12677997 -0.27533245 -0.35136768
000180 6b ff 0b 3e 88 20 6c be 67 51 e7 3c 75 46 a7 be
       0.13671653 -0.23059285 0.028237058 -0.32670942
000190 f2 c2 9f be 30 c8 35 3b 61 ea 53 be 94 cc e8 be
       -0.3120342 0.002773773 -0.20694877 -0.4546858
0001a0 91 b4 dd 3d df ac d3 bd 97 8a ae be 58 a3 85 bd
       0.10825456 -0.10335707 -0.3409011 -0.06525296
0001b0 5c 83 a3 bd 74 aa 10 be 45 6e df 3e 2d 05 76 3e
       -0.07984039 -0.14127523 0.43638816 0.24025412
0001c0 45 d1 27 be 58 94 ba be b4 c3 61 3d 61 48 3c bc
       -0.16388424 -0.36441302 0.055118278 -0.011491866
0001d0 88 46 08 3e 65 e4 70 be 9a 85 9e be af 24 d5 be
       0.13308156 -0.23524626 -0.30961305 -0.4162955
0001e0 0b 38 21 be bc 4e a8 be 12 b5 19 3e eb ba a1 bd
       -0.15744035 -0.3287257 0.15010479 -0.0789698
0001f0 29 40 ea bd 2d 7e 01 be 32 3b 83 be b1 89 f2 be
       -0.11438019 -0.12645788 -0.256311 -0.47370675
000200 c9 5d e6 3d 41 a2 25 be b9 f9 74 3d ac c0 46 3e
       0.11248357 -0.16175176 0.059808467 0.19409436
000210 74 a0 ec be b8 f9 57 3e 88 51 8f be 9f 56 4b be
       -0.46216166 0.21091354 -0.2799189 -0.19857262
000220 91 df a6 be 3d 94 1c bf 99 6d 4e 3e cc cd 37 3d
       -0.32592443 -0.61163694 0.20158996 0.044873998
000230 59 14 07 3e ba ca 76 be 0c f8 12 3e 5d ae b4 be
       0.13191356 -0.24100772 0.14352435 -0.3528928
000240 ce ac 4f 3d 60 6f a5 3c 6f 25 1e 3e c0 39 81 3b
       0.05070191 0.02019471 0.15443967 0.003943652
000250 1e ca a0 3e ac 1b e2 be 1c 54 a6 3d 31 0c 95 be
       0.31404203 -0.44161737 0.08121511 -0.29110864
000260 8b 38 37 3d b6 13 8f be 29 43 c4 3e a0 2d 94 be
       0.044731658 -0.27944726 0.3833249 -0.2894106
000270 a9 63 5e 3e 4b cd e5 3c d0 fa 74 bd 8c 3c 5c be
       0.21717705 0.028051993 -0.059809506 -0.21507472
000280 11 13 ef 3e 35 99 50 3e 16 69 e4 bd 98 f3 82 be
       0.46694234 0.20370944 -0.11152856 -0.25576472
000290 2d 99 8c 3e 60 2a d4 3d 15 02 03 be f7 55 24 3d
       0.27460614 0.10359645 -0.12793763 0.040121045
0002a0 b8 38 a2 bd 98 bc 33 be 61 14 b5 3b b5 6f 0a 3d
       -0.079209745 -0.17552412 0.005526111 0.03379794
0002b0 85 6c 5c 3e a3 02 66 be f7 63 c4 bd 3d 7e ac be
       0.21525772 -0.22461943 -0.09589379 -0.33690062
0002c0 0f 67 b9 be e1 39 62 3d ce 04 89 3e cf ff bf be
       -0.3621144 0.05523098 0.26761478 -0.37499854
0002d0 44 fe 16 be a0 26 59 3e 28 a0 c4 3d 66 74 0d 3e
       -0.14745432 0.2120614 0.0960086 0.13813934
0002e0 7f c1 94 3d f0 95 9e 3e 37 91 81 3d 0a 28 d2 3d
       0.07263469 0.30973768 0.06326526 0.10261543
0002f0 73 44 13 be 46 aa 2e 3d bc 60 9f bb d1 08 17 be
       -0.1438158 0.042642854 -0.0048638266 -0.14749457
000300 10 cc c0 3e 7c cc 80 3e b1 d1 2a be 38 52 ad bd
       0.37655687 0.2515601 -0.16681553 -0.084629476
000310 d1 b1 d6 3d 65 ef 90 bc 45 3b 50 3c ad e9 d9 bd
       0.104831345 -0.017692277 0.012709443 -0.10640273
000320 0d 2b 73 be b0 29 4f be 0c e9 4c 3e c1 af 1a 3e
       -0.23746891 -0.20230746 0.20010775 0.15106107
000330 4a e6 61 3d 17 fa a4 be 36 ba 80 be 19 30 e5 be
       0.05515126 -0.32222053 -0.25142068 -0.44763258
000340 ee 71 1b bd 13 88 76 bd 04 f6 bf bc 5b a6 7c 3e
       -0.03795045 -0.060188364 -0.02343274 0.24672835
000350 63 f1 69 be d3 43 8c be 78 87 bf 3d df eb 08 3f
       -0.22845988 -0.27395496 0.093520105 0.5348491
000360 a9 f8 23 bc d4 fa 39 bd d4 04 5e 3c cf 4e 9b 3d
       -0.010008016 -0.045405224 0.013550956 0.07583391
000370 a6 79 a8 be fd c4 c5 3e 50 7d 2b be 49 d3 d4 bd
       -0.3290531 0.38626853 -0.16747022 -0.10391862
000380 12 06 88 be aa 59 1e 3e d7 a2 21 3e fe 9a 71 3e
       -0.2656713 0.15463892 0.15784775 0.23594281
000390 00 75 72 be e4 59 94 be a8 c3 18 be f3 d1 f5 3e
       -0.23677444 -0.2897483 -0.14918387 0.4801174
0003a0 f9 0c 9f 3e 6c 46 dc 3e 31 10 ed 3d 5b 9b ea 3d
       0.31064585 0.43022478 0.11575354 0.11455413
0003b0 60 48 6b 3d 87 53 10 be 54 ca 34 be 4f 59 7e be
       0.05744207 -0.14094363 -0.17655307 -0.24838756
0003c0 d1 50 b7 3b bb 2a cd be 09 6b 02 bc b3 72 3e 3d
       0.005594351 -0.40071663 -0.0079600895 0.046496104
0003d0 da 82 a7 bd 08 d5 49 be 0d f8 8d be 64 4d 5e 3e
       -0.08179255 -0.19710171 -0.2772831 0.2170921
0003e0 b1 eb 1c be 4f 63 3d 3d 39 f2 7e bd 84 79 9b be
       -0.15324284 0.046237286 -0.06224272 -0.30366147
0003f0 f8 96 1b be 18 d0 c9 be 5f 30 0f be 4e 0a 08 bf
       -0.15194309 -0.39416575 -0.13983296 -0.53140724

layers.0.bias f4 [32]
000000 be 7f 49 3e f2 22 75 be 93 84 32 3e ea db 20 3e
       0.19677636 -0.23939112 0.17433386 0.1570889
000010 af 2b 76 3e c0 43 86 be 90 1f 84 3e 9c c4 2a be
       0.24040101 -0.26223564 0.2580533 -0.16676563
000020 ce cd 08 3e 78 40 a9 3e 33 54 1f bd 1c 43 87 bb
       0.13359758 0.33056998 -0.038898658 -0.004127873
000030 8f c9 b6 bd 36 71 97 be b1 c4 31 3e be 12 b6 be
       -0.08925163 -0.2957856 0.17360188 -0.35561174
000040 6c 62 6b 3e d6 b6 85 3e 52 ed a9 3e ba 88 a1 bd
       0.22986764 0.26116055 0.33188874 -0.07887407
000050 0b 9c 93 be 68 e0 8d 3d b7 8d 4c 3e 90 6e af be
       -0.2882999 0.06927568 0.19975935 -0.3426404
000060 fd 81 ab bd 9e f3 5d be fb d5 33 bd 5e 01 33 be
       -0.08374403 -0.21674964 -0.04390524 -0.1748099
000070 5d f0 16 be d4 08 f0 bd 4e 41 a8 be a0 8a 94 3e
       -0.14740129 -0.11720434 -0.32862324 0.29012012

layers.1.weight f4 [32]
000000 f8 fc 69 3f 0f 8f 74 3f f9 35 91 3f 2f ff 59 3f
       0.91401625 0.9553079 1.1344596 0.85155004
000010 43 d6 54 3f 04 96 75 3f 13 5d 9b 3f b2 37 8a 3f
       0.8313944 0.9593203 1.2137779 1.0798247
000020 c7 56 59 3f 0a 33 66 3f d8 1f 8c 3f b0 0b 60 3f
       0.84898037 0.8992163 1.0947218 0.87517834
000030 59 93 85 3f d5 e9 6c 3f 6d 21 7f 3f 8e 89 90 3f
       1.0435592 0.925443 0.9966038 1.1291978
000040 19 4b 89 3f eb b2 93 3f 4a 9f 56 3f ca 15 72 3f
       1.0726043 1.1538976 0.83836806 0.945645
000050 26 f0 72 3f 4a 5c 62 3f 25 57 83 3f e0 ec 83 3f
       0.9489769 0.8842207 1.0260969 1.0306664
000060 75 a1 52 3f 94 95 80 3f 33 c7 92 3f 50 59 80 3f
       0.82277614 1.0045648 1.1467041 1.0027256
000070 97 8a 6e 3f 77 d0 6d 3f f9 0f 8b 3f 78 ed 90 3f
       0.9318022 0.9289622 1.086425 1.132247

layers.1.bias f4 [32]
000000 b5 73 57 be 7d f3 29 3d 5b 4c 93 be 8e e8 86 be
       -0.21040232 0.041491974 -0.28769192 -0.263493
000010 12 00 11 be 3d 09 ff 3d df f4 1c be ed d9 48 be
       -0.14160183 0.12452934 -0.15327786 -0.19614382
000020 df 0d fc bd 63 6a 74 be ce 00 98 bd 06 1e 52 be
       -0.12307333 -0.23868708 -0.074220285 -0.20519266
000030 b0 17 25 3c 6e a9 2d be 0c c3 62 3d a2 b3 8d 3c
       0.010076448 -0.16959164 0.055361792 0.01729757
000040 05 8b 7b bd 4e 47 f9 bd 47 f6 02 bd 46 76 20 be
       -0.061411876 -0.121718034 -0.03197315 -0.15670118
000050 c7 25 95 3d 13 6b ed bc 3c fc 41 bd 45 fe 25 bd
       0.07282596 -0.028981721 -0.04735969 -0.040525693
000060 86 c9 45 3d 6f 03 26 be 44 ea 17 bd f9 f1 31 be
       0.04828789 -0.16212247 -0.037088647 -0.17377461
000070 18 a8 39 bd 57 8b 97 bd c5 7c cd 3d ec ad ea 3c
       -0.045326322 -0.07399624 0.100335635 0.028647386

layers.1.running_mean f4 [32]
000000 e7 95 40 3e c7 b4 6d be 32 76 2c 3e 6b e1 1a 3e
       0.18807183 -0.23213492 0.16841963 0.15125053
000010 6f c2 6c 3e 9f cc 80 be 5b d2 78 3e b3 32 24 be
       0.23121046 -0.25156114 0.24298994 -0.16034965
000020 42 d5 02 3e 66 2d a2 3e ac a9 25 bd c2 7e 87 bb
       0.12776664 0.3167526 -0.040445015 -0.0041349838
000030 3c 05 ac bd 81 53 90 be e8 b2 2a 3e 7c 46 ae be
       -0.08399436 -0.28188708 0.1666981 -0.3403815
000040 4e 72 5b 3e d2 09 80 3e 52 cb a2 3e 2e 21 a0 bd
       0.21430323 0.25007492 0.31795746 -0.078188285
000050 b6 3f 8d be a4 c3 94 3d 2c 23 42 3e 46 1e aa be
       -0.2758767 0.07263878 0.1895873 -0.33226222
000060 1f 33 a1 bd c4 1e 51 be 64 94 18 bd 64 f3 2b be
       -0.07871079 -0.20421892 -0.03725089 -0.16792065
000070 7b 61 11 be 0a b2 e3 bd b6 57 a1 be 30 cf 8e 3e
       -0.14197342 -0.11117943 -0.3151223 0.27892447

layers.1.running_var f4 [32]
000000 f3 42 18 3f d2 f3 b8 3e 13 f9 d1 3e bc 34 a5 3f
       0.59477156 0.3612352 0.4101034 1.2906718
000010 ab 1f a2 3e f7 20 a4 3e d8 0b 0f 3f 22 2d 9e 3e
       0.31664786 0.320564 0.5587745 0.3089381
000020 03 4b 13 3f ba ad 87 3f 11 96 a0 3e ad fc ca 3e
       0.57536334 1.0599892 0.31364492 0.396459
000030 1a c4 37 3f 0a 07 ef 3e 4c d9 1b 3f 58 30 3e 3f
       0.717836 0.46685058 0.60878444 0.74292517
000040 aa 11 ed 3e 39 15 49 3f 29 e9 7f 3e 34 71 63 3e
       0.4630254 0.7854801 0.24991287 0.22211152
000050 93 df ef 3e 2d 0b 5c 3e d0 b1 94 3e 55 96 fe 3d
       0.4685026 0.21488638 0.2904191 0.12431017
000060 6c 03 86 3e f2 4e 07 3f 33 e7 be 3e 12 ef 89 3e
       0.26174486 0.52854836 0.37285766 0.2694021
000070 96 d1 bd 3e b5 cd b6 3e 33 d2 d3 3e 02 6d 6b 3f
       0.37073964 0.35703817 0.41371307 0.9196321

layers.4.weight f4 [16, 32]
000000 40 11 49 3e 7f 1c 6d bd 28 d4 b9 bd 2a c1 fc bd
       0.19635487 -0.057888504 -0.09073669 -0.123415306
000010 ae be f8 bd 24 6b 3f be 19 f6 d9 bd 06 57 40 be
       -0.12145744 -0.18693215 -0.106426425 -0.18783197
000020 3a 79 c1 bc 29 de da bd c7 7c 59 be 4c 17 3c bd
       -0.023617376 -0.10686905 -0.21239005 -0.045920655
000030 5e ea de bd 92 b7 a7 bd 32 24 32 be 25 68 39 be
       -0.10884546 -0.0818931 -0.1739662 -0.18106134
000040 0f 25 8f be ff 99 40 3d 6a 26 ba bd ec 9d a9 bd
       -0.2795796 0.047021862 -0.09089358 -0.08282074
000050 f2 90 e2 bd 4d 88 17 be 8d a3 ac 3e e0 d0 30 3e
       -0.110628024 -0.14798088 0.3371853 0.1726718
000060 88 fd df bd 3f 6e 88 bd 04 33 d5 3d d5 0a e6 bd
       -0.10937029 -0.06661653 0.10410121 -0.11232535
000070 d0 20 94 3d ce b0 3a 3e 82 a8 d4 bd 4f f9 66 bd
       0.07232821 0.18231508 -0.10383703 -0.056390103
000080 30 c3 13 bd 60 7f 0f 3d ee 37 2e 3d 3d 33 c8 bc
       -0.036074817 0.035033584 0.042533807 -0.024438495
000090 31 e4 53 bc b3 96 e0 bd 08 5b 7c be 51 96 7e be
       -0.012932823 -0.109662436 -0.246441 -0.24862029
0000a0 1d ed ea bd 73 45 23 be 57 51 3f bd e2 6f 1a bd
       -0.11471007 -0.15944462 -0.04670843 -0.037704356
0000b0 4c c0 6e be ef a1 72 be 7f 66 23 bd 83 dd 7c be
       -0.23315543 -0.23694585 -0.03989267 -0.24693875
0000c0 bf 57 48 be 1e 98 4f bd 3d 42 2e bd 45 0f 30 be
       -0.19564722 -0.05068218 -0.04254364 -0.17193325
0000d0 83 11 75 3c d0 2d 35 be 20 ba bc bc 7a 61 f0 bc
       0.014957788 -0.17693257 -0.02303797 -0.029343355
0000e0 a2 e5 07 bd fb a9 73 be 5c 1c 54 3c 36 24 6c be
       -0.03317798 -0.23795311 0.0129462145 -0.23060688
0000f0 79 a6 7b be 26 c3 19 3e 9a 0a 49 bd 9a fe 0c bd
       -0.24575223 0.1501585 -0.049082376 -0.034422494
000100 ba 6e b9 3d 74 69 43 3d 7b 37 e4 3c 07 f8 16 3e
       0.090543225 0.04770799 0.027858486 0.14743052
000110 0a 1d 3d 3d 7c a7 c4 bd 8c ee 7e 3d 83 12 9a 3e
       0.046170272 -0.096022576 0.062239215 0.30092248
000120 c9 ab 38 3d 95 08 07 3e 86 d9 f9 bc 7c 62 53 3c
       0.045085702 0.13186868 -0.030499231 0.0129018985
000130 8a 7e 0c 3e 32 3a 53 3e c1 f1 17 3e 8c 49 11 bd
       0.13720146 0.20627668 0.14838316 -0.03547053
000140 9a 69 9b bc 2c 11 fd 3d 24 5b e5 3d 75 d8 65 3e
       -0.018971253 0.12356791 0.11199024 0.22445853
000150 a8 49 27 3c 8c 10 c1 3d 80 66 84 be 3b 92 42 bd
       0.010210432 0.09426984 -0.2585945 -0.047502737
000160 b0 89 69 bc d0 c7 6c 3e 0a be b9 3e d0 51 16 3d
       -0.014254019 0.23123097 0.362778 0.036699116
000170 0f b1 a8 3d bb c0 ae ba b4 1c 34 3e ec 71 80 3e
       0.08236896 -0.0013332585 0.17589074 0.25086915
000180 40 07 30 3d 41 f5 58 3e 58 26 58 be 2a 16 15 be
       0.042975664 0.21187307 -0.21108377 -0.14559236
000190 3c c3 14 3e 6c c9 aa ba fa 58 48 be b8 a6 2a be
       0.14527601 -0.0013029999 -0.19565192 -0.1666516
0001a0 c0 e4 f7 3d 0c 36 4b bc 6c dc b1 bd dc 1a 19 be
       0.121041775 -0.0124030225 -0.0868462 -0.14951652
0001b0 27 d2 78 be 80 82 74 bd 3e 17 a3 bd 2f c8 4c be
       -0.24298917 -0.059694767 -0.079634175 -0.19998239
0001c0 67 f5 75 be 3a af 84 3c 52 9e d5 3c 5f 3c 86 bd
       -0.24019395 0.016196836 0.02607647 -0.065544836
0001d0 85 b5 be bc cb fc a4 be 05 ea 28 bd be 21 c3 bc
       -0.023279915 -0.32224116 -0.041238803 -0.0238198
0001e0 70 8b af bc 0d 60 af bd 6b cf c5 bd fd 05 6d be
       -0.021428794 -0.08563242 -0.096587025 -0.23146816
0001f0 85 a6 a8 3d 68 d9 49 3c 7e 35 6e 3c 27 33 52 be
       0.08234886 0.0123199 0.014539121 -0.20527326
000200 17 a2 e9 bd 5e 42 21 3e 67 f5 85 be ea 78 4b be
       -0.11407869 0.15747973 -0.2616379 -0.19870344
000210 80 e1 51 3d a9 53 70 ba 7d 83 46 be d6 e1 2a bd
       0.051240444 -0.000916774 -0.19386096 -0.04171928
000220 0b b7 58 3e e3 42 6b bd 34 71 38 be 9b 90 56 be
       0.21163575 -0.057436835 -0.18011934 -0.209536
000230 34 87 51 be 0a a0 e8 bc 95 8d 55 bd 51 8d 21 be
       -0.20461732 -0.028396625 -0.052136976 -0.15776564
000240 68 24 83 be 4d 48 af bc 83 9b ba be 56 25 4a bc
       -0.25613713 -0.02139678 -0.3644677 -0.012338003
000250 2d 1e 13 be e8 7d f8 bd ea 8f b6 3d a4 23 ee 3d
       -0.1436698 -0.1213339 0.08914168 0.11627892
000260 b8 2f 98 3b 7c f6 85 bc a2 4e 08 bc 6e 21 4a bd
       0.0046443604 -0.016352884 -0.008319529 -0.049348287
000270 40 d2 47 3e c2 29 68 be 86 9f 81 be 72 be a3 3c
       0.19513798 -0.2267218 -0.2531702 0.019988272
000280 51 0d 32 3e f6 23 4a bd 06 c8 cb bd ea 48 8c be
       0.17387892 -0.0493507 -0.09950261 -0.2739938
000290 cc 4f 8c bd 2a 86 4f 3d 65 33 c3 bd bb 68 1c be
       -0.068511575 0.05066506 -0.09531287 -0.15274327
0002a0 4a 4d 4a bd 3e e3 b7 3d 8e b4 2a be a9 bd 4e bd
       -0.049390115 0.0897889 -0.16670439 -0.050473843
0002b0 55 9e ca bd 83 f3 f5 bc f8 da 91 bd ce 34 88 be
       -0.09893481 -0.030023342 -0.07121843 -0.26602787
0002c0 26 de 8b bb 17 76 80 be be 86 d9 bd 3b 0d a7 bd
       -0.0042684255 -0.25090095 -0.10621403 -0.081568204
0002d0 92 cc 3c 3e 1b e6 91 3c 40 5f 84 3e c7 b7 4c 3e
       0.18437412 0.017809918 0.2585392 0.1999198
0002e0 26 00 57 3e af c5 6f be 7a 05 42 be c0 7d 90 bd
       0.2099615 -0.23415254 -0.18947402 -0.07055235
0002f0 bb 04 4f be 0b 0c d8 bc 02 fa 14 be dc 20 18 be
       -0.20216648 -0.02637293 -0.14548495 -0.14856285
000300 00 bf f1 3c 94 70 30 be 4a 2a 13 be 4d 82 fe 3d
       0.029510021 -0.17230445 -0.14371601 0.12427197
000310 c4 01 06 be 8c 26 65 be 55 15 8d 3e c5 58 86 3d
       -0.13086611 -0.22377986 0.27555338 0.065599
000320 26 75 b1 3d e4 d1 6b 3e e3 9e 13 3e 8a 52 ca 3d
       0.086649224 0.23029286 0.14416079 0.09879024
000330 ef a9 d1 3d 74 f1 a7 3d b7 17 ef 3d 14 76 f8 3d
       0.102374904 0.082003504 0.11674445 0.121318966
000340 7d 7c c9 3d 39 58 88 3e cc e0 cb 3c 97 98 7a bc
       0.098381974 0.2662981 0.024887465 -0.015295169
000350 e2 ee f8 bd c9 37 49 3d c3 85 c8 bd d1 8f 34 3d
       -0.12154938 0.049125466 -0.09791138 0.044082467
000360 06 1f 22 3d 38 ca 76 3e 2d d1 a7 3d c8 14 c7 3d
       0.039580368 0.24100578 0.08194194 0.097207606
000370 13 b0 92 3d 44 7c 16 bd 97 3f ea 3d 09 62 4e bd
       0.0716249 -0.036739603 0.1143791 -0.050386462
000380 3b 38 ab 3b 5a df 56 be 0c 01 59 be 01 09 9e bc
       0.005225209 -0.2098364 -0.21191806 -0.019291403
000390 27 9f dd 3d b8 8c 4d be 7d 4c a6 3e 04 71 dd 3d
       0.108213715 -0.20073211 0.3248023 0.10812572
0003a0 86 91 a7 3d 62 e9 24 3e d8 d4 fd 3d 93 2f f8 3c
       0.08182053 0.16104653 0.12394112 0.030296123
0003b0 64 9a 04 3e b5 28 d1 bc c5 f4 2e 3e 38 5b 01 3e
       0.1294952 -0.025532106 0.1708556 0.12632453
0003c0 3e 33 34 3d 74 d1 24 3e 66 51 12 3d 8d b1 67 bd
       0.04399418 0.16095525 0.03572216 -0.05656581
0003d0 21 15 bf bd 22 16 6a 3e f2 00 e6 bc e6 dc 8f bd
       -0.09330202 0.22860005 -0.028076623 -0.07024555
0003e0 e9 72 5a be e3 a4 2a 3e 89 d9 95 3d 84 1e ad 3e
       -0.21332897 0.16664462 0.07316882 0.33812344
0003f0 9a a9 82 3b 47 19 d2 ba 68 44 2c 3c aa 2a eb 3d
       0.0039875032 -0.0016029262 0.010514356 0.11482747

layers.4.bias f4 [16]
000000 3b 57 c0 bc b9 fb 5d 3d db 8e 25 be 65 8c 06 3e
       -0.023479095 0.05419514 -0.16167776 0.13139494
000010 0f 84 6d bd d9 03 36 be 95 47 73 3c cf b4 ca 3d
       -0.05798727 -0.17774905 0.014848609 0.09897768
000020 cc 05 18 3e c6 46 db bd 0f 93 c6 bd 06 50 08 3d
       0.14845961 -0.10706858 -0.09696018 0.03327944
000030 f3 53 32 3d 30 ae 9a 3d b4 9a b4 3d 69 9c 33 bd
       0.04353709 0.07552755 0.0881857 -0.043850336

layers.5.weight f4 [16]
000000 b0 da 8c 3f 23 9c 7d 3f 72 37 9c 3f ab e4 8c 3f
       1.1004238 0.9906637 1.220442 1.1007284
000010 ee bb 77 3f 2e fc 90 3f 39 f9 9c 3f a7 95 9b 3f
       0.9677113 1.1326959 1.2263557 1.2155045
000020 80 89 9b 3f af 2e 63 3f 02 fa 8f 3f f7 d3 98 3f
       1.2151337 0.8874311 1.1248171 1.1939687
000030 b4 50 91 3f fe d0 9d 3f b0 6b 86 3f f4 59 a0 3f
       1.1352754 1.2329404 1.0501614 1.2527452

layers.5.bias f4 [16]
000000 0b f7 81 3d e0 d5 05 3d 49 6a c8 3d fe 77 2f 3e
       0.06345948 0.03267467 0.09785897 0.17135617
000010 a7 71 d1 bc bb ac 3b 3e 6c f4 47 3e 1b f3 56 3e
       -0.025566889 0.1832761 0.19526833 0.20991175
000020 06 ca 46 3e 66 0d f3 bd 60 47 27 3e 23 6d 37 3e
       0.19413003 -0.1186779 0.16335821 0.17912726
000030 39 44 f8 3d 19 dc 22 3e 60 2f 94 3d 29 6e 0a 3e
       0.121223874 0.15904273 0.072355986 0.13518585

layers.5.running_mean f4 [16]
000000 88 ac 0e bf c1 50 67 bf 76 69 10 3f 16 e4 12 bf
       -0.5573201 -0.90357596 0.5641092 -0.5737928
000010 37 ed 3e bf d4 08 2e bf 0f 4d f2 3e 7d 43 07 3f
       -0.7458071 -0.6798222 0.47324416 0.52837354
000020 85 32 4c 3f c0 e0 b6 be 7a 3b 74 bf 6f b8 39 3f
       0.79764587 -0.35718346 -0.95403254 0.7254705
000030 7e cd 9d be 18 79 81 3f 83 ae 98 be 00 7a 11 3f
       -0.3082084 1.011508 -0.29820642 0.5682678

layers.5.running_var f4 [16]
000000 bd 30 38 3f da 32 2f 3f 2f c6 21 3f 15 88 3a 3f
       0.7194937 0.6843697 0.6319303 0.72863895
000010 83 56 04 3f f3 0c 5f 3f 2d f8 53 3f 49 3d 8a 3f
       0.51694506 0.87129134 0.8280056 1.0799953
000020 27 07 78 3f 73 c0 bd 3e a4 f2 96 3f 98 88 00 3f
       0.96885914 0.3706089 1.1792798 0.50208426
000030 5b 74 6a 3f 9b fc 2d 3f 85 7a 5a 3f 14 b6 30 3f
       0.91583794 0.6796357 0.853432 0.6902783

layers.7.weight f4 [1, 16]
000000 1e 1b 77 3e f0 c9 3a 3e b4 6b 81 be 8e 31 92 3e
       0.24131438 0.18241096 -0.25277483 0.28553432
000010 95 74 d9 3d bb 7e b9 3e ad e3 b5 be cb b7 a7 be
       0.106179394 0.362295 -0.35525265 -0.3275741
000020 39 2f 86 be d2 8b 96 bc c7 64 90 3e 0e d3 a4 be
       -0.26207903 -0.018377218 0.28201887 -0.32192272
000030 53 13 87 3e b7 3b 97 be 29 2f 56 3e 5d b4 6d be
       0.2638193 -0.29537746 0.20916428 -0.23213334
