models/mlp_model.pth (torch, 9951 bytes, 13 tensors)

layers.0.weight f4 [32, 8]
-0.34202474 0.50459284 0.0043177055 0.06986729 0.20082448 0.3987289 -0.13728237 0.18040527
0.5642332 -0.09962678 0.3249942 -0.13933957 0.15648013 0.3383078 0.1334134 -0.55179703
0.3454119 -0.30143166 0.06693407 -0.15937607 -0.21166374 0.22956347 -0.16474852 0.49297357
-0.03542901 -0.27500677 -0.4103642 0.09241298 -0.026676176 -0.957529 -0.019659435 -0.23386492
0.31384185 0.0023596701 -0.14607477 0.071572706 0.09151735 0.4399066 0.40366986 -0.22424291
0.33739015 0.2208393 0.31587386 0.070195936 0.25003672 -0.09238106 0.40461683 -0.18458202
0.11461714 -0.7043019 -0.45777133 -0.016010808 -0.07599144 0.23461935 -0.085273914 0.30976966
-0.17296843 -0.16352363 0.4269298 0.14481474 -0.01719512 -0.64812493 -0.0527434 -0.3000848
0.06101283 -0.018524995 0.57426304 -0.40603197 -0.053622436 -0.5300377 0.04861164 -0.09023712
0.31745005 -0.6080763 -0.4111825 -0.106707774 -0.116944745 -0.19982801 0.44079486 0.23792638
-0.31391466 -0.46566385 0.14803901 0.027985066 0.39279634 -0.28721073 0.11963578 -0.2545681
-0.7683365 0.17698212 -0.37834844 -0.2476171 -0.069549285 0.21768717 -0.03404058 -0.10616679
0.3895669 0.05855798 -0.15303749 -0.35322645 -0.2763786 0.22169618 -0.16495404 -0.5773358
0.36217597 -0.28553146 -0.5263269 0.024431556 0.17719983 -0.16666147 0.55540925 0.29947656
-0.15150224 -0.29882723 -0.51111835 -0.2865468 -0.007079472 -0.4404445 -0.12823832 -0.1092831
-0.09347639 -0.12993234 0.041822836 0.22827823 -1.0492641 -0.24012385 -0.06421189 -0.25743055
0.056893047 -0.018782929 0.2575338 0.18408297 -0.7435501 0.37677473 -0.40565756 0.044264697
-0.1549395 -0.5320919 -0.0419061 0.30600047 0.36477897 -0.166297 -0.1854398 -0.45935762
-0.0070323762 -0.2534159 0.30996758 0.036135912 0.4250801 -0.4573606 -0.13161817 -0.3502922
0.25147226 -0.23269585 0.281794 -0.58716375 0.21274126 0.1777784 0.2116402 -0.16227855
0.19694115 -0.021697927 -0.09306683 -0.36637044 0.25437793 0.41564494 -0.46292198 0.09233337
0.26619875 -0.26782688 0.28123337 0.18108422 0.03225637 -0.40347856 -0.23918022 -0.23347768
-0.3376469 0.3520565 0.34553546 -0.5250845 -0.05921882 -0.067270905 -0.03257339 0.07586834
0.35064358 0.17409112 -0.11157208 0.035324484 0.025798421 0.46808466 0.014149314 0.016915599
0.2702456 0.37082982 -0.11872292 0.03196804 0.14669904 0.37454847 0.18594696 -0.0604044
-0.2885999 -0.25604105 0.4958163 0.067013785 0.08501722 -0.295193 -0.0965315 -0.60113174
-0.022012167 0.31936738 -0.034017704 0.16172065 -0.81931275 0.011270775 0.09307969 0.27096853
0.053967662 -0.13454317 0.3517614 0.48041627 0.020678505 0.21150957 -0.36034375 0.06269043
-0.852936 0.264487 0.35910043 -0.059575196 0.09950417 -0.033101372 -0.39860797 0.19082876
0.50669765 0.3425604 -0.22241604 0.3254321 0.19148593 -0.26172674 -0.16002272 -0.26530123
0.14972922 -0.39074156 -0.09881677 -0.15292954 -0.23165256 0.04200686 -0.485357 0.4268825
0.3134227 -0.10854932 0.09052258 -0.4146625 0.09864578 0.50330776 -0.10063084 -0.6678057
00000000: de1d afbe ff2c 013f 8a7b 8d3b 9516 8f3d
00000010: efa4 4d3e 3226 cc3e c093 0cbe 29bc 383e
00000020: 9671 103f 2009 ccbd a465 a63e 08af 0ebe
00000030: 543c 203e ae36 ad3e 869d 083e 9242 0dbf
00000040: d4d9 b03e 4055 9abe bb14 893d 7b33 23be
00000050: 61be 58be b012 6b3e d6b3 28be 0867 fc3e
00000060: 021e 11bd b0cd 8cbe 421b d2be 0443 bd3d
00000070: ff87 dabc 9f20 75bf d30c a1bc 497a 6fbe
00000080: e1af a03e b2a4 1a3b a094 15be b694 923d
00000090: 736d bb3d 703b e13e d1ad ce3e ef9f 65be
000000a0: 67be ac3e b323 623e 38ba a13e e3c2 8f3d
000000b0: d004 803e 4832 bdbd f029 cf3e 1203 3dbe
000000c0: 64bc ea3d 214d 34bf 0161 eabe 1929 83bc
000000d0: 66a1 9bbd 0e40 703e 17a4 aebd 219a 9e3e
000000e0: a31e 31be bd72 27be 8b96 da3e 514a 143e
000000f0: c8dc 8cbc 84eb 25bf 7709 58bd b7a4 99be
00000100: 97e8 793d bbc1 97bc e702 133f 6ce3 cfbe
00000110: 33a3 5bbd 8db0 07bf 001d 473d 3dce b8bd
00000120: d088 a23e e3aa 1bbf 8386 d2be 9b89 dabd
00000130: ba80 efbd b79f 4cbe ddaf e13e f9a2 733e
00000140: 6cb9 a0be 7e6b eebe 8a97 173e f040 e53c
00000150: 9a1c c93e 490d 93be 9b03 f53d c056 82be
00000160: b3b1 44bf cd3a 353e e3b6 c1be 568f 7dbe
00000170: db6f 8ebd 63e9 5e3e 236e 0bbd f96d d9bd
00000180: 5075 c73e 7eda 6f3d dcb5 1cbe 19da b4be
00000190: 7f81 8dbe 5304 633e b6e9 28be 47cc 13bf
000001a0: 216f b93e 2e31 92be 5cbd 06bf b024 c83c
000001b0: df73 353e 4ea9 2abe 4d2f 0e3f fe54 993e
000001c0: 6723 1bbe e2ff 98be a7d8 02bf 43b6 92be
000001d0: eafa e7bb f181 e1be e850 03be d1cf dfbd
000001e0: 8d70 bfbd fc0c 05be 6c4e 2b3d c5c1 693e
000001f0: 494e 86bf 07e3 75be 8681 83bd f0cd 83be
00000200: af08 693d a8de 99bc 78db 833e 3f80 3c3e
00000210: 4d59 3ebf 9ee8 c03e 59b2 cfbe e64e 353d
00000220: 76a8 1ebe 2d37 08bf bba5 2bbd 18ac 9c3e
00000230: 4fc4 ba3e c349 2abe eee3 3dbe ec30 ebbe
00000240: d96f e6bb bbbf 81be 12b4 9e3e 4003 143d
00000250: 19a4 d93e 2b2b eabe eac6 06be 8059 b3be
00000260: f9c0 803e d247 6ebe 4e47 903e 5d50 16bf
00000270: d8d8 593e 8a0b 363e 35b8 583e 592c 26be
00000280: f1aa 493e dabf b1bc d299 bebd e894 bbbe
00000290: d33d 823e 6acf d43e 1c04 edbe 4719 bd3d
000002a0: 344b 883e 9b20 89be d2fd 8f3e 246e 393e
000002b0: 411f 043d be94 cebe a9eb 74be c614 6fbe
000002c0: 0ee0 acbe c040 b43e 06ea b03e f06b 06bf
000002d0: 6f8f 72bd 54c5 89bd ad6b 05bd dc60 9b3d
000002e0: 8e87 b33e f144 323e e77f e4bd 68b0 103d
000002f0: 3657 d33c cba8 ef3e 86d2 673c 9592 8a3c
00000300: a25d 8a3e 68dd bd3e 0125 f3bd ebf0 023d
00000310: 4638 163e d1c4 bf3e e168 3e3e 9b6a 77bd
00000320: 5ec3 93be d017 83be a2db fd3e 863e 893d
00000330: 821d ae3d 8923 97be 4fb2 c5bd c5e3 19bf
00000340: dc52 b4bc 1f84 a33e 2656 0bbd 199a 253e
00000350: 7bbe 51bf 0fa9 383c 91a0 be3d 63bc 8a3e
00000360: 320d 5d3d afc5 09be 121a b43e 1ff9 f53e
00000370: f865 a93c f795 583e fa7e b8be d763 803d
00000380: 045a 5abf d76a 873e 03dc b73e 1f05 74bd
00000390: d8c8 cb3d 4e95 07bd 5816 ccbe 9d68 433e
000003a0: f0b6 013f 1464 af3e 08c1 63be 099f a63e
000003b0: e314 443e 0c01 86be ffdc 23be 90d5 87be
000003c0: 9e52 193e 470f c8be 7260 cabd 9099 1cbe
000003d0: 5436 6dbe 630f 2c3d b680 f8be 5890 da3e
000003e0: f178 a03e 1b4f debd e763 b93d a54e d4be
000003f0: cc06 ca3d c7d8 003f 8b17 cebd 50f5 2abf

layers.0.bias f4 [32]
0.21578747 -0.25754628 0.1654698 0.16797033 0.2546808 -0.26928684 0.25166467 -0.17772079
0.15749723 0.33754784 -0.031690467 -0.0152444625 -0.08262058 -0.28769636 0.18288235 -0.34154016
0.22629344 0.2614252 0.27680507 -0.08791608 -0.28897685 0.10984221 0.21023613 -0.31935233
-0.06257964 -0.22610982 -0.034433648 -0.18215849 -0.1766039 -0.13796905 -0.32914004 0.26307514
00000000: 64f7 5c3e 1bdd 83be ea70 293e 6a00 2c3e
00000010: 8665 823e f7df 89be 31da 803e 70fc 35be
00000020: f446 213e 12d3 ac3e ddcd 01bd e9c3 79bc
00000030: fb34 a9bd f04c 93be 8345 3b3e 5ade aebe
00000040: 78b9 673e 86d9 853e 65b9 8d3e 590d b4bd
00000050: c6f4 93be f4f4 e03d 2448 573e 2682 a3be
00000060: c129 80bd 5589 67be 4c0a 0dbd c187 3abe
00000070: a7d7 34be c247 0dbe 0b85 a8be c9b1 863e

layers.1.weight f4 [32]
0.7646145 0.8943004 0.9925011 1.0219288 0.7786878 0.79785705 1.081892 0.8738936
1.0032789 0.85841846 0.90684193 1.0210792 1.2192974 0.99342865 0.847278 1.0876074
1.1187514 0.6039195 1.112768 0.88060725 0.8124267 0.8864443 1.0342544 0.8590696
0.67610157 1.0760251 0.9406437 1.0968454 0.6756856 0.8711458 1.2510687 0.9961765
00000000: c7bd 433f dff0 643f 8d14 7e3f 90ce 823f
00000010: 1558 473f 5c40 4c3f 707b 8a3f 7eb7 5f3f
00000020: 716b 803f 50c1 5b3f cb26 683f b9b2 823f
00000030: f011 9c3f 5751 7e3f 36e7 583f b836 8b3f
00000040: 3f33 8f3f 789a 1a3f 2f6f 8e3f 7a6f 613f
00000050: 32fb 4f3f 03ee 623f 7362 843f fceb 5b3f
00000060: fe14 2d3f 31bb 893f 07ce 703f 6e65 8c3f
00000070: bbf9 2c3f 6903 5f3f 0523 a03f 6c05 7f3f

layers.1.bias f4 [32]
-0.75899065 -0.25608858 -0.8770225 -0.50634974 -0.33549663 -0.1739425 -0.11622357 -0.7181415
-0.041092087 -0.42798948 -0.37194827 -0.67502314 -0.40439695 -0.46878788 -0.2676813 0.041467365
-0.61249906 0.21611491 -0.2590897 -0.43230355 -0.4015863 -0.24761264 -0.5459807 -0.39567345
-0.1338095 -0.48197675 -0.49305096 -0.5531178 -0.46119004 -0.7621169 -0.7285814 -0.3158174
00000000: 364d 42bf 0b1e 83be 8c84 60bf 23a0 01bf
00000010: 37c6 abbe fc1d 32be a006 eebd 1fd8 37bf
00000020: 2d50 28bd 7021 dbbe 0170 bebe 51ce 2cbf
00000030: 1e0d cfbe f704 f0be 860d 89be afd9 293d
00000040: bdcc 1cbf 3a4d 5d3e 68a7 84be e456 ddbe
00000050: b89c cdbe 2b8e 7dbe 64c5 0bbf b695 cabe
00000060: 5c05 09be a8c5 f6be 2d71 fcbe 2199 0dbf
00000070: 1a21 ecbe 181a 43bf 5084 3abf d1b2 a1be

layers.1.running_mean f4 [32]
0.21369219 -0.25640866 0.1652573 0.16762789 0.25559106 -0.26741147 0.25074953 -0.17166036
0.15505253 0.3381254 -0.034115486 -0.011593725 -0.08633165 -0.28797024 0.1818133 -0.34206083
0.23037085 0.26402283 0.2797187 -0.0861369 -0.2880641 0.10807728 0.20635706 -0.3191765
-0.06596706 -0.22155465 -0.03422338 -0.18305106 -0.17448157 -0.14281508 -0.33590332 0.27137497
00000000: 20d2 5a3e ff47 83be 3639 293e a5a6 2b3e
00000010: d5dc 823e 28ea 88be 3e62 803e bcc7 2fbe
00000020: 17c6 1e3e c61e ad3e aebc 0bbd 9bf3 3dbc
00000030: a6ce b0bd d670 93be 442d 3a3e 9922 afbe
00000040: 56e6 6b3e 002e 873e 4a37 8f3e 8b68 b0bd
00000050: 237d 93be 9f57 dd3d 444f 533e 1a6b a3be
00000060: bd19 87bd 39df 62be d12d 0cbd bd71 3bbe
00000070: 4cab 32be 1e3e 12be 85fb abbe a9f1 8a3e

layers.1.running_var f4 [32]
0.7714606 0.52976465 0.6540634 1.6214192 0.5206102 0.5917187 0.7017514 0.5160316
0.74401516 0.9977633 0.5209176 1.0377196 0.55238134 0.8408867 1.2634451 1.4649911
0.97430027 0.76363796 0.4245736 0.45039687 0.42313462 0.3732211 0.4903924 0.4239878
0.54878974 0.77814376 0.5775727 0.6716597 0.8022695 0.4946024 0.79270524 0.5942511
00000000: 717e 453f a89e 073f b370 273f aa8a cf3f
00000010: b646 053f e07a 173f fba5 333f a61a 043f
00000020: c777 3e3f 6a6d 7f3f db5a 053f ffd3 843f
00000030: dd68 0d3f 5a44 573f 92b8 a13f d484 bb3f
00000040: be6b 793f c77d 433f b661 d93e 6b9a e63e
00000050: 1aa5 d83e d616 bf3e b614 fb3e ee14 d93e
00000060: 7c7d 0c3f 6e34 473f cedb 133f e4f1 2b3f
00000070: 8961 4d3f 873c fd3e bbee 4a3f d720 183f

layers.4.weight f4 [16, 32]
0.26449466 -0.030273365 -0.046596427 -0.17084166 -0.17068109 -0.028255783 0.19740397 -0.19742501
0.15013652 -0.0392566 -0.16965224 0.46514633 -0.5452818 -0.4824932 -0.38053742 0.016955743
-0.019314077 0.085402414 -0.311208 -0.2821886 -0.16031994 -0.3094173 0.4093027 0.07419644
-0.064247124 0.106810704 0.22645758 0.095691964 0.2518701 0.31913698 -0.14615893 -0.016186196
0.033123113 0.042886153 0.08649101 -0.013701412 -0.06802052 0.0056366716 0.084477685 -0.3346036
-0.034287397 -0.25268373 -0.114816494 0.09962603 -0.4573498 -0.73196584 -0.03491546 -0.021804307
-0.45895407 0.09542361 0.21885005 -0.19941084 -0.31068578 0.008697934 -0.035849806 -0.12964396
-0.07412052 -0.28540632 0.32105207 -0.21922445 -0.06711439 0.25617787 0.116118416 -0.28920785
-0.22004026 0.15268648 -0.3551923 0.1487953 0.38372856 0.081812896 -0.088799626 0.19251804
0.015817057 -0.24733318 -0.11078039 -0.19043602 -0.23735738 0.031049425 0.11583401 -0.07063861
-0.33463508 0.14342742 -0.0023828694 0.2625326 -0.14565675 -0.059064377 0.34883645 0.01868278
0.06664232 0.48626566 0.23400673 -0.06391351 -0.15857567 -0.027284788 0.73459697 0.2450314
0.11984763 0.09829256 -0.061327353 -0.47822797 0.28478402 0.035214905 0.16515277 -0.22753634
0.14707194 0.022713449 0.081252486 0.5577477 -0.21597272 -0.09455101 -0.30347234 0.07230545
-0.23459621 0.050282188 0.24338575 -0.023445126 0.0034516898 0.057387494 -0.40577948 -0.06618745
-0.1308485 -0.08824555 -0.043183956 -0.2743237 0.11599504 -0.08110282 0.06780063 -0.5140446
-0.041700244 0.043904684 -0.017779354 -0.5586638 0.1448363 -0.20975742 0.21278316 -0.11045359
0.10380354 0.16150904 0.01646706 0.34428066 -0.29094744 0.07776917 -0.32649392 -0.08918904
-0.5188354 -0.06558763 -0.2651534 0.13618807 -0.029959964 -0.43740398 0.033271845 0.3221757
-0.03882569 -0.069233604 -0.056711964 0.005316036 0.19589539 -0.15367405 -0.023557328 -0.16996256
0.21864325 -0.023505745 -0.20792629 0.42460555 0.07130847 -0.13408382 0.0632437 -0.054439012
0.24940306 0.15546882 -0.069900475 0.02348012 0.12061681 0.14357471 0.1690783 -0.27278125
0.3429937 -0.091342986 -0.35138792 -0.12911652 -0.16201283 -0.23299728 0.33682194 0.049847443
0.09266196 -0.16439158 -0.08966191 0.33822638 -0.06893114 0.029382333 -0.464948 0.3328763
-0.05625803 -0.026196338 0.31229335 0.24205984 -0.19257101 -0.019313706 0.4293031 0.34057203
0.42856693 0.35186043 0.0016118623 0.38480875 -0.121146485 0.06557132 0.21966252 -0.025832182
-0.050211772 0.07035405 0.08662486 -0.19853279 -0.18204682 0.09365593 0.15205663 -0.039340917
-0.14055754 0.13873158 -0.1546686 0.15850358 0.2486015 -0.2262215 0.039440345 -0.16893393
-0.0024199663 -0.28315052 -0.17656802 -0.026910977 0.097957656 -0.27026463 0.2977806 0.34594285
-0.18156727 0.23586032 0.30932 0.1401029 0.23443021 0.11059761 0.06851125 -0.063835576
0.12691419 -0.106823415 0.06881711 -0.3035323 -0.46386376 0.120489925 -0.011085636 -0.40100205
-0.1527046 0.086508535 0.30236596 0.27325583 0.038429525 -0.47462058 -0.18996839 0.06017084
00000000: d86b 873e d9ff f7bc e5db 3ebd 1ef1 2ebe
00000010: 06c7 2ebe ac78 e7bc 4424 4a3e c829 4abe
00000020: 63bd 193e 87cb 20bd 51b9 2dbe a927 ee3e
00000030: 9797 0bbf 5909 f7be cdd5 c2be c5e6 8a3c
00000040: 8e38 9ebc 76e7 ae3d a856 9fbe 067b 90be
00000050: e92a 24be f26b 9ebe 2090 d13e 4ef4 973d
00000060: ff93 83bd 92bf da3d 7fe4 673e 26fa c33d
00000070: 1ef5 803e ec65 a33e b0aa 15be ea98 84bc
00000080: 1aac 073d 64a9 2f3d 3322 b13d e37b 60bc
00000090: 584e 8bbd d4b3 b83b a302 ad3d 2a51 abbe
000000a0: f170 0cbd c35f 81be e924 ebbd bb08 cc3d
000000b0: c129 eabe 1d62 3bbf 8303 0fbd f29e b2bc
000000c0: 07fc eabe 746d c33d 3a1a 603e 5b32 4cbe
000000d0: 3512 9fbe c881 0e3c 3fd7 12bd 63c1 04be
000000e0: 80cc 97bd c720 92be f060 a43e 607c 60be
000000f0: 4573 89bd bf29 833e 7ecf ed3d 0d13 94be
00000100: 3c52 61be d859 1c3e c4db b5be cc5d 183e
00000110: 1278 c43e 858d a73d 94dc b5bd 7323 453e
00000120: c692 813c e944 7dbe d4e0 e2bd a901 43be
00000130: d00d 73be 5d5b fe3c 623a ed3d faaa 90bd
00000140: 4a55 abbe a3de 123e ea29 1cbb ac6a 863e
00000150: 0b27 15be 7ded 71bd b19a b23e a10c 993c
00000160: c57b 883d d0f7 f83e 769f 6f3e 16e5 82bd
00000170: a961 22be 5984 dfbc 8c0e 3c3f 83e9 7a3e
00000180: ad72 f53d 9c4d c93d 6432 7bbd 4cda f4be
00000190: 36cf 913e 813d 103d cf1d 293e 49ff 68be
000001a0: 079a 163e 8e11 ba3c b467 a63d 8ec8 0e3f
000001b0: f427 5dbe f6a3 c1bd ba60 9bbe e114 943d
000001c0: fd39 70be b2f4 4d3d 1d3a 793e fe0f c0bc
000001d0: bf35 623b 260f 6b3d 54c2 cfbe 498d 87bd
000001e0: 26fd 05be 15ba b4bd a9e1 30bd 2874 8cbe
000001f0: cf8e ed3d 3c19 a6bd 0fdb 8a3d 6d98 03bf
00000200: e0cd 2abd 66d5 333d 02a6 91bc 9704 0fbf
00000210: f84f 143e a6ca 56be d4e3 593e 7e35 e2bd
00000220: f396 d43d a062 253e eee5 863c 8e45 b03e
00000230: 10f7 94be 7145 9f3d 362a a7be bea8 b6bd
00000240: 66d2 04bf cf52 86bd 30c2 87be e374 0b3e
00000250: 996e f5bc 6af3 dfbe 0f48 083d 37f4 a43e
00000260: b007 1fbd 59ca 8dbd ce4a 68bd 2432 ae3b
00000270: cd98 483e bb5c 1dbe 4cfb c0bc aa0a 2ebe
00000280: 04e4 5f3e 1f8f c0bc a1ea 54be e665 d93e
00000290: 2d0a 923d 454d 09be ea85 813d 71fb 5ebd
000002a0: 8463 7f3e 3833 1f3e fb27 8fbd 6159 c03c
000002b0: f205 f73d 4005 133e dd22 2d3e fca9 8bbe
000002c0: df9c af3e 0812 bbbd 1ee9 b3be 1f37 04be
000002d0: b1e6 25be d796 6ebe ed73 ac3e d52c 4c3d
000002e0: 8ec5 bd3d 4456 28be aaa0 b7bd 022c ad3e
000002f0: c52b 8dbd 38b3 f03c aa0d eebe c36e aa3e
00000300: d26e 66bd b499 d6bc eae4 9f3e 89de 773e
00000310: 5631 45be c737 9ebc 9ecd db3e 755f ae3e
00000320: 206d db3e 0d27 b43e 2045 d33a a705 c53e
00000330: a61b f8bd 424a 863d 36ef 603e 039e d3bc
00000340: dcaa 4dbd c915 903d 6068 b13d 2e4c 4bbe
00000350: 7b6a 3abe aece bf3d bcb4 1b3e f123 21bd
00000360: 51ee 0fbe a70f 0e3e 7261 1ebe c34e 223e
00000370: 6491 7e3e 9ca6 67be 338c 213d 04fd 2cbe
00000380: 4c98 1ebb 1bf9 90be 3fce 34be 6974 dcbc
00000390: 069e c83d 2060 8abe b376 983e 6c1f b13e
000003a0: c5ec 39be 5e85 713e 315f 9e3e 2277 0f3e
000003b0: 790e 703e 0081 e23d a04f 8c3d 3abc 82bd
000003c0: cbf5 013e 3cc6 dabd fcef 8c3d 9668 9bbe
000003d0: 8d7f edbe 6cc3 f63d 87a0 35bc 2450 cdbe
000003e0: 985e 1cbe 632b b13d b6cf 9a3e 30e8 8b3e
000003f0: 4768 1d3d 7801 f3be 1387 42be b375 763d

layers.4.bias f4 [16]
0.0004210556 0.07006124 -0.1339743 0.109391436 -0.04758108 -0.13727859 0.008173744 0.068400666
0.15917312 -0.09605867 -0.04431974 0.051972087 0.057199176 0.05865815 0.097748674 0.008531565
00000000: 20c1 dc39 447c 8f3d 8f30 09be 9e08 e03d
00000010: 61e4 42bd c292 0cbe 2beb 053c a615 8c3d
00000020: 47fe 223e 68ba c4bd 9e88 35bd afe0 543d
00000030: af49 6a3d 8743 703d 7530 c83d fac7 0b3c

layers.5.weight f4 [16]
1.8178679 1.4132185 2.480378 1.4837416 1.4533999 1.7836376 1.989786 1.8434359
2.2341495 2.6438618 2.141771 1.6534635 2.3344631 2.000941 1.5604343 2.292177
00000000: e5af e83f 58e4 b43f 83be 1e40 3feb bd3f
00000010: 0209 ba3f 3d4e e43f 4fb1 fe3f b5f5 eb3f
00000020: 4efc 0e40 0835 2940 c712 0940 b1a4 d33f
00000030: d867 1540 6b0f 0040 50bc c73f 07b3 1240

layers.5.bias f4 [16]
-0.30223477 -0.24061558 0.14537153 0.041326977 -0.09608589 -0.17455946 0.37521988 0.32830787
0.33579654 0.21751264 -0.101707175 0.24708152 -0.12810306 0.31022322 -0.09064767 0.3006729
00000000: 84be 9abe ee63 76be 46dc 143e 7a46 293d
00000010: aec8 c4bd b7bf 32be d21c c03e f817 a83e
00000020: 86ed ab3e a2bb 5e3e da4b d0bd f002 7d3e
00000030: 732d 03be 94d5 9e3e 7ca5 b9bd ccf1 993e

layers.5.running_mean f4 [16]
-0.2901912 -0.45300812 0.21237025 -0.04636502 -0.44363743 -0.12869693 0.52344626 0.047514606
0.1260541 -0.11969021 -0.4949909 -0.09933501 0.309249 0.40890238 0.107263826 -0.27948382
00000000: f193 94be aef0 e7be 9677 593e 3fe9 3dbd
00000010: 7224 e3be 21c9 03be 9300 063f ad9e 423d
00000020: 5314 013e 2420 f5bd 726f fdbe 2770 cbbd
00000030: e355 9e3e a75b d13e 23ad db3d 8118 8fbe

layers.5.running_var f4 [16]
0.4749214 0.42657173 0.25666597 0.23862731 0.39206812 0.32988816 0.5851379 0.53398
0.40648425 0.70759016 0.7871753 0.31889153 0.5086574 0.48823857 0.3086835 0.58912396
00000000: e628 f33e 9c67 da3e b969 833e b85a 743e
00000010: 27bd c83e 1ae7 a83e 99cb 153f eab2 083f
00000020: b41e d03e a124 353f 5284 493f c045 a33e
00000030: 5f37 023f 68fa f93e c40b 9e3e d4d0 163f

layers.7.weight f4 [1, 16]
0.7340268 0.5115731 -0.9636938 0.5293908 0.41714862 0.84695727 -0.7986478 -0.68078035
-0.7888396 -0.83923763 1.070344 -0.58063823 1.1051008 -0.66432154 0.5476637 -0.66069573
00000000: 2ee9 3b3f 74f6 023f a3b4 76bf 2886 073f
00000010: 8194 d53e 31d2 583f 2f74 4cbf 9f47 2ebf
00000020: 64f1 49bf 47d8 56bf 0801 893f b5a4 14bf
00000030: f173 8d3f fa10 2abf b033 0c3f 5b23 29bf
